models/1/actor_n121.pt (torch, 226876 bytes, 30 tensors)

model.0.weight f4 [33]
0	0x3f83ca22	1.0296061
1	0x3f39d4f0	0.7259054
2	0x3f8f10b3	1.1176971
3	0xbcff4f71	-0.03116581
4	0x3db368fd	0.08760259
5	0x3d513896	0.051079355
6	0x3cf29213	0.02961067
7	0x3ded60b5	0.11590711
8	0x3dc0e671	0.09418953
9	0x3d08bfe5	0.03338613
10	0x3eadf347	0.33974668
11	0x3ec9d8d0	0.39423227
12	0x3eeca26f	0.46217677
13	0x3fdacc79	1.709365
14	0x3f8b5007	1.0883797
15	0x3fd40cee	1.6566446
16	0x3cbb5a4e	0.022870209
17	0x3d0304d9	0.031987045
18	0x3b61fc5c	0.0034482693
19	0x3e2b2356	0.16712698
20	0x3efb0347	0.49025938
21	0x3e4da54f	0.20082591
22	0x3dc37bd0	0.095451
23	0x3f5f29a0	0.8717289
24	0x3f439f70	0.7641516
25	0x3f638de6	0.88888395
26	0x3fe5a178	1.7939901
27	0x3f800000	1.0
28	0x3fee64e2	1.8624537
29	0x3f800000	1.0
30	0x3f800000	1.0
31	0x3f800000	1.0
32	0x3fa5a295	1.2940241

model.0.bias f4 [33]
0	0x3c97b8ae	0.01852068
1	0xbee56152	-0.44800812
2	0xbd650984	-0.055917278
3	0x3cd69741	0.02619517
4	0xbd541fc1	-0.051788095
5	0x3d1d7a13	0.038446497
6	0xbd6fc24f	-0.058534916
7	0xbd7adaf3	-0.061243962
8	0x3d4b4fcd	0.04963665
9	0x3d7288f7	0.05921265
10	0x3e5a8553	0.21339922
11	0xbeaccf59	-0.33751944
12	0xbe390e1f	-0.18071793
13	0x3e0ef080	0.13958931
14	0x3da88434	0.08228341
15	0x3d04077a	0.032233693
16	0xbda3ecbc	-0.08004138
17	0x3e38be79	0.1804141
18	0x3de103d5	0.10987059
19	0xbd7a63e1	-0.06113041
20	0xbb94bab5	-0.004538859
21	0xbd229eca	-0.039702214
22	0xbc4c4a21	-0.012468846
23	0xbc78fefc	-0.015197512
24	0x3df32df8	0.11874002
25	0x3d5e0c73	0.05421109
26	0x3e76825c	0.24073166
27	0x3ed79ba6	0.42110938
28	0xbd648129	-0.05578724
29	0xbe4fb320	-0.20283175
30	0x3ea839ba	0.32856542
31	0x3e9663ff	0.29373166
32	0xbc550720	-0.013002187

model.0.running_mean f4 [33]
0	0xbf037d84	-0.51363397
1	0xc0307974	-2.757413
2	0x3eeb64bf	0.459753
3	0x3f3cdf11	0.7377787
4	0xbd59dd7d	-0.053189743
5	0x3b9bec0a	0.0047583627
6	0x3d6e6688	0.05820325
7	0xbc830257	-0.015992327
8	0xbba72f8d	-0.005102104
9	0x3c1e9a2b	0.009680311
10	0x3d4c0757	0.049811687
11	0x3d51f193	0.051255774
12	0x3d3b5671	0.045736734
13	0xbf1f8d1b	-0.62324685
14	0xc0497d6b	-3.14828
15	0x3f044434	0.5166657
16	0x3cd40c73	0.025884843
17	0xbcbb5d00	-0.022871494
18	0xbb8cc446	-0.0042958586
19	0xbd3ac561	-0.04559839
20	0xbd6c77eb	-0.05773155
21	0xbd0d02fb	-0.03442667
22	0xbcab64b4	-0.020922042
23	0x3d449e5b	0.048002582
24	0x3dfd2fdd	0.12362645
25	0x3d88cfda	0.066802695
26	0xbdeba213	-0.115055226
27	0xbf7ffffc	-0.99999976
28	0x3d90e49c	0.07074854
29	0x00000000	0.0
30	0x3f7ffffc	0.99999976
31	0x00000000	0.0
32	0x3b8eb542	0.0043551037

model.0.running_var f4 [33]
0	0x4072c15b	3.7930515
1	0x3f370a9f	0.7150058
2	0x405dcd51	3.4656565
3	0x3e80627c	0.25075138
4	0x3d812979	0.063067384
5	0x3d4b70b2	0.04966802
6	0x3daf718c	0.08566579
7	0x3ed5edfe	0.41783136
8	0x3d903ca2	0.07042815
9	0x3e357c43	0.17723183
10	0x40441a45	3.0641034
11	0x3feb619f	1.8389167
12	0x403d1ed8	2.9550076
13	0x41940202	18.50098
14	0x4012cf00	2.2938843
15	0x418c3a54	17.52848
16	0x3df39e51	0.11895431
17	0x3e9e6204	0.30934155
18	0x3dcdb2a7	0.10043841
19	0x3eef68a6	0.46759528
20	0x4056f69e	3.3588023
21	0x3f825ae4	1.0183988
22	0x3f993ea5	1.1972243
23	0x41257a4d	10.342359
24	0x40d773a9	6.7328687
25	0x41131c8c	9.194469
26	0x41ffdd71	31.983126
27	0x00000004	6e-45
28	0x41ff7ee7	31.936964
29	0x00000004	6e-45
30	0x00000004	6e-45
31	0x00000004	6e-45
32	0x3eb0870f	0.34478042

model.1.weight f4 [256, 33]
0	0xbe906360	-0.28200817
1	0xbd85c765	-0.06532172
2	0x3e9d457c	0.30717075
3	0x3e47b9fb	0.1950454
4	0x3d5ebc8b	0.054379027
5	0xbe86e095	-0.26343217
6	0xbecd719b	-0.40125737
7	0xbe2c8c2f	-0.16850351
8	0x3dd32c27	0.10311156
9	0xbe523448	-0.20527756
10	0xbe1b3245	-0.15155895
11	0x3f34798c	0.70497966
12	0xbdb731c0	-0.08945036
13	0x3e9942b3	0.299337
14	0xbeaa1fa4	-0.33227265
15	0xbd81a98d	-0.06331167
16	0x3e974095	0.2954146
17	0xbdb0f67b	-0.086407624
18	0x3da35665	0.07975463
19	0x3e26b20f	0.16278861
20	0xbf3aaefd	-0.7292326
21	0xbea6203a	-0.32446462
22	0xbe904edf	-0.28185174
23	0xbe806808	-0.2507937
24	0xbf53c53a	-0.8272282
25	0x3dad764e	0.084698305
26	0x38c5ceac	9.432188e-05
27	0xbdf94243	-0.121708415
28	0xbe2e0fcd	-0.16998215
29	0x3e430818	0.19046056
30	0xbe7750c1	-0.24151899
31	0xbdd88fa8	-0.10574275
32	0x3e129c93	0.14317541
33	0xbeb7fefd	-0.35936728
34	0xbe0dc9d5	-0.13846524
35	0xbe3aa6d1	-0.18227698
36	0xbe640a55	-0.22269566
37	0xbc9a443c	-0.018831365
38	0x3e84348b	0.25821337
39	0xbdbd992a	-0.09257729
40	0x3e8d703c	0.2762469
41	0x3e1488ee	0.1450536
42	0x3dcdfc60	0.10057902
43	0x3cee71b8	0.02910696
44	0xbdd42d46	-0.10360198
45	0xbe46b85d	-0.19406267
46	0x3f2add30	0.66743755
47	0x3d95b10b	0.07309159
48	0x3edd7de0	0.43260098
49	0xbe09354b	-0.13399236
50	0x3f027132	0.5095397
51	0x3eaaafc9	0.33337238
52	0xbe0b2866	-0.1358963
53	0xbd181025	-0.03712477
54	0x3db11903	0.08647349
55	0x3d91546c	0.0709618
56	0xbcd9673a	-0.02653848
57	0xb90a3911	-0.00013181964
58	0x3d6713d8	0.05641541
59	0xbf1d55a3	-0.61458796
60	0x3e031e83	0.12804608
61	0xbe8f1560	-0.27945995
62	0xbcf299a1	-0.029614272
63	0x3e2a5e7d	0.16637607
64	0xbbe65d6f	-0.007030181
65	0x3d0b40e9	0.03399745
66	0xbe73ca03	-0.2380753
67	0x3f03efe4	0.5153792
68	0xbcd17150	-0.025566727
69	0xbeecc26c	-0.46242082
70	0xbe0fe5bd	-0.14052482
71	0x3e8e384c	0.27777326
72	0x3e1cb87d	0.15304752
73	0x3e836f76	0.25670975
74	0x3ece19c3	0.4025403
75	0x3d4da19c	0.05020295
76	0x3d84be6b	0.06481632
77	0x3d975c9b	0.0739071
78	0x3c3d4c39	0.011553817
79	0x3f6ae1df	0.917509
80	0xbe809460	-0.251132
81	0x3e366f55	0.17815907
82	0x3db0b53e	0.08628319
83	0xbdb7d720	-0.08976579
84	0xbd98ea32	-0.07466544
85	0x3e17d4fd	0.14827342
86	0x3e9d14dc	0.30679977
87	0x3df65629	0.120281525
88	0xbe2af5a4	-0.16695267
89	0x3e8f1777	0.2794759
90	0x3cd13b71	0.02554104
91	0x3e814a0a	0.252518
92	0xbe1357bd	-0.14388938
93	0xbf238a53	-0.6388294
94	0xbd73b0a6	-0.059494637
95	0x3e9cf07c	0.30652225
96	0xbf1e2b3c	-0.6178472
97	0xbee11125	-0.43958393
98	0x3d9f5753	0.07780328
99	0x3e580011	0.21093775
100	0x3e995ce8	0.29953694
101	0x3f1f490d	0.6222084
102	0x3f1939fb	0.59854096
103	0x3dcb64e6	0.09931354
104	0xbe8dc0d0	-0.27686167
105	0xbe115b8f	-0.14195083
106	0x3e302045	0.1719981
107	0xbe9a3488	-0.30118203
108	0x3e3d3c46	0.18480024
109	0x3e995634	0.2994858
110	0x3ebab723	0.36467847
111	0xbd04ed20	-0.032452703
112	0xbe59191a	-0.21200982
113	0xbe3dd945	-0.18539913
114	0xbe5d5eeb	-0.2161824
115	0xbe8113b8	-0.25210357
116	0xbf0aa654	-0.54160047
117	0x3ef51a52	0.47871643
118	0x3e07b062	0.13250878
119	0x3e9a81d4	0.30177176
120	0x3e49c8c2	0.1970549
121	0xbdc2527d	-0.0948839
122	0xbe8a0c08	-0.26962304
123	0xbeb37f0c	-0.35057867
124	0xbe2b151d	-0.16707273
125	0x3e1ce64d	0.15322228
126	0x3e5d40c7	0.21606742
127	0xbefe9b03	-0.4972764
128	0xbec73dfc	-0.38914478
129	0x3e972730	0.29522085
130	0x3e4d7929	0.2006575
131	0xbe839e7a	-0.25706846
132	0xbf0225f6	-0.50839174
133	0xbea26469	-0.31717232
134	0xbda411f5	-0.080112375
135	0x3d8bcf3b	0.068266355
136	0xbe68c9dc	-0.22733253
137	0xbe67e8b8	-0.22647369
138	0xbe61d9c8	-0.22055733
139	0x3e48ad43	0.19597344
140	0xbe80dacb	-0.25166926
141	0xbef31a72	-0.47481114
142	0xbf292c08	-0.6608281
143	0xbda3a368	-0.07990152
144	0xbe9cef72	-0.30651432
145	0xbe6fb9b6	-0.23410687
146	0x3ece3e2f	0.40281817
147	0x3cfcc059	0.030853437
148	0xbea9299d	-0.3303956
149	0xbecff6e8	-0.40618062
150	0x3e9df671	0.30852082
151	0xbe809e35	-0.25120702
152	0xbe10dd3c	-0.14146894
153	0x3dca863c	0.098888844
154	0xbe8ee3b2	-0.27908093
155	0xbd04994e	-0.032372765
156	0x3ef249e9	0.47322014
157	0xbe4aca65	-0.1980377
158	0x3e8b0c28	0.27157712
159	0xbdec5df6	-0.11541359
160	0xbed021c5	-0.40650764
161	0xbe006ef9	-0.12542333
162	0x3e068f09	0.13140501
163	0xbdd03216	-0.10165803
164	0x3e962d62	0.293315
165	0xbc75727c	-0.0149809085
166	0x3df48b5d	0.11940644
167	0xbe0c0111	-0.13672282
168	0x3d93eb64	0.072226316
169	0xbeb156cd	-0.34636536
170	0x3ea222ee	0.31667274
171	0x3ec780f2	0.38965565
172	0x3e876a25	0.2644817
173	0x3e40fa61	0.18845512
174	0x3e763300	0.24042892
175	0x3ed5f9a0	0.4179201
176	0xbc390e99	-0.011294984
177	0xbeae4aee	-0.34041542
178	0x3ecbd3eb	0.39810118
179	0x3c69ec75	0.014277567
180	0x3e568593	0.20949392
181	0x3e9ee32d	0.31032696
182	0x3e255cee	0.16148731
183	0xbdbae7f7	-0.09126275
184	0x3e33f635	0.1757439
185	0x3c8d1c6e	0.01722547
186	0x3dd2f70a	0.10301025
187	0x3ebb82b0	0.36623144
188	0x3eee96d9	0.46599463
189	0x3edc2c6c	0.4300264
190	0xbe3cd265	-0.18439634
191	0xbdb793a9	-0.08963711
192	0xbf0d9dde	-0.5531901
193	0x3f29c3e1	0.6631451
194	0x3f1c3f4f	0.610341
195	0xbf0ffd31	-0.56245714
196	0xbf1c3236	-0.61014116
197	0xbe7a6069	-0.2445084
198	0xbe7e9eb3	-0.24865226
199	0x3e1ee1c9	0.15515818
200	0xbee1fd4a	-0.44138557
201	0xbae30296	-0.0017319496
202	0xbe9fa256	-0.3117854
203	0x3e22c35a	0.15894833
204	0x3de6b140	0.112642765
205	0x3f00b823	0.5028097
206	0x3f03df93	0.5151302
207	0xbe7f8e73	-0.24956684
208	0xbf246c5c	-0.64227843
209	0x3ce4bb39	0.027921306
210	0xbea1cbc3	-0.3160077
211	0x3e3271e7	0.17426263
212	0xbd8822a0	-0.06647229
213	0x3e803fff	0.25048825
214	0x3d25f312	0.040515013
215	0xbeaac6e3	-0.33354864
216	0xbdb7049a	-0.089364246
217	0xbf121bd2	-0.570737
218	0x3e8979b2	0.2685066
219	0xbe0c70ff	-0.1371498
220	0x3e89a9b7	0.26887295
221	0xbe1df615	-0.15425904
222	0xbdbd8918	-0.09254664
223	0x3ea211c3	0.31654176
224	0x3c5b68a8	0.013391651
225	0xbf16ed5d	-0.5895594
226	0xbeee46e0	-0.46538448
227	0x3e93b31f	0.28847596
228	0xbef2df0d	-0.474358
229	0xbf0b6586	-0.5445179
230	0xbeeef73d	-0.46673003
231	0xbf1ae8cc	-0.6051147
232	0xbd8ae302	-0.067815796
233	0x3deac58e	0.11463462
234	0xbe9d793a	-0.3075655
235	0x3ec0f90f	0.37690017
236	0xbb950283	-0.0045474186
237	0x3ed3e35b	0.41384396
238	0xbe2c728a	-0.16840568
239	0xbdf02a0f	-0.11726772
240	0xbe2a8387	-0.16651736
241	0xbec8fe8f	-0.39256713
242	0xbcb761cc	-0.0223855
243	0xbe6f0f7a	-0.23345748
244	0x3e04cb19	0.129681
245	0x3ed6c9dc	0.4195088
246	0x3dfda11a	0.12384243
247	0xbd83b062	-0.06430127
248	0xbdd0f1be	-0.10202359
249	0xbe9a1393	-0.3009306
250	0x3ea8a1c0	0.32935905
251	0xbec6e0bd	-0.38843337
252	0x3e910abf	0.2832851
253	0xbe2f9070	-0.17144942
254	0xbef7bc21	-0.48385718
255	0xbde7d738	-0.113203466

model.1.bias f4 [256]
0	0xbde149ee	-0.11000429
1	0xbce400ab	-0.02783235
2	0xbef5edb8	-0.48032928
3	0x3e95d9ea	0.29267818
4	0x3ccf34b2	0.025293682
5	0xbeff51fc	-0.49867237
6	0xbed6a94d	-0.4192604
7	0xbecddee3	-0.40209112
8	0xbec75a95	-0.38936296
9	0xbdf7fb1a	-0.12108441
10	0xbe0cf1c4	-0.13764101
11	0xbdf88697	-0.12135046
12	0xbddc131c	-0.10745832
13	0xbc134331	-0.008988188
14	0xbebd7e34	-0.37010348
15	0xbf1d7ff7	-0.61523384
16	0xbea4f50f	-0.32218215
17	0xbdac8577	-0.08423894
18	0xbea89bd2	-0.3293138
19	0xbf177717	-0.5916609
20	0xbd7428f8	-0.059609383
21	0xbf09b2a8	-0.5378823
22	0xbefa5cdf	-0.4889898
23	0xbedd01f7	-0.43165562
24	0xbcea12c1	-0.028573396
25	0xbe28ac60	-0.16472006
26	0xbe7424d9	-0.23842181
27	0x3e845b6e	0.25851005
28	0xbe97060b	-0.29496798
29	0xbe528c38	-0.20561302
30	0xbe25508b	-0.16144006
31	0xbe8eb832	-0.27874905
32	0x3daaa55b	0.0833232
33	0x3e32acb0	0.17448688
34	0xbee5bb3e	-0.44869417
35	0x3e97269e	0.2952165
36	0xbef9be39	-0.4877794
37	0xbd534ef9	-0.051588986
38	0xbe872972	-0.26398808
39	0xbd5fd737	-0.054648604
40	0xbe75bbfa	-0.23997489
41	0xbf11be5d	-0.56931096
42	0xbe6334c9	-0.22188105
43	0xbd463c31	-0.048397247
44	0xbe2d7194	-0.16937858
45	0xbefb03c0	-0.490263
46	0xbee85d97	-0.45383903
47	0xbf057fa3	-0.52147883
48	0x3d13a869	0.03604928
49	0xbe9ae36e	-0.3025164
50	0xbf1079a1	-0.5643559
51	0xbedd8fba	-0.43273717
52	0xbebbfd6a	-0.36716777
53	0xbede3444	-0.4339925
54	0x3ea895c4	0.32926762
55	0xbf3ed6f9	-0.7454677
56	0xbe151a2c	-0.14560765
57	0xbc6d9cdc	-0.01450273
58	0x3e48f04f	0.1962292
59	0x3c22b510	0.009930864
60	0xbdeff41e	-0.117164835
61	0xbe2dabca	-0.16960064
62	0xbebd0028	-0.36914182
63	0xbe8274f2	-0.25479847
64	0x3e19bc6d	0.15013285
65	0xbeff9f6e	-0.49926323
66	0xbed212e3	-0.41030034
67	0xbe832f9d	-0.25622264
68	0xbf222b21	-0.6334706
69	0x3eb0e9ca	0.34553367
70	0xbe8d6389	-0.27615002
71	0xbed35a01	-0.41279605
72	0x3da20deb	0.07912811
73	0x3daa4e57	0.083157234
74	0xbf090a39	-0.53531224
75	0x3d967e28	0.07348281
76	0xbf1a427a	-0.60257685
77	0xbef844b4	-0.48489916
78	0xbe1ef70f	-0.15523933
79	0x3c30ba30	0.010786578
80	0xbe801ece	-0.25023502
81	0xbe0e313d	-0.1388597
82	0x3e00ccfe	0.12578198
83	0xbf09480a	-0.5362555
84	0xbe7eb3c7	-0.24873267
85	0xbf1f531f	-0.6223621
86	0xbebc453f	-0.3677158
87	0xbebe395d	-0.3715314
88	0xbe4bd549	-0.1990558
89	0xbeb3bbe0	-0.35104275
90	0xbe516191	-0.20447375
91	0x3cd71463	0.026254838
92	0x3d59547f	0.053059097
93	0xbd88b1e7	-0.06674557
94	0xbf14c8aa	-0.5811869
95	0x3d628fcf	0.055312928
96	0xbe5c481c	-0.21511883
97	0x3c8ceeb5	0.017203668
98	0xbe8e48ab	-0.27789816
99	0xbeced0e5	-0.4039375
100	0x3d6cd68b	0.05782179
101	0x3d948d5d	0.072535254
102	0xbd2ac94a	-0.04169587
103	0x3da80527	0.08204108
104	0x3e7c4313	0.24634962
105	0xbe74d48f	-0.2390921
106	0xbe2b7195	-0.16742547
107	0x3e3c7d05	0.18407066
108	0xbdf076c0	-0.117414
109	0xbef2d82e	-0.47430557
110	0xbec8719c	-0.39149177
111	0x3d5ef856	0.05443605
112	0x3e3b9e5c	0.18322128
113	0x3e0376c1	0.1283827
114	0xbdc2f661	-0.09519649
115	0xbc70168d	-0.014653814
116	0xbed673ea	-0.4188531
117	0x3e6be04a	0.23034778
118	0x3c1b7df9	0.009490483
119	0xbd8068b7	-0.06269973
120	0xbe714a4e	-0.23563501
121	0xbd12a1b4	-0.035798743
122	0xbdcba4d3	-0.09943547
123	0xbee9a4bd	-0.45633498
124	0x3e20e624	0.15712792
125	0xbeaacadf	-0.33357903
126	0xbd80415a	-0.06262465
127	0xbd92cd2f	-0.07168042
128	0xbe595272	-0.21222857
129	0x3dc46783	0.09590056
130	0xbed9dda9	-0.42551926
131	0xbe1d0e93	-0.15337591
132	0xbe095f43	-0.13415246
133	0xbeb39938	-0.35077834
134	0xbe9ae2da	-0.302512
135	0xbefe2153	-0.496348
136	0xbd715820	-0.058921933
137	0xbe41035e	-0.1884894
138	0xbec68675	-0.38774458
139	0xbdb4f305	-0.08835415
140	0xbe47d9b3	-0.1951664
141	0x3e7d7736	0.24752507
142	0x3e599c84	0.21251112
143	0x3e38b054	0.18036014
144	0xbea7e758	-0.3279369
145	0xbf504fba	-0.81371653
146	0x3db9827d	0.09058092
147	0xbf29968e	-0.66245353
148	0xbe8fc27f	-0.28078076
149	0xbdb45b34	-0.08806458
150	0x3e88b85b	0.26703152
151	0xbeed8a51	-0.4639459
152	0xbeb83eeb	-0.35985503
153	0xbe9d8d7d	-0.3077201
154	0xbd8d4c1a	-0.06899281
155	0x3d4631cf	0.048387345
156	0xbe3a4ed1	-0.18194129
157	0xbecd1a57	-0.40059158
158	0xbe932599	-0.28739622
159	0xbe7de43c	-0.24794096
160	0xbe3ab78d	-0.18234082
161	0xbe162222	-0.14661458
162	0x3d32dc44	0.043667093
163	0xbee40328	-0.44533658
164	0xbed40a53	-0.41414127
165	0xbe1f65cd	-0.15566178
166	0xbdb3ffd3	-0.08789029
167	0xbed0b663	-0.4076415
168	0x3e04ccd5	0.12968762
169	0xbed0a18a	-0.40748245
170	0x3e3851d9	0.17999972
171	0x3dc08c79	0.09401793
172	0xbe350378	-0.17677104
173	0x3e64bf6b	0.22338645
174	0x3e1c953a	0.152913
175	0xbed9df51	-0.4255319
176	0x3d184cd3	0.03718264
177	0xbec09ac1	-0.37618068
178	0x3d3f4610	0.046697676
179	0xbf0b0e75	-0.54318935
180	0xbd75421e	-0.059877507
181	0x3d20dee2	0.039275058
182	0x3df833fe	0.12119292
183	0xbea4e555	-0.32206216
184	0xbde5f7ed	-0.11228929
185	0x3ec103d7	0.37698242
186	0xbe8a20aa	-0.26978046
187	0xbef6a02b	-0.48169073
188	0xbf0c2096	-0.5473722
189	0xbee4c45d	-0.44681063
190	0xbeb6697d	-0.35627356
191	0xbee782fa	-0.45217115
192	0xbeff10e5	-0.49817577
193	0xbf4a8304	-0.79106164
194	0x3e052a56	0.13004431
195	0x3e281e4c	0.16417807
196	0xbefc6210	-0.49293566
197	0xbcd57acd	-0.026059533
198	0xbe5a734f	-0.21333049
199	0x3e09b9aa	0.13449731
200	0xbe9d5159	-0.30726126
201	0xbe72091f	-0.23636292
202	0xbdf10ab9	-0.11769623
203	0xbe94ea88	-0.29085183
204	0xbea17512	-0.3153463
205	0x3e780bd1	0.24223258
206	0x3d2d2ca5	0.042278904
207	0xbef02c57	-0.4690883
208	0xbe5c48eb	-0.21512191
209	0xbef96e92	-0.4871717
210	0xbed52f1c	-0.41637504
211	0xbec235b9	-0.37931612
212	0xbebcfe7f	-0.36912915
213	0x3e1e3498	0.1544975
214	0x3e1bc565	0.15212019
215	0xbce9d4c1	-0.028543832
216	0xbf02092b	-0.5079524
217	0xbe33dee5	-0.17565496
218	0xbe36775e	-0.17818972
219	0xbea6977d	-0.3253745
220	0x3e3cf612	0.18453243
221	0xbf15c631	-0.5850554
222	0x3d1f366c	0.03887026
223	0xbe7a6a0a	-0.24454513
224	0xbec804e4	-0.3906623
225	0x3e2023a7	0.156386
226	0xbe570370	-0.20997405
227	0xbe7fbc50	-0.2497418
228	0xbd8a2682	-0.06745626
229	0xbe3153de	-0.17317149
230	0x3e972dcc	0.29527128
231	0xbcb8924d	-0.0225307
232	0x3e2ac9b2	0.16678503
233	0xbf1d7b42	-0.615162
234	0xbd28ceaa	-0.041212715
235	0xbe92b843	-0.28656206
236	0xbe200ea7	-0.1563059
237	0xbd7b3fba	-0.06134007
238	0x3ea3c7ec	0.31988466
239	0xbeb55130	-0.35413504
240	0xbd85d67e	-0.06535052
241	0xbc956013	-0.018234288
242	0xbdc132e9	-0.094335385
243	0xbe03117d	-0.1279964
244	0xbed2d937	-0.41181347
245	0xbf1d55b1	-0.6145888
246	0xbdc08be4	-0.09401682
247	0x3e819cec	0.25315034
248	0xbe5d64a2	-0.2162042
249	0x3e3115c0	0.17293453
250	0xbd2b1c43	-0.041775
251	0xbf0ebfbe	-0.55761325
252	0xbed8a012	-0.42309624
253	0xbd96acab	-0.073571526
254	0x3da39fa3	0.07989433
255	0xbeb9b7a9	-0.36272934

model.3.weight f4 [256]
0	0x3f087ddb	0.5331704
1	0x3fa195f2	1.2623885
2	0x3fa627ea	1.2980931
3	0x3f266a30	0.6500578
4	0x3f682ae4	0.90690446
5	0x3f816f63	1.0112118
6	0x3f32ad11	0.6979533
7	0x3f16604f	0.58740705
8	0x3f437c72	0.76361763
9	0x3f79d4a3	0.9759008
10	0x3f6b554d	0.91927034
11	0x3f5ec6ee	0.8702229
12	0x3f065d81	0.52486426
13	0x3f18bb5a	0.59660876
14	0x3fe8f935	1.8201052
15	0x3f3c852c	0.73640704
16	0x3f842f7b	1.032699
17	0x3f8d994a	1.1062405
18	0x3f887b25	1.0662581
19	0x3f83206d	1.024427
20	0x3f83c8b7	1.0295628
21	0x3f9677cd	1.175531
22	0x3f9c95aa	1.2233174
23	0x3f4acf34	0.79222417
24	0x3f978469	1.1837283
25	0x3f5bac30	0.8580961
26	0x3f4bda2f	0.79629797
27	0x3faf6476	1.3702533
28	0x3f5133b4	0.8171952
29	0x3f9a6336	1.2061527
30	0x3f8a2ba4	1.0794568
31	0x3f21ba15	0.63174564
32	0x3fc98c3b	1.574592
33	0x3f913618	1.1344633
34	0x3f749e46	0.95554006
35	0x3fc707df	1.5549277
36	0x3f64904f	0.892827
37	0x3f0e37da	0.5555397
38	0x3f8be12f	1.0928096
39	0x3f72896f	0.9474096
40	0x3f79312d	0.9734066
41	0x3f9f8086	1.2461097
42	0x3fb39207	1.4028939
43	0x3f8a65d6	1.0812328
44	0x3f4a85ac	0.7911022
45	0x3fb6f143	1.4292377
46	0x3f83fd68	1.0311708
47	0x3f69f145	0.91383773
48	0x3f23710c	0.6384437
49	0x3f292d5d	0.66084844
50	0x3f738476	0.95123994
51	0x3f49299d	0.7857912
52	0x3f8adc79	1.0848533
53	0x3fa56dd5	1.2924143
54	0x3f4cab62	0.7994901
55	0x3f6f09fe	0.9337462
56	0x3f3988c3	0.72474307
57	0x3fb83297	1.4390439
58	0x3f7e82fb	0.9941861
59	0x3f894ff0	1.072752
60	0x3f70d538	0.94075346
61	0x3fbb8426	1.4649704
62	0x3f03baf2	0.5145713
63	0x3f2caaaa	0.6744791
64	0x3f2d820b	0.67776555
65	0x3f22e0e6	0.6362442
66	0x3f22d16f	0.6360082
67	0x3f7ad080	0.97974396
68	0x3f8a2bd4	1.0794625
69	0x3fa57b67	1.2928284
70	0x3f440949	0.7657667
71	0x3f76b8ed	0.96375924
72	0x3f80da91	1.0066701
73	0x3f78c10d	0.9716957
74	0x3f59db1e	0.8509997
75	0x3f25faf1	0.6483603
76	0x3f9c730f	1.2222613
77	0x3f91934a	1.1373074
78	0x3f9b6c26	1.2142379
79	0x3f4a216f	0.78957266
80	0x3f8390f3	1.027861
81	0x3f52631b	0.8218247
82	0x3f83a50b	1.0284742
83	0x3f9723ed	1.1807839
84	0x3f0da945	0.5533641
85	0x3f6f5db1	0.93502337
86	0x3f846af4	1.034514
87	0x3f831a4d	1.0242401
88	0x3f39f86c	0.72644687
89	0x3f85ec27	1.0462693
90	0x3f6fe1aa	0.9370371
91	0x3f64eed2	0.8942691
92	0x3fb5d033	1.4204162
93	0x3fa9a217	1.3252591
94	0x3f695879	0.91150624
95	0x3f7fe7a8	0.99962854
96	0x3fc97a86	1.5740516
97	0x3f33dfb8	0.7026324
98	0x3f5054dd	0.8137949
99	0x3fadfece	1.3593385
100	0x3f96e59f	1.1788825
101	0x3faaa84f	1.3332614
102	0x3fa559dc	1.2918048
103	0x3f878017	1.0585965
104	0x3fbac596	1.4591548
105	0x3f8f7d37	1.1210088
106	0x3fbeb7b9	1.4899818
107	0x3fc4541e	1.533817
108	0x3f8777cc	1.0583434
109	0x3f5577f4	0.8338616
110	0x3f7deb0e	0.9918679
111	0x3f171481	0.5901566
112	0x3f880cc0	1.0628891
113	0x3fa53ca7	1.2909135
114	0x3f4b71eb	0.794707
115	0x3f55f105	0.8357089
116	0x3f54c039	0.8310581
117	0x3f93628e	1.1514452
118	0x3fa0bbb3	1.2557281
119	0x3f8002a1	1.0000802
120	0x3f33b758	0.70201635
121	0x3f0f7175	0.56032497
122	0x3f368a3e	0.7130469
123	0x3f98a93c	1.1926646
124	0x3f2dc4b5	0.67878276
125	0x3f91caf8	1.1390066
126	0x3f8ebee5	1.1152006
127	0x3f9c4f7d	1.2211758
128	0x3fa2cd92	1.2718985
129	0x3f30f093	0.6911709
130	0x3fa48e55	1.2855936
131	0x3f1fbd00	0.62397766
132	0x3fb450e8	1.4087191
133	0x3f9c6295	1.2217585
134	0x3f577b58	0.8417258
135	0x3f33887b	0.7013013
136	0x3f08976c	0.5335605
137	0x3f42255c	0.75838256
138	0x3f762034	0.9614289
139	0x3fa59119	1.2934905
140	0x3f93b5a7	1.1539811
141	0x3f9fb1fe	1.2476194
142	0x3f5bcfc8	0.85863924
143	0x3f8a2d3d	1.0795056
144	0x3f82b8ef	1.0212687
145	0x3f77449d	0.9658907
146	0x3f773782	0.96569073
147	0x3f85de5d	1.0458485
148	0x3f951a50	1.1648655
149	0x3f65f4a7	0.89826435
150	0x3f2234b3	0.6336166
151	0x3f38406b	0.71973294
152	0x3fbc74bd	1.4723126
153	0x3f280918	0.65638876
154	0x3f204f35	0.6262086
155	0x3f58e6ee	0.8472737
156	0x3f9051f9	1.1275016
157	0x3f8aa240	1.0830765
158	0x3f46147e	0.7737502
159	0x3f801c3f	1.000862
160	0x3f7ace9b	0.97971505
161	0x3fc499a7	1.5359391
162	0x3fa47179	1.2847129
163	0x3f9ec486	1.2403724
164	0x3f8202b1	1.0157071
165	0x3f489fed	0.7836903
166	0x3f5bc80c	0.8585212
167	0x3fba6892	1.4563162
168	0x3f44a0e6	0.7680801
169	0x3f6a893b	0.9161565
170	0x3f56658f	0.83748716
171	0x3f796119	0.97413784
172	0x3f89632d	1.0733391
173	0x3fb256f7	1.393279
174	0x3fb6121a	1.4224274
175	0x3f6366d7	0.88828796
176	0x3f8c52de	1.0962789
177	0x3f8d1d07	1.1024483
178	0x3f710e67	0.941626
179	0x3f865694	1.0495172
180	0x3fcdd6b8	1.6081152
181	0x3fb42097	1.4072446
182	0x3f721254	0.94559216
183	0x3f864d76	1.0492389
184	0x3f85aa02	1.0442507
185	0x3f7b134d	0.98076326
186	0x3f9eb5b2	1.2399199
187	0x3f87810b	1.0586256
188	0x3f6a88ee	0.9161519
189	0x3f30fe28	0.6913781
190	0x3f7642e0	0.96195793
191	0x3f803f83	1.0019382
192	0x3f549593	0.8304073
193	0x3f45fe9c	0.7734163
194	0x3f87864f	1.0587863
195	0x3f4d8e5c	0.8029535
196	0x3f83423c	1.0254588
197	0x3fa9ee5c	1.3275867
198	0x3fc9274e	1.571512
199	0x3f9b7975	1.2146441
200	0x3fa965b2	1.323416
201	0x3f9a1a4f	1.2039279
202	0x3f93ea71	1.1555921
203	0x3fb5891d	1.4182469
204	0x3f8f8365	1.1211973
205	0x3fce2a93	1.6106743
206	0x3f277740	0.65416336
207	0x3f848663	1.0353512
208	0x3f7cb5da	0.98714983
209	0x3f3a4bf0	0.7277212
210	0x3f8224f7	1.0167531
211	0x3f7f6d6d	0.99776345
212	0x3f4e7e6c	0.80661654
213	0x3fa56a9d	1.2923161
214	0x3fb27c4d	1.3944184
215	0x3f5f3aa0	0.8719883
216	0x3f8f7940	1.1208878
217	0x3f701d3d	0.93794614
218	0x3f803c7a	1.0018456
219	0x3f8a8754	1.0822549
220	0x3f4c56d3	0.79819983
221	0x3f5ca921	0.8619557
222	0x3fbd2618	1.477725
223	0x3f6323ab	0.887263
224	0x3f6e9787	0.9319996
225	0x3fad1adf	1.3523825
226	0x3f69b71d	0.91295034
227	0x3f9bfae2	1.2185938
228	0x3f30444c	0.6885421
229	0x3f6f1b58	0.934011
230	0x3fc3c90b	1.5295728
231	0x3fb23e96	1.392535
232	0x3fa18e88	1.2621622
233	0x3f31219c	0.6919191
234	0x3f6b3fa8	0.91894007
235	0x3f97c739	1.1857673
236	0x3f5f50b2	0.87232506
237	0x3f74172c	0.9534786
238	0x3ed97384	0.42470944
239	0x3fb66b83	1.425156
240	0x3f523e41	0.8212624
241	0x3f8776ce	1.0583131
242	0x3f294083	0.6611406
243	0x3fa4c0ba	1.2871315
244	0x3f965990	1.1746082
245	0x3fd291ce	1.6450746
246	0x3fafaef4	1.3725266
247	0x3f65829c	0.8965242
248	0x3f63ccb8	0.8898425
249	0x3f723654	0.9461415
250	0x3f7c885c	0.9864557
251	0x3f7e0b5c	0.99236083
252	0x3ef9195f	0.4865217
253	0x3f9eb644	1.2399373
254	0x3fc8132f	1.5630854
255	0x3f828b38	1.0198736

model.3.bias f4 [256]
0	0xbe9ffbb0	-0.3124671
1	0xbf30c3d8	-0.69048834
2	0xbeeda622	-0.46415812
3	0x3eabf02d	0.33581677
4	0x3db24b2b	0.087057434
5	0xbf254486	-0.64557683
6	0xbdfd1b6d	-0.12358747
7	0xbe0ae3ba	-0.13563433
8	0xbf03ad71	-0.51436526
9	0xbeedeeea	-0.4647134
10	0xbeddba80	-0.4330635
11	0x3ea84229	0.32862976
12	0xbec0d352	-0.37661225
13	0x3d828d6a	0.06374629
14	0x3c959cff	0.018263338
15	0x3df64361	0.1202457
16	0xbca3e098	-0.020004556
17	0xbc3dc81b	-0.011583353
18	0xbce29f31	-0.027663799
19	0xbe47b770	-0.1950357
20	0x3ec8f3e2	0.39248568
21	0x3f159db8	0.58443785
22	0xbd6a5f6e	-0.057219915
23	0xbe8b3b53	-0.27193698
24	0x3f1414a4	0.57843995
25	0xbe1818c8	-0.14853203
26	0x3daed8ac	0.08537421
27	0x3e830b20	0.25594425
28	0x3f08b1e1	0.5339642
29	0xbd9cf171	-0.07663239
30	0xbf099d52	-0.53755677
31	0xbe550c8d	-0.20805569
32	0xbe113c77	-0.14183222
33	0x3f00c756	0.5030416
34	0xbe6b6360	-0.22987127
35	0xbf164028	-0.58691645
36	0x3d8ed903	0.069749855
37	0x3d8a1245	0.06741766
38	0xbe390c28	-0.18071043
39	0x3d8efd4f	0.069819085
40	0x3ebe1e52	0.37132508
41	0x3f8c555b	1.0963548
42	0xbe1cb46d	-0.15303202
43	0x3e637203	0.22211461
44	0xbed15133	-0.40882263
45	0xbe717487	-0.23579608
46	0x3ea54d5c	0.32285583
47	0x3e828031	0.25488427
48	0x3ec2cc73	0.38046607
49	0xbea3b524	-0.31974137
50	0xbda52892	-0.08064379
51	0xbe6d6337	-0.23182379
52	0x3dfe848b	0.12427624
53	0xb9fbb22b	-0.00048007196
54	0xbe1ca630	-0.1529777
55	0x3db1d9ee	0.08684145
56	0xbd2cfa71	-0.042231027
57	0x3e0d4a8c	0.13797969
58	0x3ea0ab2f	0.31380603
59	0xbe9ebd76	-0.31003922
60	0xbeb29bd3	-0.3488451
61	0x3eaad976	0.33369035
62	0x3d35793b	0.044305068
63	0xbf2e0e1b	-0.67990273
64	0x3e994d09	0.29941586
65	0xbe48e089	-0.19616903
66	0xbc2a70f5	-0.010402908
67	0xbef5463f	-0.47905156
68	0x3eb8fd2f	0.36130664
69	0x3e48304e	0.19549677
70	0xbced301f	-0.02895361
71	0x3dbf76cc	0.093488306
72	0xbebb57ed	-0.3659052
73	0x3e5cf526	0.21577892
74	0xbe8ddaf4	-0.2770611
75	0x3e4d263f	0.20034121
76	0xbe56e9ad	-0.20987578
77	0x3e801939	0.25019243
78	0xbc9d2a41	-0.019185187
79	0xbd99d3eb	-0.07511123
80	0xbe7bc69e	-0.24587485
81	0xbe019cd2	-0.12657478
82	0x3ef08cf1	0.4698253
83	0xbe49d461	-0.19709922
84	0xbecd006c	-0.40039384
85	0x3e62db62	0.22154
86	0x3e8231dc	0.25428665
87	0x3c2fb24b	0.010723661
88	0x3e3d454d	0.18483467
89	0x3de76dfc	0.11300275
90	0xbe35b1df	-0.17743634
91	0xbe03ab26	-0.12858257
92	0xbe501fe0	-0.2032466
93	0xbe579912	-0.21054485
94	0xbe8ad67f	-0.27116773
95	0xbe8f05c3	-0.27934083
96	0x3ef1eb95	0.47250047
97	0x3e7e9daa	0.24864832
98	0x3e00b977	0.12570749
99	0xbecd8cf2	-0.40146595
100	0x3e0a339a	0.13496247
101	0xbe98b3eb	-0.29824767
102	0xbe1a37ea	-0.15060392
103	0x3e637b97	0.22215115
104	0xbe8cde4c	-0.2751335
105	0x3ec65365	0.387355
106	0x3f052477	0.52008766
107	0x3e1d467a	0.15358916
108	0x3d7618b0	0.060082138
109	0xbdec0b35	-0.11525575
110	0x3ecf5e46	0.40501612
111	0xbdcbbdd7	-0.099483185
112	0x3f1f4b2d	0.62224084
113	0x3edbcae5	0.42928234
114	0xbf37eae5	-0.71842796
115	0xbe483ad2	-0.19553688
116	0x3e0bd54c	0.13655585
117	0xbd3d90c2	-0.04628063
118	0x3ed4134a	0.41420966
119	0xbd255f9c	-0.040374383
120	0xbed709b9	-0.41999605
121	0xbe52e975	-0.2059687
122	0xbcb17bb7	-0.021665437
123	0x3e87d42e	0.26529068
124	0xbdd42e9c	-0.103604525
125	0xbf327441	-0.6970864
126	0xbc82d552	-0.01597086
127	0x3ed31a01	0.41230777
128	0xbd67b0d6	-0.05656513
129	0x3e07a763	0.13247447
130	0x3ee4c227	0.44679376
131	0xbe57468a	-0.21023002
132	0x3dce7aa5	0.10081986
133	0xbd91f5bf	-0.071269505
134	0xbcdfff66	-0.027343463
135	0x3d127e40	0.035764933
136	0xbef327ed	-0.47491398
137	0x3f044ee8	0.516829
138	0xbdbce751	-0.092238076
139	0x3cd3c309	0.025849836
140	0x3f247b8d	0.64251024
141	0xbdc64612	-0.096813336
142	0xbe917739	-0.28411272
143	0xbd59ba2e	-0.05315607
144	0xbe8560e3	-0.2605048
145	0xbe640669	-0.2226807
146	0xbd57bd7d	-0.052670944
147	0xbea7a360	-0.32741833
148	0xbe2e1cfb	-0.17003243
149	0x3e31a72d	0.17348929
150	0x3f142f62	0.578848
151	0x3e5b406e	0.21411297
152	0xbe783c97	-0.24241863
153	0xbdc0e6a0	-0.09418988
154	0xbec52af5	-0.38509336
155	0x3e97fe44	0.29686177
156	0x3ef475fe	0.4774627
157	0xbee5cd53	-0.44883212
158	0x3e5f28c2	0.21792892
159	0x3f385dae	0.72017944
160	0xbe0b83fe	-0.1362457
161	0x3edf7727	0.43645594
162	0x3df5af44	0.1199632
163	0x3e610987	0.2197629
164	0xbebc6610	-0.36796618
165	0xbe707430	-0.23481822
166	0x3f5febfc	0.8746946
167	0x3dc882e5	0.09790591
168	0xbdeaf69b	-0.114728175
169	0xbef1908a	-0.47180587
170	0x3f1c97de	0.6116923
171	0x3f27eb5e	0.65593517
172	0xbd10bd43	-0.035336744
173	0x3ec9776c	0.39348924
174	0x3c16509f	0.009174495
175	0xbecad7cd	-0.39617768
176	0x3d96589a	0.07341118
177	0xbf74b263	-0.95584697
178	0xbe1c1525	-0.15242441
179	0x3ec904ca	0.39261466
180	0x3df3fe76	0.11913769
181	0xbdb62a9c	-0.08894846
182	0xbc199e46	-0.009376114
183	0xbce048b9	-0.027378427
184	0x3f27e0dd	0.6557749
185	0xbd6601c7	-0.05615404
186	0x3f4b40bd	0.7939566
187	0xbdaf5da8	-0.085627854
188	0x3d994e8c	0.07485685
189	0x3e7ef1b2	0.24896887
190	0x3f383469	0.7195497
191	0x3dbd33bf	0.092383854
192	0x3efa7d77	0.48923847
193	0x3e52283a	0.20523158
194	0xbede95a4	-0.43473542
195	0xbe983871	-0.2973056
196	0x3e3e102b	0.18560855
197	0xbeae615d	-0.34058657
198	0xbde429a9	-0.111407585
199	0x3ddbdc89	0.10735423
200	0xbdfe8551	-0.12427772
201	0x3cdb5ef2	0.026778672
202	0xbd9850a2	-0.074372545
203	0x3f01dcfa	0.5072781
204	0x3ee8346c	0.45352495
205	0x3e7d0add	0.24711175
206	0x3dd1f71e	0.10252212
207	0x3eb41a87	0.3517649
208	0x3caf37fd	0.021389002
209	0x3ec87440	0.39151192
210	0xbcefae88	-0.029258028
211	0xbe96358a	-0.29337722
212	0x3de0dcdb	0.10979625
213	0x3e915013	0.28381404
214	0xbdd7b61c	-0.105327815
215	0x3e0fc36a	0.14039388
216	0x3e27c0be	0.16382119
217	0x3ea9b447	0.33145353
218	0xbe2ef27c	-0.17084688
219	0xbec3455b	-0.38138852
220	0xbdd2ee8b	-0.10299405
221	0xbeb0aaf1	-0.34505418
222	0xbee1e3fd	-0.44119254
223	0xbe6f3bfd	-0.23362727
224	0xbdedf179	-0.11618323
225	0xbcd03ff6	-0.025421124
226	0x3ddbae0b	0.107265554
227	0xbc127455	-0.0089388685
228	0xbd7e8902	-0.06214238
229	0x3d0240ea	0.031800188
230	0xbe6c6e02	-0.2308884
231	0xbda10f6c	-0.078642696
232	0x3e931166	0.2872421
233	0xbdd20e79	-0.10256667
234	0xbf02dee4	-0.51121354
235	0x3eb45ec3	0.35228547
236	0xbec8065f	-0.3906736
237	0x3e716204	0.23572546
238	0xbed05827	-0.40692255
239	0x3f3f4535	0.74714977
240	0x3db210cf	0.08694612
241	0xbcb90987	-0.02258755
242	0xbd5f1a3d	-0.054468382
243	0xbf2abc2b	-0.6669337
244	0x3e5ad651	0.21370818
245	0x3f6ad415	0.9172986
246	0x3f252255	0.6450551
247	0x3ec303ed	0.38088933
248	0x3e1fe248	0.15613663
249	0xbda14b55	-0.078756966
250	0xbd0dbcc2	-0.03460384
251	0xbed1b3e2	-0.40957552
252	0xbcd2a53a	-0.025713552
253	0xbd78f1b5	-0.060777385
254	0xbe1dc8c8	-0.15408623
255	0x3efbb87f	0.49164197

model.3.running_mean f4 [256]
0	0x3e0b0a14	0.13578063
1	0x3ed9221d	0.4240884
2	0x3da18081	0.07885838
3	0x3f115d53	0.56783026
4	0x3f104166	0.5634979
5	0x3e775495	0.24153359
6	0x3d8a5531	0.0675453
7	0x3e6a7cdf	0.22899197
8	0x3ee29b16	0.44258946
9	0x3da74424	0.08167294
10	0x3e5c49e7	0.21512567
11	0x3e8a2969	0.26984718
12	0x3f5e5c4b	0.8685958
13	0x3f488294	0.78324246
14	0x3e3da86e	0.18521282
15	0x3e125ec7	0.14293967
16	0x3deb9f5d	0.115050055
17	0x3ef9765d	0.48723117
18	0x3e59e23a	0.21277705
19	0x3a9f5963	0.0012157377
20	0x3f224268	0.6338258
21	0x3e6a186e	0.22860882
22	0x3dca9cfc	0.09893224
23	0x3dd7f8db	0.10545512
24	0x3f0c41c3	0.54787844
25	0x3f085506	0.53254735
26	0x3dadd536	0.084879324
27	0x3f553f0e	0.8329934
28	0x3de2d4ad	0.11075721
29	0x3e999f5a	0.30004388
30	0x3d827c4c	0.06371364
31	0x3e2bde54	0.1678403
32	0x3ef5531e	0.47914976
33	0x3f95e689	1.1710979
34	0x3e834be1	0.2564383
35	0x3f338701	0.70127875
36	0x3e421ede	0.18957087
37	0x3ee159b5	0.44013754
38	0x3e77718d	0.2416441
39	0x3f42a37f	0.76030725
40	0x3f2f9d6a	0.6859957
41	0x3e2c2ea3	0.16814665
42	0x3d6cfea7	0.057860043
43	0x3f0d51b6	0.55202806
44	0x3ead1dc1	0.33811763
45	0x3dbfedfa	0.09371562
46	0x3e517673	0.20455341
47	0x3dbb3c5a	0.091423705
48	0x3f44d0d8	0.7688117
49	0x3e035554	0.12825519
50	0x3d2bf222	0.041978963
51	0x3e333a5a	0.17502728
52	0x3e068c28	0.13139403
53	0x3e5f19a0	0.21787119
54	0x3f9e9b48	1.2391138
55	0x3834b1ca	4.3080923e-05
56	0x3f04ab15	0.5182355
57	0x3f139fb8	0.57665586
58	0x3f92e213	1.1475242
59	0x3d2c5fdd	0.04208361
60	0x3eeab6f6	0.45842713
61	0x3f51ad7a	0.8190533
62	0x3eab5c92	0.33469063
63	0x3e8af069	0.27136543
64	0x3f6d8751	0.927846
65	0x3d36c58e	0.044621997
66	0x3da371c9	0.07980687
67	0x3e9e8a57	0.3096492
68	0x3d1e271e	0.038611524
69	0x3fbd2ccc	1.4779296
70	0x3e33bc54	0.1755231
71	0x3e3f0b93	0.18656759
72	0x3f0fb68b	0.56137913
73	0x3f3a237d	0.727104
74	0x3d81cf0d	0.0633832
75	0x3e7bd85f	0.24594258
76	0x3d1d42ae	0.03839367
77	0x3dbc17f8	0.09184259
78	0x3eb5fc4c	0.3554405
79	0x3f09512d	0.5363949
80	0x3d5a1a1d	0.05324756
81	0x3f0edfb6	0.55810106
82	0x3f03b4f3	0.5144798
83	0x3e012c20	0.12614489
84	0x3dab153f	0.08353662
85	0x00000004	6e-45
86	0x3ecb6e17	0.3973243
87	0x3e987a37	0.29780743
88	0x3e3c1c8c	0.18370265
89	0x3e92c256	0.28663892
90	0x3e2748e0	0.16336393
91	0x3eb0f817	0.34564278
92	0x3e93b474	0.28848612
93	0x3e370332	0.17872313
94	0x3d025bf1	0.031825963
95	0x3f1250cb	0.5715453
96	0x3f071cd0	0.5277834
97	0x3efa6709	0.48906735
98	0x3e930ca3	0.2872058
99	0x3da24289	0.07922847
100	0x3ea47eac	0.32127893
101	0x3eb97baf	0.36227176
102	0x3e9b2333	0.30300292
103	0x3e96b807	0.29437277
104	0x3f1f1a6e	0.62149704
105	0x3ea27045	0.3172628
106	0x3edffaa7	0.4374592
107	0x3f73588a	0.95056975
108	0x3ebb7a1f	0.36616609
109	0x3dc22c76	0.094811365
110	0x3e1f034a	0.15528598
111	0x3eefe835	0.46856847
112	0x3f2fb6cb	0.68638295
113	0x3f2c4824	0.6729758
114	0x3eed0ac8	0.46297288
115	0x3ebba09c	0.36645973
116	0x3e2f4c41	0.17118932
117	0x3f5cda0d	0.8627022
118	0x3f3fda0f	0.74942106
119	0x3f0d91d5	0.5530065
120	0x3ee31e04	0.44358838
121	0x3ed1357d	0.4086112
122	0x3e8e040c	0.27737463
123	0x3ead015b	0.33790097
124	0x3f3df895	0.7420743
125	0x3dbddb77	0.09270375
126	0x3ea1bb66	0.31588286
127	0x3ec700f2	0.3886791
128	0x3ee1c1b7	0.44093105
129	0x3f80e439	1.0069648
130	0x3e4c9f54	0.19982654
131	0x3e2b89d8	0.16751802
132	0x3e84e4c2	0.25955778
133	0x3e8cee5c	0.27525604
134	0x3df67532	0.12034072
135	0x3df017fc	0.11723325
136	0x3e969619	0.2941139
137	0x3ea17c9d	0.31540385
138	0x3db8ad60	0.09017444
139	0x3ebc2aca	0.36751395
140	0x3ea35c98	0.3190658
141	0x3ee07406	0.4383852
142	0x3f522cd7	0.8209967
143	0x3f1cee28	0.613009
144	0x3e32112d	0.17389365
145	0x388fa689	6.849791e-05
146	0x3e289148	0.1646167
147	0x3d7e5ca9	0.062100086
148	0x3d8ca26d	0.06866918
149	0x3ea66326	0.3249752
150	0x3f46efa8	0.77709436
151	0x3e9dfdc3	0.30857667
152	0x3e342639	0.17592706
153	0x3d8bf2bd	0.06833408
154	0x3f48015f	0.7812709
155	0x3f6a951e	0.91633785
156	0x3f21163f	0.6292457
157	0x3e29adc0	0.16570187
158	0x3e1f1e8d	0.15538998
159	0x3f0498d9	0.51795727
160	0x3e91e321	0.28493598
161	0x3f249149	0.6428419
162	0x3f244657	0.6416983
163	0x3e32c32f	0.17457269
164	0x3dddd9df	0.10832571
165	0x3f07c88a	0.53040373
166	0x3ec7f89b	0.39056858
167	0x3ea5d805	0.32391372
168	0x3f8d1901	1.1023256
169	0x3ec62bae	0.387052
170	0x3f2ce50a	0.67536986
171	0x3ea7d897	0.32782432
172	0x3d95915f	0.07303118
173	0x3f260946	0.648579
174	0x3f657837	0.8963656
175	0x3e3f2116	0.18664965
176	0x3e95f7de	0.2929067
177	0x3e99d02d	0.30041638
178	0x3f0fe432	0.56207573
179	0x3e172579	0.14760388
180	0x3e5d1b4d	0.21592446
181	0x3df925a4	0.121653825
182	0x3efa79ab	0.4892095
183	0x3ecea074	0.4035679
184	0x3f5ac993	0.8546383
185	0x3f91fa03	1.1404423
186	0x3ec67f79	0.3876913
187	0x3e6a7462	0.22895959
188	0x3d3a2ce5	0.04545297
189	0x3dde322c	0.10849413
190	0x3ea31499	0.31851652
191	0x3de8e6b9	0.11372132
192	0x3d8f535c	0.069983214
193	0x320f0114	8.323941e-09
194	0x3f5c34b9	0.8601795
195	0x3f22b49e	0.6355685
196	0x3e1cd413	0.15315275
197	0x3e9c6778	0.3054769
198	0x3eae7ad9	0.340781
199	0x3f6c89bf	0.92397684
200	0x3e456ed5	0.1928056
201	0x3df83907	0.12120252
202	0x3f0d0397	0.550836
203	0x3ede46dc	0.43413436
204	0x3dba9563	0.091105245
205	0x3f50cadd	0.81559545
206	0x3f9b3378	1.2125082
207	0x3d346765	0.044043917
208	0x3e4d2185	0.20032318
209	0x3e0ad98a	0.13559547
210	0x3e99fd34	0.3007599
211	0x3deb216f	0.11480986
212	0x3ed77956	0.4208476
213	0x3e7620f5	0.2403601
214	0x3ecb24c5	0.3967649
215	0x3ed2e7f4	0.4119259
216	0x3d9fa643	0.07795384
217	0x3ef80524	0.48441422
218	0x3e5a31e7	0.21308099
219	0x3de214a1	0.11039091
220	0x3ee030ea	0.43787318
221	0x3dd45f91	0.1036979
222	0x3e7b16d1	0.24520423
223	0x3e7bc05f	0.24585102
224	0x3e4377d0	0.19088674
225	0x3f32082f	0.6954374
226	0x3daa1966	0.083056256
227	0x3e9e2257	0.30885574
228	0x3f1497fa	0.580444
229	0x3ef0e398	0.4704864
230	0x3f8681a7	1.0508317
231	0x3ea03a9b	0.31294712
232	0x3f288089	0.6582113
233	0x3d39ef59	0.045394275
234	0x3db4cf4d	0.08828602
235	0x3eab535a	0.3346203
236	0x3f164e0b	0.58712834
237	0x3ee57668	0.448169
238	0x3f3dfe68	0.7421632
239	0x3e853df6	0.26023835
240	0x3e9339ed	0.2875513
241	0x3eb2d74a	0.34929878
242	0x3ec02822	0.3753062
243	0x3ea5518f	0.32288787
244	0x3e2de8a9	0.16983284
245	0x3e0305ae	0.12795135
246	0x3ef987a6	0.48736304
247	0x3f46e614	0.7769482
248	0x3f0bda8c	0.5463035
249	0x3f1b35af	0.6062879
250	0x3ee2105c	0.44153106
251	0x3e512443	0.20423989
252	0x3e2226fa	0.15835181
253	0x3e2b77b6	0.16744885
254	0x3f1619cc	0.5863311
255	0x3d6d45e8	0.057927996

model.3.running_var f4 [256]
0	0x3dfc42ba	0.123174146
1	0x3e24ed42	0.16106132
2	0x3d86e758	0.06587094
3	0x3eb2f606	0.34953326
4	0x3f219108	0.63111925
5	0x3e56f88d	0.20993252
6	0x3d24afc9	0.040206704
7	0x3e4afb5f	0.19822453
8	0x3eec9546	0.46207637
9	0x3d4d8f2e	0.050185375
10	0x3e1ca13f	0.15295886
11	0x3e73e85f	0.23819111
12	0x3fd67845	1.6755453
13	0x3f3c800c	0.73632884
14	0x3e12ea01	0.14347078
15	0x3e2ab932	0.16672209
16	0x3da9efcb	0.0829769
17	0x3ef0de11	0.47044423
18	0x3e42d834	0.19027787
19	0x39e57b08	0.0004376995
20	0x3f544a8b	0.82926244
21	0x3e512420	0.20423937
22	0x3dcaba69	0.09898836
23	0x3ddd5c0c	0.10808572
24	0x3eebb330	0.46035147
25	0x3f42fe2a	0.76169074
26	0x3d8dd810	0.06925976
27	0x3ec05f4f	0.37572715
28	0x3d9e34b5	0.07724897
29	0x3e54f42d	0.2079627
30	0x3d79f4e4	0.06102456
31	0x3dd72b0f	0.1050626
32	0x3e220cbb	0.15825169
33	0x3f2e205f	0.68018144
34	0x3e6adf5d	0.22936769
35	0x3f060f3c	0.52366996
36	0x3e0cfffe	0.13769528
37	0x3edb3133	0.42810974
38	0x3e634d36	0.22197422
39	0x3f848a1a	1.0354645
40	0x3f73dd9a	0.9526001
41	0x3e57837c	0.21046251
42	0x3d1ae9bc	0.037820563
43	0x3ee17cea	0.44040614
44	0x3ec01017	0.37512276
45	0x3d9210e2	0.071321264
46	0x3e76c869	0.24099888
47	0x3d9da222	0.0769694
48	0x3f685089	0.90747887
49	0x3dea5ceb	0.11443504
50	0x3d1a5cf4	0.037686303
51	0x3e37f3e1	0.17964126
52	0x3e171bf5	0.14756759
53	0x3e42dec1	0.19030286
54	0x3f286529	0.6577936
55	0x3752f1ff	1.25733195e-05
56	0x3f2ebd8e	0.6825799
57	0x3f1cb37a	0.6121136
58	0x3ef4a757	0.4778392
59	0x3cccfcb9	0.025022851
60	0x3eb9c09b	0.3627976
61	0x3f9b49d8	1.213191
62	0x3ea5eb6b	0.32406172
63	0x3e90d813	0.28289852
64	0x3f8ee74a	1.1164334
65	0x3d11a9a3	0.03556217
66	0x3d802cd0	0.06258547
67	0x3eca6a75	0.39534345
68	0x3cfcd7bf	0.030864595
69	0x3e35cdee	0.17754337
70	0x3e4c5bc1	0.19956876
71	0x3e31a020	0.17346239
72	0x3e8f52bc	0.2799281
73	0x3f187759	0.5955711
74	0x3d632bdd	0.055461753
75	0x3e824e2a	0.2545026
76	0x3cce7920	0.025204241
77	0x3daac3f4	0.08338156
78	0x3e8ab99f	0.27094743
79	0x3eb1f802	0.34759527
80	0x3d484967	0.048898127
81	0x3f37c30d	0.71782
82	0x3ee0fa7d	0.43941107
83	0x3dde1b7c	0.10845086
84	0x3d74f82a	0.05980698
85	0x00000004	6e-45
86	0x3edf8389	0.4365504
87	0x3e943ea8	0.28954053
88	0x3e406eca	0.18792263
89	0x3e66b27e	0.22529027
90	0x3e12fd99	0.14354552
91	0x3e3ffb25	0.18748148
92	0x3e094836	0.13406453
93	0x3de39d93	0.11114039
94	0x3cbee320	0.023301661
95	0x3eabf729	0.33587006
96	0x3f420094	0.7578213
97	0x3ed419e7	0.41426012
98	0x3ea3b04d	0.31970444
99	0x3d902ce9	0.07039816
100	0x3eb2ed65	0.34946743
101	0x3e6ea2c9	0.23304285
102	0x3e3c3c35	0.18382342
103	0x3e84bd7b	0.25925812
104	0x3e6cbe5b	0.2311949
105	0x3e922ed1	0.28551343
106	0x3ea09d22	0.31369883
107	0x3e472dd7	0.1945108
108	0x3e9ac18c	0.3022579
109	0x3dac02df	0.08398985
110	0x3e221d8b	0.15831582
111	0x3f022316	0.50834787
112	0x3eca792d	0.39545575
113	0x3e9793b6	0.29604882
114	0x3f006017	0.5014662
115	0x3ead0175	0.33790174
116	0x3e3c4380	0.18385124
117	0x3efe5da6	0.49680823
118	0x3f7a8561	0.9785977
119	0x3f4df998	0.80458975
120	0x3f007881	0.50183874
121	0x3ebaf5d0	0.36515665
122	0x3eac7675	0.33684126
123	0x3ee4fe07	0.44725057
124	0x3f02289e	0.50843227
125	0x3d59dde5	0.05319013
126	0x3e72f59b	0.23726504
127	0x3e996b6a	0.29964763
128	0x3f17d3f1	0.5930777
129	0x3fb387a0	1.4025764
130	0x3e26f0e5	0.16302831
131	0x3e00a23b	0.12561886
132	0x3df16117	0.117860965
133	0x3e7a42a5	0.24439485
134	0x3dd4ab8e	0.10384284
135	0x3e22dcd9	0.15904559
136	0x3e94bdeb	0.29051146
137	0x3ea32308	0.31862664
138	0x3da95dce	0.08269845
139	0x3ead16ea	0.33806545
140	0x3e64fe60	0.22362661
141	0x3e2c5b31	0.16831662
142	0x3f01cafa	0.5070034
143	0x3e9a8aff	0.3018417
144	0x3e335c95	0.17515786
145	0x380377e8	3.1344505e-05
146	0x3dd8bf62	0.105833784
147	0x3d8c9edb	0.06866237
148	0x3d18f42d	0.03734224
149	0x3e958fc3	0.29211244
150	0x3f475fa4	0.7788031
151	0x3eb7d1ae	0.3590216
152	0x3e10b8a0	0.14132929
153	0x3d449355	0.04799207
154	0x3f96ee0c	1.1791396
155	0x3fa35f5b	1.2763475
156	0x3f300afa	0.6876675
157	0x3e0c0273	0.1367281
158	0x3e145cd3	0.14488535
159	0x3f11a242	0.5688821
160	0x3e965e0c	0.29368627
161	0x3f1822f1	0.59428316
162	0x3e72251e	0.23646972
163	0x3e6335ed	0.2218854
164	0x3db5314a	0.08847292
165	0x3f1d21b9	0.6137958
166	0x3ed28267	0.41115114
167	0x3e8c2d98	0.27378535
168	0x3f94a45a	1.1612656
169	0x3ee6e7e9	0.45098808
170	0x3f3b061f	0.73056215
171	0x3e954fb9	0.29162386
172	0x3d5b3e0d	0.053525973
173	0x3f009b7b	0.50237244
174	0x3e322b9a	0.17399445
175	0x3e0ab06f	0.13543867
176	0x3e1de65d	0.15419908
177	0x3e866e62	0.2625609
178	0x3ec336bf	0.38127705
179	0x3dc86418	0.09784716
180	0x3e51dfcb	0.20495526
181	0x3da25631	0.07926596
182	0x3eb6032c	0.35549295
183	0x3eb9f338	0.36318374
184	0x3facc859	1.3498641
185	0x3fb238b2	1.3923552
186	0x3e9314e7	0.28726885
187	0x3e5778bc	0.2104215
188	0x3d4f3443	0.05058695
189	0x3df9e358	0.122015655
190	0x3ecb8ce5	0.39755931
191	0x3dbe972d	0.09306178
192	0x3d7a0332	0.061038204
193	0x2fb4c4b9	3.288159e-10
194	0x3f61c043	0.88183993
195	0x3efaefc1	0.49011043
196	0x3df96139	0.12176747
197	0x3e1d6159	0.15369166
198	0x3ea1988a	0.3156169
199	0x3edaa797	0.42705986
200	0x3e2bf0dc	0.167911
201	0x3db27ca7	0.08715182
202	0x3f0cbfbf	0.5498008
203	0x3eda8da9	0.42686203
204	0x3dcee944	0.10103086
205	0x3e353699	0.17696609
206	0x400d1d43	2.204911
207	0x3cc51677	0.024058564
208	0x3e340aa4	0.17582184
209	0x3e1c988a	0.15292564
210	0x3e88df12	0.2673269
211	0x3da62bd3	0.081138276
212	0x3edd9e61	0.43284896
213	0x3e222a35	0.15836413
214	0x3e8f7887	0.28021643
215	0x3ede0b0f	0.43367812
216	0x3d8e6d78	0.06954473
217	0x3f0ae961	0.5426236
218	0x3e15ec1a	0.14640847
219	0x3dd34caa	0.10317357
220	0x3edeb20c	0.43495214
221	0x3df60d89	0.120143004
222	0x3dbc1739	0.09184117
223	0x3e5cec2b	0.21574466
224	0x3e2a7075	0.16644461
225	0x3f11224d	0.56692964
226	0x3d85e1a4	0.06537178
227	0x3ec168c7	0.3777525
228	0x3f363a90	0.7118311
229	0x3f3f9713	0.74839896
230	0x3e3c7b67	0.1840645
231	0x3ded8fc7	0.11599689
232	0x3eef99d1	0.4679704
233	0x3cf01b73	0.029309964
234	0x3d64f559	0.055898044
235	0x3eb8ad3c	0.36069667
236	0x3f480ffa	0.7814938
237	0x3ef93ad3	0.48677692
238	0x3f2da547	0.6783032
239	0x3e750c03	0.23930363
240	0x3e8e7b8f	0.27828643
241	0x3e6d8f2f	0.23199151
242	0x3ed62d82	0.41831595
243	0x3e9ca2a9	0.3059285
244	0x3e103481	0.14082529
245	0x3df9d11e	0.12198089
246	0x3ea9e3f1	0.33181718
247	0x3f316b45	0.69304305
248	0x3f15c988	0.5851064
249	0x3ee947b1	0.4556251
250	0x3eafd997	0.34345695
251	0x3e426641	0.1898432
252	0x3e43dfd3	0.19128351
253	0x3da70e06	0.08156972
254	0x3e86a782	0.26299673
255	0x3d4a500b	0.04939274

model.4.weight f4 [128, 256]
0	0x3dd5b890	0.10435593
1	0xbe5d8393	-0.21632223
2	0x3e66a243	0.22522835
3	0x3e295dad	0.1653964
4	0x3e35505d	0.17706437
5	0xbe285c84	-0.16441542
6	0xba67c798	-0.00088416925
7	0x3e7699e9	0.2408215
8	0x3ec2006b	0.37890944
9	0x3e4cd1e5	0.20001943
10	0x3e9dcde0	0.30821133
11	0xbd7f71cc	-0.062364385
12	0xbdf6827c	-0.12036607
13	0xbed58058	-0.4169948
14	0x3ead73db	0.33877453
15	0x3c1ab890	0.009443417
16	0xbe9af476	-0.30264634
17	0xbd987b28	-0.07445365
18	0xbe96e483	-0.29471216
19	0xbd96ae45	-0.07357458
20	0x3e1ab837	0.15109335
21	0xbe6eaed0	-0.23308873
22	0x3e5e8218	0.21729314
23	0xbe287c55	-0.16453679
24	0xbeb59e68	-0.35472417
25	0xbf002696	-0.5005888
26	0x3ec04b44	0.37557423
27	0x3e3ef452	0.18647888
28	0xbd927116	-0.07150476
29	0xbd36ae3c	-0.044599757
30	0x3f0a4dd3	0.54025
31	0xbe3928e0	-0.18081999
32	0x3e89ef13	0.26940212
33	0xbece8bb0	-0.40340948
34	0x3edbf4cc	0.42960203
35	0x3b9ce628	0.004788179
36	0x3e250e3c	0.16118711
37	0x3e78fcd8	0.24315202
38	0x3ea26043	0.31714067
39	0x3ddf474a	0.10902269
40	0xbe2e1c8b	-0.17003076
41	0xbf627fb3	-0.88476104
42	0x3d13e475	0.036106545
43	0xbc9cdaae	-0.019147243
44	0x3ef73b4a	0.4828742
45	0xbec044ab	-0.3755239
46	0xbf1070e8	-0.5642228
47	0x3d6a64cc	0.057225034
48	0x3de9fb8e	0.114249334
49	0xbd9ed4bb	-0.07755419
50	0x3f1663b0	0.5874586
51	0x3e98c856	0.29840344
52	0xbe032d07	-0.12810145
53	0xbe725edb	-0.23668997
54	0xbeaa0b49	-0.33211735
55	0xbe8b19af	-0.27168033
56	0xbec0264b	-0.37529215
57	0xbf2619cc	-0.6488311
58	0xbd2b9860	-0.041893363
59	0xbe2eb22b	-0.17060153
60	0xbdb633c7	-0.088965945
61	0x3ea26181	0.31715015
62	0xbe25cebb	-0.16192143
63	0x3b0e0a51	0.002167363
64	0x3d3e25c6	0.046422742
65	0x3e406cad	0.18791457
66	0xbe119ab1	-0.14219166
67	0x3e354c82	0.17704967
68	0xbf089172	-0.5334693
69	0xbf16b617	-0.588716
70	0x3d740a03	0.05957986
71	0x3e41ce1a	0.18926278
72	0xbe77748e	-0.24165556
73	0xbdd60309	-0.10449798
74	0x3e9e5946	0.30927485
75	0x3dc6a1f3	0.09698858
76	0x3e8748f1	0.26422837
77	0xbeec70dd	-0.46179858
78	0x3dc8cf9f	0.098052256
79	0xbe035a51	-0.12827422
80	0xbeab19ab	-0.3341802
81	0xbbfa11fa	-0.0076315375
82	0x3bf70e79	0.007539567
83	0x3ebc3231	0.36757043
84	0x3bac7e29	0.005264063
85	0xbf24d78f	-0.64391416
86	0xbe169b6b	-0.14707725
87	0xbdb1c7f4	-0.08680716
88	0xbdc78b93	-0.097434185
89	0xbda63eed	-0.08117471
90	0x3e7a04b5	0.24415858
91	0x3dfa217d	0.12213419
92	0x3ecd31b2	0.40076977
93	0x3e79deae	0.24401352
94	0x3ebb4893	0.36578807
95	0xbf23c217	-0.6396803
96	0x3e3fb7a4	0.18722397
97	0xbe7f8cba	-0.24956027
98	0xbeab52fa	-0.33461744
99	0xbd20e3f1	-0.039279882
100	0xbd6a6d73	-0.057233285
101	0xbe9ffe14	-0.31248534
102	0x3e8b9ac1	0.27266505
103	0x3e4be38d	0.19911022
104	0x3f22f3bd	0.63653165
105	0x3dcbb557	0.09946697
106	0xbf7762d1	-0.96635157
107	0xbefd842a	-0.49514896
108	0xbd782dce	-0.060590558
109	0xbe5fe29f	-0.21863793
110	0x3e8a14c8	0.2696898
111	0x3e9f3488	0.31094766
112	0x3edb694c	0.42853773
113	0xbebf928e	-0.374165
114	0x3f02ad58	0.5104575
115	0xbda31bc7	-0.079642825
116	0xbd64f18d	-0.055894423
117	0xbea34d2c	-0.31894815
118	0x3e8e7c24	0.27829087
119	0xbf227d4d	-0.63472444
120	0x3e39eea2	0.18157437
121	0x3eb6eca3	0.35727414
122	0x3f121d92	0.5707637
123	0x3e8f3e5e	0.2797727
124	0x3cb67617	0.022273107
125	0x3e43d893	0.19125585
126	0xbd497fc9	-0.04919413
127	0xbea79de5	-0.3273765
128	0x3e92bcab	0.28659567
129	0x3e1651af	0.14679597
130	0x3e96cddd	0.29453936
131	0xbe59b779	-0.21261396
132	0xbe2f1435	-0.17097552
133	0xbd9adfab	-0.075621925
134	0x3e9e9df8	0.30979896
135	0xbe0b1443	-0.13581948
136	0x3dac7597	0.08420866
137	0xbf80ff18	-1.0077848
138	0x3e71b52e	0.23604271
139	0xbed64d60	-0.41855907
140	0x3d9f1b28	0.077688515
141	0x3eb4d547	0.35318968
142	0x3ec3ad66	0.3821823
143	0x3d883c20	0.06652093
144	0x3e2b1cce	0.16710207
145	0x3e0ed6f9	0.13949193
146	0x3dc788a7	0.09742861
147	0x3ef7c0d5	0.48389307
148	0x3e374332	0.17896727
149	0xbe9573d5	-0.29189935
150	0xbe52e629	-0.20595612
151	0xbd6473d5	-0.05577453
152	0xbe1285f7	-0.14308916
153	0x3b09e297	0.00210396
154	0x3d9e2928	0.07722694
155	0xbe6ff152	-0.234319
156	0xbee92dd5	-0.4554278
157	0xbf02b0e3	-0.5105116
158	0xbe395110	-0.18097329
159	0xbe89a454	-0.26883185
160	0x3ebe058a	0.371136
161	0xbef69eb6	-0.48167962
162	0xbef0a3da	-0.4700001
163	0xbee7ddb3	-0.4528633
164	0x3eafa71a	0.34307176
165	0xbd8a769d	-0.06760905
166	0xbeebe003	-0.46069345
167	0x3dfef02b	0.12448152
168	0x3ddfb867	0.10923844
169	0x3ec7aaf5	0.38997617
170	0x3deac6ff	0.11463737
171	0xbe4b1dad	-0.19835539
172	0x3ea50e71	0.3223758
173	0x3e9ef8a1	0.31049064
174	0xbe51130d	-0.20417424
175	0x3f124238	0.5713229
176	0x3ddc070d	0.10743532
177	0xbd385dde	-0.045011394
178	0xbeec4db1	-0.46153024
179	0xbe74c0c9	-0.23901667
180	0x3e4048a0	0.18777704
181	0x3f03ca86	0.514809
182	0x3d65fc0c	0.056148574
183	0xbe20dbbb	-0.1570882
184	0xbe01f6d6	-0.12691817
185	0xbe48f28f	-0.19623779
186	0xbf05605a	-0.52100146
187	0xbf274249	-0.6533552
188	0xbefe7e45	-0.4970571
189	0x3e78a583	0.24281888
190	0xbc61901e	-0.01376727
191	0xbe88f949	-0.2675269
192	0xbdc01702	-0.093793884
193	0x3c8fe0f9	0.01756333
194	0x3d9b800d	0.07592783
195	0x3e3b6c13	0.18302946
196	0x3e984f99	0.29748228
197	0xbe7544be	-0.23952004
198	0xbd965b45	-0.07341627
199	0x3ee16d94	0.44028914
200	0xbd00d176	-0.031449758
201	0x3ec32fd9	0.38122442
202	0xbdedebcd	-0.11617241
203	0xbeb6eb99	-0.35726622
204	0xbe61f2af	-0.22065233
205	0x3e77a2ff	0.24183272
206	0xbe59ee94	-0.21282417
207	0x3e07becd	0.13256378
208	0xbf0aa333	-0.5415527
209	0xbf26e321	-0.6519032
210	0xbe08dae8	-0.13364756
211	0xbea6aa43	-0.32551774
212	0xbe8a0990	-0.2696042
213	0x3de78ccd	0.113061525
214	0xbd257bb8	-0.04040119
215	0x3d704a97	0.058664884
216	0xbea84466	-0.32864684
217	0xbf07295a	-0.5279747
218	0x3eaaae1c	0.3333596
219	0xbec2bba2	-0.38033777
220	0x3ed2bc79	0.41159418
221	0x3c10aa3c	0.00882965
222	0x3d9663dc	0.073432654
223	0x3b881e5f	0.004154011
224	0xbd124bdb	-0.035716873
225	0x3e386954	0.1800893
226	0x3b53a4fd	0.0032294386
227	0xbed3d26d	-0.4137148
228	0x3f3dd241	0.74148947
229	0x3e988736	0.29790658
230	0x3e0445af	0.12917207
231	0x3f1b8b36	0.60759294
232	0x3e290c50	0.16508603
233	0x3e194ee8	0.14971507
234	0x3e3bc838	0.18338096
235	0x3d6d6649	0.057958875
236	0x3edfa10e	0.43677562
237	0x3ea65447	0.32486174
238	0x3dc9351c	0.09824583
239	0x3ebaf129	0.36512116
240	0xbe83afa0	-0.2571993
241	0x3efc7b51	0.49312833
242	0x3f3514ec	0.7073505
243	0x3e91b6d8	0.2845981
244	0xbd37c8c1	-0.04486919
245	0xbf1f2320	-0.6216297
246	0xbd749833	-0.05971546
247	0xbe4e23ae	-0.20130798
248	0xbedf0c87	-0.43564245
249	0x3e4a8037	0.19775473
250	0x3e8ff095	0.28113237
251	0xbe2c18a3	-0.16806273
252	0x3dd61497	0.10453146
253	0xbda9992f	-0.082811706
254	0x3e1975ad	0.14986296
255	0xbe8c6af9	-0.27425364
