models/1/critic_n121.pt (torch, 215160 bytes, 13 tensors)

model_s.0.weight f4 [33]
0.84279525 0.52677184 0.8418478 0.08724847 0.011225178 0.03879243 -0.008288541 0.010581925
0.05638898 -0.0021797707 0.23389919 0.2273702 0.22777613 1.5273173 0.8500917 1.5218043
0.05598355 0.047545884 0.01962018 0.083853655 0.20703237 0.11594192 0.077326626 0.58825785
0.5047311 0.54968417 1.4122553 1.0 1.4563925 1.0 1.0 1.0
0.86962885
00000000: 6ec1 573f 85da 063f 5683 573f 53af b23d
00000010: cfe9 373c d0e4 1e3d a9cc 07bc cf5f 2d3c
00000020: 22f8 663d 7cda 0ebb 4583 6f3e bcd3 683e
00000030: 253e 693e 227f c33f 9c9f 593f 7cca c23f
00000040: 024f 653d 79bf 423d 80ba a03c 77bb ab3d
00000050: 4b00 543e f572 ed3d 6c5d 9e3d 1198 163f
00000060: 0f36 013f 1ab8 0c3f c8c4 b43f 0000 803f
00000070: 126b ba3f 0000 803f 0000 803f 0000 803f
00000080: ff9f 5e3f

model_s.0.bias f4 [33]
0.06450503 -0.32607672 0.049233116 0.015998745 -0.008148474 -0.011207738 0.0050495216 0.0002295733
-0.00705611 0.011821739 0.012832007 -0.23561236 -0.001557669 0.06012148 -0.087021425 0.1519005
-0.008369494 0.0048693884 0.01826464 -0.042360462 0.02628971 -0.031429905 0.008183561 -0.068644
-0.054300845 -0.058059484 0.018387714 0.37361917 -0.13090491 0.2270706 -0.6962329 -0.4981747
-0.041684914
00000000: 371b 843d 87f3 a6be aaa8 493d cd0f 833c
00000010: 2d81 05bc a9a0 37bc 7576 a53b 9db9 7039
00000020: f136 e7bb f8af 413c 573d 523c 5e44 71be
00000030: b32a ccba f141 763d 4a38 b2bd ce8b 1b3e
00000040: 3420 09bc 648f 9f3b ba9f 953c 2a82 2dbd
00000050: 855d d73c a5bc 00bd 5814 063c 3a95 8cbd
00000060: 906a 5ebd c8cf 6dbd d5a1 963c 034b bf3e
00000070: f00b 06be 3285 683e 523c 32bf c110 ffbe
00000080: cdbd 2abd

model_s.0.running_mean f4 [33]
-0.50976586 -2.7649655 0.49115816 0.7302178 -0.052737847 0.0032184923 0.06170651 -0.020556392
-0.0062765777 0.012969789 0.06365642 0.08108444 0.06881632 -0.62372553 -3.1633587 0.58746654
0.029914577 -0.03257039 -0.005271787 -0.032241236 -0.053176485 -0.039270006 -0.0073380885 0.024235366
0.14331637 0.08010356 -0.14142515 -0.99999976 0.1973491 0.0 0.99999976 0.0
0.00046994037
00000000: 0480 02bf 32f5 30c0 1579 fb3e 8eef 3a3f
00000010: a403 58bd 57ed 523b f7bf 7c3d e165 a8bc
00000020: c0ab cdbb 3d7f 543c 4c5e 823d 990f a63d
00000030: 92ef 8c3d 7aac 1fbf 7874 4ac0 3564 163f
00000040: 6a0f f53c 8768 05bd f4be acbb 630f 04bd
00000050: 96cf 59bd 96d9 20bd 5974 f0bb 3f89 c63c
00000060: 87c1 123e 560d a43d c1d1 10be fcff 7fbf
00000070: e215 4a3e 0000 0000 fcff 7f3f 0000 0000
00000080: 5462 f639

model_s.0.running_var f4 [33]
3.8267617 0.7095704 3.3716166 0.26131773 0.06381934 0.051125977 0.0837073 0.4250462
0.067844056 0.17425549 2.981016 1.7836678 2.97387 18.518589 2.2739398 17.203167
0.119345516 0.30636162 0.100419275 0.47040856 3.2287178 1.0197622 1.2152151 10.592461
6.8046455 9.174568 32.027252 6e-45 31.796537 6e-45 6e-45 6e-45
0.3425205
00000000: aae9 7440 68a6 353f 91c8 5740 70cb 853e
00000010: b7b3 823d 7969 513d bc6e ab3d a89f d93e
00000020: d3f1 8a3d 0870 323e f7c8 3e40 3a4f e43f
00000030: e353 3e40 1226 9441 3b88 1140 16a0 8941
00000040: 6c6b f43d 6edb 9c3e 9fa8 cd3d 64d9 f03e
00000050: 50a3 4e40 9187 823f 2b8c 9b3f b87a 2941
00000060: a8bf d940 08cb 1241 e81b 0042 0400 0000
00000070: 4f5f fe41 0400 0000 0400 0000 0400 0000
00000080: d95e af3e

model_s.1.weight f4 [256, 33]
-0.0013501424 0.22665939 -0.045118917 -0.21594827 -0.039699562 0.39072102 -0.022383315 0.2576522
0.07061737 -0.35403198 0.12788959 -0.117275976 -0.470073 0.4111695 -0.16443178 0.022602195
-0.031316742 -0.17192876 0.02394669 0.28761148 -0.13479131 0.16721444 -0.08903554 0.69124675
0.10121294 0.25867033 0.029045338 -0.31959242 0.37016383 -0.4922093 0.36493626 0.33100742
-0.23514655 -0.18410046 -0.00037761536 0.11062935 -0.061792023 -0.14587967 0.0006578618 -0.2747829
-0.5312287 0.13688362 -0.1377232 -0.5816306 0.026879247 0.36189 0.4329428 -0.14926916
-0.11075016 -0.018929627 -0.15415749 0.25781593 -0.45034754 0.25817996 0.20665969 -0.19414835
-0.011726441 0.079223305 -0.19841878 -0.14380567 -0.36131907 -0.120718 -0.404192 0.36781535
0.257621 0.5222448 -0.50522757 0.19150591 0.32924458 0.048295114 0.07936273 0.2126821
0.20806652 -0.1509089 -0.42437494 -0.1524463 -0.5904784 -0.5540873 0.2572631 0.09997995
-0.24642366 0.071935736 0.093211904 0.16588151 -0.14706369 0.14355396 0.49933293 -0.5470264
0.74311554 0.28901023 0.3417598 -0.16135831 -0.002461959 -0.29954052 0.30003253 -0.20191209
0.4654752 0.41499314 0.03664575 -0.25561342 -0.030163156 -0.312125 -0.24338844 -0.041393828
-0.38080022 -0.0134555185 -0.20682676 0.0020120677 -0.11597397 -0.29606414 -0.21114947 0.30727217
0.24852124 -0.46094838 -0.13411178 0.119489506 0.10833287 0.31183472 -0.22201557 -0.15042457
0.25543058 0.10088039 -0.19381158 -0.03738332 0.3542562 0.045253217 -0.67269844 0.077960365
-0.6011401 0.76395774 0.79002905 0.19064452 0.049344085 -0.18949945 -0.00639785 -0.25458446
0.13170053 -0.08672635 -0.32808948 -0.3316877 0.19836093 0.04860511 -0.046434 -0.06095725
0.697569 0.050303563 -0.051466014 0.16954689 -0.08024963 -0.04271595 0.34384823 0.1752228
-0.47756135 0.22826503 0.266136 -0.31956705 -6.027847e-06 0.11158844 -0.01338118 -0.6908378
-0.20693573 -0.49441123 0.5689158 0.71812373 -0.15145777 -0.12898983 0.2737017 -0.28851047
0.052336205 0.06395767 0.06134569 -0.33109233 -0.18370208 -0.25000668 -0.14968617 -0.5221742
0.25334528 0.079013966 -0.0328512 -0.25458297 -0.21423666 -0.24324861 0.093251586 -0.07607955
0.014424706 0.24541578 0.22773598 0.102164574 -0.39031434 0.1964748 -0.031440128 0.26065168
-0.55843306 0.39962867 -0.38500008 0.59300935 0.48486796 0.089423105 -0.013342691 0.093944825
-0.42247644 0.19705984 -0.26489082 0.4507766 0.14524761 0.25214723 0.0007329907 0.21425347
0.29258403 0.15847027 0.078591995 0.14363948 -0.19160864 0.2875938 0.24835394 -0.2050564
-0.052335944 0.117858775 0.2262235 0.35381907 -0.07757256 0.15822364 0.12826839 0.22458275
-0.14052473 -0.3974951 0.09602677 -0.20247601 0.34358212 0.26704344 0.2096674 -0.13667898
-0.19549997 -0.15541984 0.046495397 -0.15329528 -0.17471959 -0.39099684 -0.12361977 -0.27619857
-0.08899924 -0.13551556 0.016114185 -0.18039688 -0.11314024 0.050967664 0.28379875 0.070215695
-0.064925 -0.16181132 0.49157083 0.19732372 -0.14755405 0.22774719 0.052022457 0.17130622
00000000: 43f7 b0ba 6619 683e 9dce 38bd 8b21 5dbe
00000010: 029c 22bd 960c c83e 375d b7bc fdea 833e
00000020: d79f 903d ae43 b5be 7df5 023e 632e f0bd
00000030: 69ad f0be cf84 d23e ce60 28be 3d28 b93c
00000040: fc45 00bd 180e 30be d92b c43c d041 933e
00000050: bc06 0abe 433a 2b3e 4458 b6bd 8cf5 303f
00000060: bb48 cf3d 7070 843e 7df0 ed3c 9ea1 a3be
00000070: 1d86 bd3e db02 fcbe edd8 ba3e ce79 a93e
00000080: 42ca 70be d584 3cbe adfa c5b9 a491 e23d
00000090: a219 7dbd 7b61 15be 5c74 2c3a 58b0 8cbe
000000a0: 9bfe 07bf 382b 0c3e 4f07 0dbe bee5 14bf
000000b0: de31 dc3c a549 b93e aeaa dd3e 04da 18be
000000c0: fbd0 e2bd 4e12 9bbc 76db 1dbe 7300 843e
000000d0: f493 e6be 2a30 843e 999e 533e d3ce 46be
000000e0: 4220 40bc d43f a23d 4b2e 4bbe cb41 13be
000000f0: d0fe b8be 003b f7bd 41f2 cebe 4b52 bc3e
00000100: e6e6 833e d6b1 053f 9856 01bf 201a 443e
00000110: bf92 a83e 19d1 453d ed88 a23d 56c9 593e
00000120: 640f 553e dd87 1abe ac47 d9be e21a 1cbe
00000130: 9829 17bf aad8 0dbf fdb7 833e 4ac2 cc3d
00000140: 7c56 7cbe 0b53 933d e2e5 be3d d8dc 293e
00000150: dd97 16be cfff 123e 91a8 ff3e ec09 0cbf
00000160: d23c 3e3f 26f9 933e 24fb ae3e 1d3b 25be
00000170: d158 21bb 605d 99be dd9d 993e 0bc2 4ebe
00000180: c452 ee3e fb79 d43e db19 163d c3df 82be
00000190: b918 f7bc d9ce 9fbe d23a 79be 938c 29bd
000001a0: 3ff8 c2be 8974 5cbc 65ca 53be e5dc 033b
000001b0: c383 edbd b895 97be 9137 58be c752 9d3e
000001c0: 5a7c 7e3e 6d01 ecbe 9954 09be eab6 f43d
000001d0: a0dd dd3d cda8 9f3e 0d58 63be e608 1abe
000001e0: ccc7 823e 619a ce3d 8b76 46be 411f 19bd
000001f0: 1261 b53e 705b 393d f735 2cbf afa9 9f3d
00000200: 51e4 19bf bc92 433f 583f 4a3f 5138 433e
00000210: 061d 4a3d 250c 42be 0ea5 d1bb e558 82be
00000220: 81dc 063e 969d b1bd 58fb a7be f8d2 a9be
00000230: 211f 4b3e 2716 473d 9431 3ebd 4fae 79bd
00000240: e293 323f 1c0b 4e3d 07ce 52bd b39d 2d3e
00000250: eb59 a4bd ecf6 2ebd e00c b03e 9b6d 333e
00000260: ec82 f4be 4fbe 693e fa42 883e 4b9e a3be
00000270: d042 cab6 7b88 e43d bd3c 5bbc bfda 30bf
00000280: f6e6 53be 7823 fdbe 77a4 113f f5d6 373f
00000290: bf17 1bbe e915 04be a122 8c3e a5b7 93be
000002a0: 7d5e 563d 3dfc 823d 9e45 7b3d ef84 a9be
000002b0: 661c 3cbe e000 80be 5547 19be 35ad 05bf
000002c0: 79b6 813e 13d2 a13d fb8e 06bd b358 82be
000002d0: db60 5bbe 2a16 79be b0fa be3d 98cf 9bbd
000002e0: 9a55 6c3c 464e 7b3e 9f33 693e a93b d13d
000002f0: 48d7 c7be b130 493e 5dc7 00bd 2374 853e
00000300: 78f5 0ebf 219c cc3e bb1e c5be 76cf 173f
00000310: 9d40 f83e 7623 b73d 4d9b 5abc 2566 c03d
00000320: d54e d8be 0eca 493e c59f 87be 31cc e63e
00000330: cabb 143e 7119 813e 2c26 403a 4365 5b3e
00000340: 93cd 953e 0846 223e d7f4 a03d 3a16 133e
00000350: 0e35 44be 7f3f 933e 7f50 7e3e 4efa 51be
00000360: 375e 56bd f15f f13d 22a7 673e c627 b53e
00000370: 5dde 9ebd 6105 223e ca58 033e 05f9 653e
00000380: b7e5 0fbe 7a84 cbbe afa9 c43d df55 4fbe
00000390: ffe9 af3e ebb9 883e 0db3 563e 93f5 0bbe
000003a0: 2531 48be 6126 1fbe f571 3e3d 70f9 1cbe
000003b0: b1e9 32be bd30 c8be 5d2c fdbd e669 8dbe
000003c0: 3c45 b6bd 97c4 0abe e501 843c f6b9 38be
000003d0: 12b6 e7bd 78c3 503d 124e 913e 3fcd 8f3d
000003e0: 66f7 84bd deb1 25be 2caf fb3e 3b0f 4a3e
000003f0: 6918 17be 8f36 693e 8015 553d e66a 2f3e

model_s.1.bias f4 [256]
-0.3260745 -0.32070225 -0.30643165 -0.6556308 -0.54010266 -0.47144884 -0.21565174 -0.26491573
-0.18353134 -0.31195787 -0.32112914 -0.45312545 -0.3979288 -0.14948729 -0.51890147 -0.10643467
-0.31637484 -0.035199624 -0.1931083 -0.4050935 -0.28463337 -0.3108787 -0.037146114 -0.23669045
-0.4052778 -0.19325896 -0.16399786 -0.447918 0.1097407 -0.29852024 -0.3438463 -0.3126126
-0.44448972 -0.39714164 -0.3865379 -0.20656483 -0.4526148 -0.33185735 -0.15883854 -0.20830575
-0.4151629 -0.2103989 -0.26618296 -0.09828752 -0.08288893 -0.08958425 -0.37999174 -0.50223315
-0.1620025 -0.12920249 -0.16498338 -0.2592418 -0.022338774 -0.4869115 -0.34694937 -0.35192984
-0.11915053 -0.45390207 -0.15797062 -0.30096298 -0.16268636 -0.36383897 -0.35451633 -0.1458399
-0.30775064 -0.060481664 -0.15268734 -0.14539179 -0.23416436 -0.14706494 -0.5054371 -0.24653721
-0.12941949 -0.3282505 -0.35646224 -0.30624795 -0.13197888 -0.17802206 -0.17323644 -0.16851723
-0.292059 -0.28872105 -0.27730554 -0.34392142 0.24980094 -0.24348135 -0.005448615 -0.15151718
-0.29501796 -0.23970895 -0.47237986 -0.4610755 -0.051590297 -0.36279833 -0.21981505 -0.36977795
-0.25013772 -0.1900351 -0.40790755 -0.16008097 -0.5089903 -0.31589094 -0.18124157 -0.39822996
-0.04027144 0.010554155 -0.15566856 -0.29750916 -0.37069866 -0.45821244 -0.35616204 -0.37066177
0.015682463 0.20000693 -0.46889177 0.048750255 -0.27516443 -0.06717762 -0.34141585 -0.26927683
-0.26484457 -0.40154546 -0.27177244 -0.13241912 -0.31382906 -0.36434963 -0.5246821 -0.29922366
-0.44976288 -0.38389713 -0.32689956 -0.047193438 -0.2804827 -0.033436175 -0.33950734 -0.5804777
-0.32766676 -0.49810883 -0.51123214 -0.38616446 -0.12555267 -0.19023278 -0.2916194 0.056993708
-0.43147072 -0.19453864 -0.33972982 -0.3635696 -0.4225906 -0.3550361 -0.49334484 -0.08772616
-0.37342185 -0.29744437 -0.30444196 0.15324093 -0.062897496 -0.50619996 -0.21849677 -0.31555912
-0.53707266 -0.37105125 0.22584262 -0.26285422 -0.07443043 -0.447601 -0.282199 -0.3529788
-0.24135062 -0.10357396 0.0115714725 -0.35430804 -0.3482141 -0.32197455 -0.17927337 -0.0676422
-0.51842135 -0.3345487 0.12162369 -0.14005838 -0.46823698 -0.25547773 -0.39140195 -0.3606244
-0.4114974 -0.20041803 -0.5353498 -0.26045743 -0.47426227 -0.32695544 -0.12138784 -0.3544276
-0.4386736 -0.34093362 -0.22449705 -0.31555337 -0.18149807 -0.4061066 -0.39643088 -0.3706012
0.024207061 -0.26921126 -0.23986134 -0.48173332 -0.16461305 -0.4081104 -0.16433388 -0.07639923
-0.4281918 -0.22151051 -0.3732396 -0.56381613 -0.4645493 -0.26460397 -0.53364146 -0.3207271
-0.31253105 -0.48075926 -0.23214534 -0.26066267 -0.06574926 -0.25997213 -0.32412592 -0.4504272
-0.41769233 -0.30512527 -0.4240223 -0.24601416 -0.07404529 -0.27021864 -0.40996677 -0.4291045
-0.37427962 -0.022714382 -0.3895552 -0.33045274 -0.27971104 -0.26406685 -0.30066082 -0.21994005
-0.30090484 -0.19626841 -0.33267325 -0.27273968 -0.43928105 -0.37407357 -0.34485096 -0.23453467
-0.36117038 -0.34913796 -0.42673546 -0.19159256 -0.16746348 -0.04392354 -0.23763072 -0.26474503
00000000: 3df3 a6be 1633 a4be 9ce4 9cbe 6cd7 27bf
00000010: 2b44 0abf be61 f1be cfd3 5cbe 09a3 87be
00000020: a4ef 3bbe f1b8 9fbe 0a6b a4be 0f00 e8be
00000030: 53bd cbbe 3213 19be bad6 04bf 6cfa d9bd
00000040: e2fb a1be 7b2d 10bd 2fbe 45be 6a68 cfbe
00000050: 77bb 91be 7e2b 9fbe 8626 18bd fb5e 72be
00000060: 9280 cfbe ade5 45be 0eef 27be 8255 e5be
00000070: bbbf e03d a5d7 98be 9f0c b0be c20e a0be
00000080: 2894 e3be 2656 cbbe 4ce8 c5be bb85 53be
00000090: 21bd e7be 35e9 a9be 92a6 22be 1a4e 55be
000000a0: 3b90 d4be cf72 57be 2249 88be f84a c9bd
000000b0: acc1 a9bd f277 b7bd 478e c2be 5a92 00bf
000000c0: fce3 25be a84d 04be 67f1 28be 57bb 84be
000000d0: ceff b6bc 774c f9be 59a3 b1be 2630 b4be
000000e0: 3105 f4bd da65 e8be 0dc3 21be d217 9abe
000000f0: 4197 26be 1a49 babe 2a83 b5be 0e57 15be
00000100: 7e91 9dbe 9fbb 77bd 125a 1cbe 96e1 14be
00000110: c8c8 6fbe 3198 16be 5364 01bf 4074 7cbe
00000120: 8b86 04be 7310 a8be 3882 b6be 88cc 9cbe
00000130: 7925 07be 6a4b 36be e564 31be c88f 2cbe
00000140: c288 95be 3fd3 93be fefa 8dbe 7816 b0be
00000150: d1cb 7f3e 2d53 79be 4c8a b2bb 5227 1bbe
00000160: 980c 97be 4376 75be c6db f1be 1712 ecbe
00000170: 5950 53bd b4c0 b9be 3217 61be 8953 bdbe
00000180: 0d12 80be 9098 42be 42d9 d0be 44ec 23be
00000190: 304d 02bf 75bc a1be 6497 39be cce4 cbbe
000001a0: aaf3 24bd 56eb 2c3c 9467 1fbe 1f53 98be
000001b0: 37cc bdbe d29a eabe df5a b6be 61c7 bdbe
000001c0: 8278 803c 9ece 4c3e 9512 f0be 59ae 473d
000001d0: 5ae2 8cbe 6c94 89bd 0fce aebe a7de 89be
000001e0: b599 87be 5e97 cdbe c225 8bbe e198 07be
000001f0: 34ae a0be 098c babe 9151 06bf d833 99be
00000200: 5247 e6be 2a8e c4be 615f a7be e84d 41bd
00000210: 6e9b 8fbe 5ff4 08bd e8d3 adbe 309a 14bf
00000220: f0c3 a7be 1f08 ffbe 1ce0 02bf 59b7 c5be
00000230: e190 00be 62cc 42be 234f 95be 3c72 693d
00000240: bbe9 dcbe 2335 47be 11f1 adbe cb25 babe
00000250: cc5d d8be 4bc7 b5be b297 fcbe c6a9 b3bd
00000260: 2631 bfbe a14a 98be d1df 9bbe 31eb 1c3e
00000270: 67d0 80bd 5296 01bf 9ebd 5fbe f790 a1be
00000280: 987d 09bf 6efa bdbe 4a43 673e d494 86be
00000290: fb6e 98bd f52b e5be 637c 90be a3b9 b4be
000002a0: 9e24 77be 961e d4bd 4696 3d3c dd67 b5be
000002b0: 1e49 b2be d9d9 a4be 7093 37be fe87 8abd
000002c0: 43b7 04bf f849 abbe d715 f93d 776b 0fbe
000002d0: c2bc efbe facd 82be d665 c8be c3a3 b8be
000002e0: caaf d2be 623a 4dbe af0c 09bf ad5a 85be
000002f0: 81d2 f2be b466 a7be 309a f8bd 8977 b5be
00000300: d399 e0be da8e aebe 8ee2 65be 3690 a1be
00000310: a1da 39be 34ed cfbe fdf8 cabe 71bf bdbe
00000320: e34d c63c 0fd6 89be 369e 75be c0a5 f6be
00000330: 5390 28be d9f3 d0be 2447 28be 3377 9cbd
00000340: f53b dbbe a7d3 62be 4319 bfbe 4156 10bf
00000350: 68d9 edbe 2c7a 87be ba9c 08bf 5836 a4be
00000360: 1204 a0be 1426 f6be 82b7 6dbe 9475 85be
00000370: 8ca7 86bd 111b 85be d5f3 a5be 659e e6be
00000380: c5db d5be 6139 9cbe 7319 d9be 23eb 7bbe
00000390: 0fa5 97bd 195a 8abe 2ae7 d1be 96b3 dbbe
000003a0: 94a1 bfbe 8313 babc c773 c7be 1a31 a9be
000003b0: 4936 8fbe c533 87be 37f0 99be f737 61be
000003c0: 3310 9abe 96fa 48be 2654 aabe 89a4 8bbe
000003d0: 72e9 e0be 9286 bfbe 4e90 b0be db29 70be
000003e0: 53eb b8be 36c2 b2be 127d dabe d730 44be
000003f0: 8c7b 2bbe 2be9 33bd 7855 73be a98c 87be

model_sa.0.weight f4 [128, 260]
-0.4215712 -0.6299864 -0.52422076 0.012648697 -0.29927397 -0.29145265 -0.27504864 -0.22795501
0.26438868 0.05551156 -0.34881276 -0.033841584 -0.30806455 -0.36921975 -0.105276085 0.12602288
-0.042709526 -0.4365314 0.15692501 0.0615848 0.21282987 -0.17239136 0.25601548 0.36391023
0.029814025 -0.0064481418 0.14279008 0.0045498195 -0.24382071 -0.06498769 -0.94657123 -0.21688382
0.46791992 -0.47891244 -0.2646402 -0.04245271 0.06953666 -0.3653287 -0.03475172 0.28189823
0.08626145 0.20345421 0.2895192 0.119989075 -0.39928344 -0.3465924 0.06738962 -0.12201537
0.058650427 0.20071536 0.23145746 0.13062002 0.28761438 -0.24641624 0.21309854 -0.08925176
-0.29219845 -0.08842887 0.052688632 -0.325727 -0.21339141 -0.050742682 -0.15912071 -0.067510754
0.016012896 0.78876275 -0.11602978 0.48204497 -0.49840316 -0.11512594 0.08950504 -0.18901964
-0.10579208 -0.326056 0.22377595 -0.115955 0.50738925 0.13931745 0.2600134 0.3861833
-0.21999118 -0.33710396 0.18669268 0.03441701 -0.23693106 -0.021832338 0.05411801 0.031765945
0.03925618 0.030380242 0.28964275 -0.120525144 -0.39273852 0.24255493 -0.68135285 0.28987658
-0.089991264 -0.035575844 0.2947995 -0.020757666 0.19618183 -0.031241832 0.13708436 -0.16553074
-0.115322955 -0.49390423 -0.3363881 0.05764575 0.16452165 -0.09177487 -0.23515658 0.25883448
-0.011844022 -0.21087517 -0.2060931 0.19473238 -0.054718792 0.3065252 -0.6828078 0.3065295
-0.1933252 0.2847089 0.6368466 -0.3412808 -0.16215694 -0.094003215 -0.27089274 0.22299242
0.0773202 0.38836253 0.10685101 -0.103367254 0.07568532 -0.185768 -0.013428437 0.116505995
0.48960364 0.46981472 -0.027171446 -0.73042643 0.1675418 -0.024093641 0.11813213 -0.14241676
0.402127 -0.057544217 0.052847918 0.31662023 0.25971717 -0.17651522 -0.14158106 -0.19536576
0.1811765 0.50558716 -0.32181972 0.14555465 -0.3166423 -0.18154298 0.2854832 0.19682908
-0.33170667 0.045845974 -0.366481 -0.14444125 -0.16952345 0.11737874 -0.48953086 -0.0695735
-0.5116095 0.25117987 0.008809798 -0.038895078 0.017394992 -0.037043963 -0.020182986 0.25207895
0.32021046 0.056900512 -0.38678047 0.0948257 -0.26544702 -0.18055657 -0.13612232 -0.39743248
0.3616393 -0.049863067 -0.5024301 -0.18723306 0.07601447 -0.01233992 -0.013520953 -0.08621645
-0.07401065 -0.02628415 0.3157704 0.105607614 -0.059931632 -0.2958676 0.09761263 0.037952874
0.008248219 -0.19113594 0.0704962 -0.15098286 -0.21290343 0.2974151 0.38937953 -0.30025184
-0.07878411 0.21542966 -0.3120854 0.19544087 -0.08226866 0.296804 0.20011243 -0.27658686
-0.05097917 0.436283 -0.347961 0.27379152 -0.28673705 -0.09456238 -0.077559285 0.21334173
0.2926622 0.0733654 0.23029132 -0.08852469 0.20072651 0.0776817 -0.1903519 -0.2651489
0.20552391 -0.058522288 0.11283266 0.28391105 0.096723326 -0.17396635 0.03894452 -0.8281149
-0.03526624 0.21264115 -0.28411528 0.090869 -0.2210193 -0.0062970603 -0.018760273 -0.20353962
-0.1780746 -0.13692841 0.08603361 0.226853 0.33775184 -0.5418674 0.20601034 0.041347176
00000000: 2ed8 d7be ca46 21bf 5533 06bf 7b3c 4f3c
00000010: 703a 99be 4839 95be 2dd3 8cbe 0a6d 69be
00000020: f45d 873e 1760 633d 9697 b2be 799d 0abd
00000030: a3ba 9dbe 5f0a bdbe fd9a d7bd 240c 013e
00000040: 2ff0 2ebd 0b81 dfbe f3b0 203e 5840 7c3d
00000050: 13f0 593e 5c87 30be 7614 833e 7152 ba3e
00000060: 8b3c f43c ef4a d3bb 9037 123e a716 953b
00000070: 23ac 79be 4418 85bd 7e52 72bf cb16 5ebe
00000080: 3393 ef3e 0334 f5be ec7e 87be e5e2 2dbd
00000090: 3d69 8e3d 5d0c bbbe d257 0ebd f754 903e
000000a0: d8a9 b03d 4d56 503e dc3b 943e d5bc f53d
000000b0: e16e ccbe 8f74 b1be 9203 8a3d 32e3 f9bd
000000c0: 6e3b 703d 5488 4d3e 2f03 6d3e 41c1 053e
000000d0: 3142 933e 8a54 7cbe 8136 5a3e a0c9 b6bd
000000e0: 099b 95be 321a b5bd 09d0 573d b0c5 a6be
000000f0: 4783 5abe 8fd7 4fbd 8af0 22be 1443 8abd
00000100: 7a2d 833c 5bec 493f 05a1 edbd 99ce f63e
00000110: b32e ffbe 26c7 ebbd 6b4e b73d 5d8e 41be
00000120: 85a9 d8bd d0f0 a6be 8625 653e d179 edbd
00000130: 43e4 013f 3ca9 0e3e 7a20 853e d1b9 c53e
00000140: 5e45 61be e498 acbe 5e2c 3f3e daf8 0c3d
00000150: 0e9e 72be bbd9 b2bc d9aa 5d3d 021d 023d
00000160: 17cb 203d fcdf f83c 0e4c 943e e3d5 f6bd
00000170: 0615 c9be 5260 783e 246d 2ebf b46a 943e
00000180: 574d b8bd fab7 11bd f6ef 963e fb0b aabc
00000190: e4e3 483e dfee ffbc d85f 0c3e e480 29be
000001a0: 712e ecbd 04e1 fcbe 103b acbe f31d 6c3d
000001b0: 5d78 283e 77f4 bbbd e3cc 70be f485 843e
000001c0: 6e0d 42bc a9ef 57be 120a 53be ed67 473e
000001d0: d020 60bd dff0 9c3e 7ecc 2ebf 6ff1 9c3e
000001e0: 0bf7 45be 5dc5 913e 6108 233f 5bbc aebe
000001f0: 780c 26be c284 c0bd 74b2 8abe 2058 643e
00000200: 0e5a 9e3d 74d7 c63e b4d4 da3d 36b2 d3bd
00000210: e800 9b3d f739 3ebe f202 5cbc b29a ee3d
00000220: 54ad fa3e 8e8b f03e a796 debc 3afd 3abf
00000230: 1490 2b3e 0760 c5bc 42ef f13d b3d5 11be
00000240: 97e3 cd3e 7cb3 6bbd 0f77 583d 0c1c a23e
00000250: a6f9 843e 68c0 34be a0fa 10be f60d 48be
00000260: 5586 393e 296e 013f 8ec5 a4be 470c 153e
00000270: f11e a2be 67e6 39be db2a 923e 908d 493e
00000280: 75d5 a9be fdc8 3b3d 66a3 bbbe 68e8 13be
00000290: 8e97 2dbe 4464 f03d caa3 fabe 8d7c 8ebd
000002a0: d7f8 02bf a69a 803e f956 103c 7250 1fbd
000002b0: f17f 8e3c 69bb 17bd ca56 a5bc 7e10 813e
000002c0: a0f2 a33e 8310 693d 1708 c6be fa33 c23d
000002d0: ace8 87be d2e3 38be a663 0bbe 457c cbbe
000002e0: c928 b93e 373d 4cbd 429f 00bf 06ba 3fbe
000002f0: 79ad 9b3d 602d 4abc fd86 5dbc 4092 b0bd
00000300: e592 97bd dc51 d7bc a8ac a13e ce48 d83d
00000310: df7a 75bd f57b 97be 21e9 c73d 7974 1b3d
00000320: 8a23 073c 24b9 43be 5060 903d 409b 1abe
00000330: 5b03 5abe cb46 983e c15c c73e 9cba 99be
00000340: 9059 a1bd 9899 5c3e a8c9 9fbe a721 483e
00000350: 797c a8bd b2f6 973e 46ea 4c3e cb9c 8dbe
00000360: 89cf 50bd 7c60 df3e f227 b2be 672e 8c3e
00000370: 33cf 92be eca9 c1bd 67d7 9ebd 4176 5a3e
00000380: d2d7 953e 9940 963d 7dd1 6b3e 6f4c b5bd
00000390: 408b 4d3e 9517 9f3d 9ceb 42be 99c1 87be
000003a0: dc74 523e 11b5 6fbd cf14 e73d ca5c 913e
000003b0: e116 c63d 3c24 32be 4a84 1f3d 57ff 53bf
000003c0: 5573 10bd 9abe 593e 8f77 91be 8719 ba3d
000003d0: e252 62be 9257 cebb 25af 99bc b16c 50be
000003e0: 3059 36be f636 0cbe 6432 b03d 274c 683e
000003f0: cfed ac3e d2b7 0abf 60f4 523e a85b 293d

model_sa.0.bias f4 [128]
-0.45480105 0.47832447 -0.15857695 -0.3771707 0.3729579 -0.6755914 -0.5317104 0.8125591
-0.61321104 -0.3891626 -0.43484432 -0.30287036 0.3304105 -0.37659284 0.7950897 0.43497577
0.80493754 -0.40839735 -0.35150445 -0.14315628 -0.4143617 0.6052027 0.51880467 -0.25792968
0.72008103 0.53488994 -0.46403465 -0.45184225 0.8387386 -0.37021965 -0.17894433 0.3283685
0.62435025 -0.41260046 0.5381815 0.068067744 0.3263242 0.5693218 -0.3973857 0.64382786
0.01382206 -0.3411742 -0.05807599 -0.13029832 0.7960782 -0.35219783 0.051470827 -0.2224943
-0.6546164 -0.5028654 0.4303835 -0.13247569 0.8848906 -0.5588815 0.51895905 -0.16364938
0.09992533 0.21952042 -0.560206 -0.23928428 -0.29321775 -0.57247037 -0.80902386 0.29055828
-0.45866552 0.70325726 -0.31940585 0.5506825 0.50210035 0.62824625 -0.4075069 -0.27568513
-0.4896938 -0.18706238 -0.4361626 0.46708658 -0.40774748 0.68470526 0.35671473 -0.30687252
-0.583404 -0.038736098 -0.21707134 0.1148105 -0.25267792 0.9831291 0.3522587 -0.46277994
0.47982338 -0.41782686 -0.449709 -0.44159597 0.44630635 -0.42034236 0.53621083 -0.13270216
-0.23438276 -0.44062287 -0.43896562 -0.6375228 0.39519787 -0.25297117 0.5488008 0.68017346
-0.17220712 0.56053597 -0.314669 0.17940801 -0.17798646 -0.121805176 -0.33054337 -0.2594416
-0.5110556 0.5995461 -0.020042747 -0.22032493 0.36380297 -0.30158338 -0.1509065 0.90522844
-0.50065017 -0.4794038 -0.24543905 -0.03984373 0.1950639 -0.35860038 -0.37314165 0.1105676
00000000: afdb e8be f2e6 f43e ff61 22be 851c c1be
00000010: 56f4 be3e 8ff3 2cbf 2c1e 08bf e003 503f
00000020: 66fb 1cbf 5240 c7be eaa3 debe d311 9bbe
00000030: 912b a93e c7d0 c0be 008b 4b3f 25b5 de3e
00000040: 6310 4e3f 7519 d1be 64f8 b3be 8f97 12be
00000050: 3727 d4be 90ee 1a3f 62d0 043f 5c0f 84be
00000060: 3b57 383f 8cee 083f f395 edbe de57 e7be
00000070: 93b7 563f 6e8d bdbe 2f3d 37be eb1f a83e
00000080: 6bd5 1f3f 5e40 d3be 43c6 093f 1a67 8b3d
00000090: f713 a73e 13bf 113f 2376 cbbe e7d1 243f
000000a0: ec75 623c 62ae aebe 17e1 6dbd ec6c 05be
000000b0: c8cb 4b3f 4653 b4be 13d3 523d 8cd5 63be
000000c0: f194 27bf c9bb 00bf 3a5b dc3e b5a7 07be
000000d0: 3188 623f dc12 0fbf 80da 043f b493 27be
000000e0: a7a5 cc3d f6c9 603e a969 0fbf f006 75be
000000f0: a320 96be 6b8d 12bf 301c 4fbf 0ec4 943e
00000100: 35d6 eabe ab08 343f 2a89 a3be 87f9 0c3f
00000110: a689 003f bfd4 203f bfa4 d0be 9a26 8dbe
00000120: 25b9 fabe 488d 3fbe b450 dfbe f925 ef3e
00000130: 47c4 d0be d848 2f3f 50a3 b63e 651e 9dbe
00000140: f759 15bf bea9 1ebd f347 5ebe c421 eb3d
00000150: 005f 81be 59ae 7b3f 415b b43e 7ef1 ecbe
00000160: 69ab f53e 67ed d5be 4240 e6be de18 e2be
00000170: 4482 e43e 1d37 d7be 1d45 093f 13e3 07be
00000180: 0902 70be 5299 e1be 1ac0 e0be b234 23bf
00000190: 6057 ca3e 7085 81be 367e 0c3f d91f 2e3f
000001a0: 1057 30be 497f 0f3f 4c1c a1be bcb6 373e
000001b0: 1542 36be fe74 f9bd fb3c a9be 88d5 84be
000001c0: 8ad4 02bf da7b 193f b030 a4bc dc9c 61be
000001d0: 6244 ba3e 2369 9abe 3c87 1abe 0dbd 673f
000001e0: 9c2a 00bf 6a74 f5be 6054 7bbe 2e33 23bd
000001f0: d5be 473e 789a b7be 6c0c bfbe 4471 e23d

model_sa.2.weight f4 [64, 128]
-0.046591155 -0.00085227034 -0.22622865 -0.056596454 -0.0703497 -0.10817159 -0.23071271 -0.21569113
-0.21075034 -0.22737738 -0.3825347 0.10293907 -0.24376842 -0.17631143 0.26963228 -0.013964629
-0.09351735 0.058271054 -0.047330808 -0.23147832 -0.109241165 0.11267958 -0.07423195 -0.30806795
-0.3195166 -0.3266843 -0.14998828 -0.45269576 -0.077988245 -0.12640949 -0.28117687 0.039105456
-0.25142917 0.08040723 -0.008989528 -0.35700843 -0.14678094 0.068632126 0.035857677 0.09858519
0.022038156 -0.013789008 0.0014874478 -0.26594222 0.0057715843 -0.16324562 0.06672828 -0.04092378
-0.2278776 -0.082567036 0.02243393 0.17466141 -0.16557677 -0.10747862 -0.16495062 0.15803711
0.013263962 -0.23683637 -0.4360156 -0.21494482 -0.2700226 -0.08374656 -0.057798076 -0.09719465
-0.5131232 -0.043176647 -0.056583297 0.14183302 0.11986909 -0.1808882 0.007014961 0.054535538
0.03419519 -0.21824199 -0.2901887 0.06487159 -0.20098639 -0.19126318 0.012706582 -0.06358224
-0.09261949 -0.09471492 -0.23867756 -0.091024 -0.16161948 -0.009216482 -0.07405987 -0.076480016
-0.35596606 -0.21074809 -0.03279937 0.021628533 -0.20413588 -0.15148284 -0.15888838 -0.09634964
-0.39656982 -0.07689999 -0.058147635 -0.24029502 -0.02151798 -0.1592632 0.09659953 -0.1342579
-0.22966394 -0.077355124 -0.23568963 0.103089936 -0.345273 0.34861478 -0.382328 0.12675156
-0.37701198 -0.07167799 -0.12590903 -0.16593048 0.1338597 -0.34053814 -0.32128823 -0.13192488
0.1836776 -0.22669105 -0.08177759 -0.25739878 0.0670428 -0.6457293 -0.29897073 -0.13433981
-0.031478997 0.06117741 -0.3437968 -0.16844589 0.12717757 -0.30377674 0.03654218 0.046260606
-0.31587732 -0.15365243 -0.37461203 -0.28935167 -0.043235786 -0.17509149 0.28433198 0.124902956
0.13688748 -0.4211925 -0.15287189 0.024924917 -0.00945204 0.36575484 0.085168876 -0.3497467
0.4063425 0.13300169 0.01970397 -0.20342591 0.14172284 -0.2441692 -0.07940424 -0.19564074
0.1487499 -0.42703322 0.07542132 0.20994064 0.052845124 0.27005085 -0.017398058 0.22205554
0.33024138 -0.017274015 0.15953994 -0.7000034 0.6751513 -0.34514374 0.099150605 -0.31587225
-0.5272682 -0.52181286 -0.12152587 -0.056586333 0.44097498 -0.48689842 0.37260023 -0.23708181
-0.18710443 -0.2583568 -0.0784624 -0.2787225 -0.100337565 -0.35871223 -0.2052779 0.0066144806
-0.4846216 0.035979684 -0.005133593 0.34123844 0.54381216 0.088205226 -0.5823963 -0.3902029
-0.5073339 -0.056815613 -0.3090272 -0.06921654 -0.3799955 0.42597046 0.3013441 -0.2824018
-0.27407244 -0.42536536 -0.48374248 0.11668571 -0.044709485 0.23776013 0.081375234 -0.8101374
0.11384643 -0.39331383 0.119212165 -0.4646516 0.06440518 -0.35831842 0.019972268 -0.4437755
-0.36744174 -0.74407274 -0.37051705 -0.35046694 0.01556533 -0.31758434 0.21625933 0.14337738
-0.07281949 0.078959234 0.2140961 -0.21879889 0.14145517 -0.40864947 -0.1968844 0.26235676
-0.077359006 0.1895895 -0.38909617 -0.19248629 0.40825963 -0.5581376 -0.21697779 0.36768848
-0.19515857 -0.1561206 -0.12675364 -0.3646127 -0.087867945 -0.09502609 -0.1393805 0.22521079
00000000: 5ed6 3ebd e56a 5fba 7ca8 67be afd1 67bd
00000010: 8113 90bd 1189 ddbd f43f 6cbe 23de 5cbe
00000020: f0ce 57be 9ed5 68be 97db c3be b8d1 d23d
00000030: 6e9e 79be fc8a 34be 3e0d 8a3e e6cb 64bc
00000040: 0686 bfbd a1ad 6e3d f3dd 41bd a708 6dbe
00000050: d5b9 dfbd 8dc4 e63d ec06 98bd 15bb 9dbe
00000060: ae97 a3be 2a43 a7be 8796 19be bdc7 e7be
00000070: 4db8 9fbd 7d71 01be 6af6 8fbe 0b2d 203d
00000080: 53bb 80be 8cac a43d d048 13bc cfc9 b6be
00000090: be4d 16be 008f 8c3d 80df 123d 08e7 c93d
000000a0: 5d89 b43c 4beb 61bc 77f6 c23a 9429 88be
000000b0: 8f1f bd3b dc29 27be d6a8 883d b29f 27bd
000000c0: bf58 69be e818 a9bd 5cc7 b73c 71da 323e
000000d0: f58c 29be c01d dcbd d1e8 28be 7bd4 213e
000000e0: 1751 593c 3c85 72be 703d dfbe 7f1a 5cbe
000000f0: 6740 8abe 5183 abbd adbd 6cbd fd0d c7bd
00000100: 0b5c 03bf ffd9 30bd e3c3 67bd ad3c 113e
00000110: ed7d f53d c23a 39be c2dd e53b a860 5f3d
00000120: 4110 0c3d d47a 5fbe 9d93 94be 65db 843d
00000130: 60cf 4dbe 7fda 43be 452f 503c 6837 82bd
00000140: 4aaf bdbd e5f9 c1bd e467 74be ca6a babd
00000150: 947f 25be ba00 17bc b3ac 97bd 8ea1 9cbd
00000160: 2f41 b6be 59ce 57be a258 06bd 522e b13c
00000170: ff08 51be 511e 1bbe a3b3 22be f652 c5bd
00000180: 330b cbbe be7d 9dbd 372c 6ebd e60f 76be
00000190: 7a46 b0bc e415 23be f9d5 c53d e77a 09be
000001a0: 062d 6bbe 5d6c 9ebd 9f58 71be d120 d33d
000001b0: 9fc7 b0be a37d b23e 7fc0 c3be 29cb 013e
000001c0: b707 c1be e9cb 92bd 4cee 00be aee9 29be
000001d0: 8412 093e 045b aebe e47f a4be 5117 07be
000001e0: fb15 3c3e b321 68be 027b a7bd c6c9 83be
000001f0: bc4d 893d 844e 25bf b112 99be 6090 09be
00000200: 1ff0 00bd 2a95 7a3d 2206 b0be 147d 2cbe
00000210: d63a 023e a088 9bbe 41ad 153d c37b 3d3d
00000220: acba a1be 1057 1dbe 26cd bfbe e725 94be
00000230: 0218 31bd 2f4b 33be f693 913e 1fcd ff3d
00000240: 3b2c 0c3e 8ba6 d7be 738a 1cbe 572f cc3c
00000250: bbdc 1abc 3844 bb3e 056d ae3d 0012 b3be
00000260: 200c d03e 9831 083e 386a a13c e24e 50be
00000270: cb1f 113e 7e07 7abe b19e a2bd 0c56 48be
00000280: e551 183e 19a4 dabe 7e76 9a3d aefa 563e
00000290: 2174 583d 1b44 8a3e 5f86 8ebc 8762 633e
000002a0: 6615 a93e 3c82 8dbc 705e 233e 6c33 33bf
000002b0: b7d6 2c3f aeb6 b0be 790f cb3d 02ba a1be
000002c0: 0cfb 06bf 8795 05bf 8ee2 f8bd 12c7 67bd
000002d0: 79c7 e13e c04a f9be 75c5 be3e 93c5 72be
000002e0: 4e98 3fbe 5847 84be e5b0 a0bd b7b4 8ebe
000002f0: c87d cdbd 21a9 b7be 5f34 52be 49be d83b
00000300: 5320 f8be 6f5f 133d b337 a8bb ceb6 ae3e
00000310: 4637 0b3f f1a4 b43d ed17 15bf adc8 c7be
00000320: a2e0 01bf 7db7 68bd d038 9ebe 67c1 8dbd
00000330: c58e c2be cd18 da3e c649 9a3e f896 90be
00000340: 3953 8cbe 7dc9 d9be 18ad f7be ebf8 ee3d
00000350: 4b21 37bd 6477 733e 0fa8 a63d 2a65 4fbf
00000360: 5128 e93d 6e60 c9be 8225 f43d d1e6 edbe
00000370: dde6 833d 8375 b7be e29c a33c 8b36 e3be
00000380: 5321 bcbe 8d7b 3ebf 69b4 bdbe 6770 b3be
00000390: ba05 7f3c 6a9a a2be 1673 5d3e 85d1 123e
000003a0: 6322 95bd 61b5 a13d 023c 5b3e d10c 60be
000003b0: a0d9 103e 813a d1be 109c 49be a053 863e
000003c0: 666e 9ebd c023 423e 9d37 c7be 201b 45be
000003d0: 6807 d13e 1be2 0ebf 6d2f 5ebe aa41 bc3e
000003e0: a6d7 47be 14de 1fbe b5cb 01be 84ae babe
000003f0: 1cf4 b3bd 0a9d c2bd c3b9 0ebe a89d 663e

model_sa.2.bias f4 [64]
-0.14133817 0.23239997 -0.48596784 0.44251537 -0.9742736 0.90764564 0.62539124 0.97576016
-0.058451645 -0.46882054 1.2318898 1.1784583 0.5252536 0.21505564 -0.46308857 -0.728513
-0.39620942 -0.6413727 0.9319331 0.9062703 0.90757066 0.74895555 0.5857004 -0.1899768
-0.34104335 -0.593675 0.44022343 -0.6323971 0.6161112 -0.47726423 0.08051492 -0.24149309
0.80228263 0.015466775 0.9661966 -0.34026682 0.23962621 0.16866007 0.10170881 -0.5503281
0.872317 -0.8633988 -0.4697065 0.681915 0.42833966 0.8085497 -0.704726 0.29903936
0.53670156 -0.38085684 -0.29087904 0.90504664 -0.45831957 -0.4081405 0.875072 1.1576959
1.2281761 0.502514 -0.4322038 0.57315344 0.5701898 -0.18078592 0.41296825 -0.30257332
00000000: f4ba 10be 42fa 6d3e c7d0 f8be 6091 e23e
00000010: ff69 79bf 775b 683f a419 203f 6bcb 793f
00000020: fe6a 6fbd 3f09 f0be 91ae 9d3f b9d7 963f
00000030: 0577 063f 8c37 5c3e f219 edbe d47f 3abf
00000040: f6db cabe 0031 24bf 2b93 6e3f 5501 683f
00000050: 8d56 683f 8dbb 3f3f 76f0 153f 4789 42be
00000060: 3c9d aebe 16fb 17bf f764 e13e c7e4 21bf
00000070: 77b9 1d3f fa5b f4be 02e5 a43d f749 77be
00000080: 6562 4d3f 5b68 7d3c a958 773f 7437 aebe
00000090: 9360 753e 3ab5 2c3e b54c d03d 4de2 0cbf
000000a0: 2b50 5f3f b407 5dbf 5f7d f0be fb91 2e3f
000000b0: 564f db3e 1dfd 4e3f ec68 34bf b01b 993e
000000c0: 4665 093f abff c2be 19ee 94be 23b1 673f
000000d0: dda8 eabe cbf7 d0be b804 603f 612f 943f
000000e0: e034 9d3f c2a4 003f d149 ddbe 2fba 123f
000000f0: f5f7 113f f21f 39be 9370 d33e e4ea 9abe

model_sa.4.weight f4 [32, 64]
0.17353821 -0.6751904 -0.043523725 0.12126342 -0.016284933 -0.27632174 -0.083931714 -0.10989499
-0.0447361 0.063446455 -0.13723302 -0.18578278 -0.21997397 -0.24106829 0.018383304 0.13891634
0.12311882 0.030051086 0.11464855 -0.032043077 0.32311556 0.18854398 -0.27718192 0.19526806
-0.10919481 -0.23141676 0.03781619 -0.2783104 0.17136797 -0.15949193 -0.3573303 -0.102715686
-0.22071126 -0.12512964 -0.40163082 0.2692186 -0.000543341 0.011983914 -0.19655928 -0.24903156
-0.1636877 -0.077835105 0.1346628 0.15471219 -0.334328 -0.119750366 0.04862647 -0.24016525
-0.009938706 -0.15658773 0.20600407 0.108295284 -0.15869719 -0.30643356 -0.23030145 -0.14468017
-0.11924775 -0.039047398 -0.30406925 -0.17748411 0.06631219 0.16061994 -0.44324815 0.1869532
0.11815094 -0.49009115 -0.046478115 -0.3371822 -0.020230686 0.05230409 -0.11656745 -0.45355457
0.2473959 0.14054184 -0.06302816 0.030899623 0.18334964 -0.48401207 -0.22628334 -0.06362301
0.2282454 0.08792927 -0.25631967 0.112849705 0.06816468 -0.34045735 0.2383808 -0.054055505
-0.028082378 -0.11687974 -0.50425136 -0.18119706 -0.45827022 -0.2696796 -0.21197735 -0.09711187
0.091186345 -0.2486532 -0.38245037 0.27285028 -0.3354662 -0.099986985 -0.38603356 0.034718774
-0.05699325 0.09373956 -0.08166811 -0.38818368 0.27992994 -0.2853026 -0.17684087 -0.2563952
0.15650028 -0.5802135 -0.48216328 0.28972456 -0.13283598 -0.31162083 0.07122388 0.15937331
0.13336682 -0.24457063 0.073959224 -0.0039831484 -0.46696943 -0.023384498 -0.19469436 0.09697735
0.057363648 -0.039604787 -0.022883765 0.014148784 -0.08770409 0.09339285 -0.035987202 0.2675701
-0.01664213 0.059012897 0.11856368 0.060272906 0.091762885 0.13811673 0.07369288 -0.10302984
-0.030861698 -0.062554464 0.20729169 0.23905192 0.08221503 0.030046748 0.05355818 0.3390607
-0.18940006 -0.0028467418 -0.07777664 0.028699007 0.090525754 0.12744337 0.27337593 -0.10682745
-0.015222886 0.18562128 0.0759033 -0.028919592 -0.054215267 0.10313593 0.08074383 0.10419184
-0.008054854 0.004310705 -0.41446978 -0.085334666 -0.14211838 0.14797623 -0.1500832 0.083519325
-0.26632106 -0.056035668 -0.019104298 0.14239427 0.08765459 -0.012778761 -0.11093375 -0.04517054
0.14702693 -0.052999556 -0.17904313 -0.15399238 0.09927527 0.015146946 0.058574587 -0.017089687
0.33562 0.16930522 -0.034328938 0.29877874 -0.517045 -0.16511913 -0.23303609 -0.07638012
-0.4166208 -0.49203762 -0.11735395 -0.25790864 -0.12127629 0.1472294 0.030970663 -0.279422
0.20896354 -0.04913649 0.21845998 -0.5057131 0.09955696 0.028698184 -0.09176522 0.18570262
-0.14705627 -0.20730539 0.11632552 -0.6186094 -0.34657004 -0.3372666 0.1962067 -0.2772126
-0.108482234 0.5397971 -0.21517962 0.05403882 0.102404475 0.39566478 -0.16813031 -0.2558066
-0.3178315 -0.40132344 0.05347934 -0.08698336 0.112631634 -0.16550851 -0.41514552 -0.027992235
-0.13350065 -0.7132721 -0.0759665 0.18207566 -0.09325178 -0.23288245 -0.10584435 -0.17348489
-0.07781751 -0.293108 -0.31191674 -0.14361584 0.1662487 -0.24028425 0.13807583 -0.08303992
00000000: 00b4 313e 47d9 2cbf ef45 32bd f558 f83d
00000010: fb67 85bc 0b7a 8dbe 64e4 abbd a010 e1bd
00000020: 333d 37bd 37f0 813d d086 0cbe d73d 3ebe
00000030: db40 61be 9bda 76be 9598 963c 1640 0e3e
00000040: b825 fc3d b22d f63c dccc ea3d 9a3f 03bd
00000050: 676f a53e ac11 413e caea 8dbe 5af4 473e
00000060: 87a1 dfbd 84f8 6cbe 26e5 1a3d b37e 8ebe
00000070: 167b 2f3e da51 23be fff3 b6be 9a5c d2bd
00000080: 2202 62be fc21 00be 8ea2 cdbe 05d7 893e
00000090: ff6e 0eba 2e58 443c d646 49be 2102 7fbe
000000a0: c09d 27be 0368 9fbd 0ce5 093e df6c 1e3e
000000b0: 0a2d abbe ae3f f5bd 8d2c 473d e1ed 75be
000000c0: f4d5 22bc 8958 20be bbf2 523e ebc9 dd3d
000000d0: 8481 22be dce4 9cbe 25d4 6bbe 0a27 14be
000000e0: 2a38 f4bd 2af0 1fbd f7ae 9bbe 65be 35be
000000f0: afce 873d 8e79 243e 6cf1 e2be a970 3f3e
00000100: 1ff9 f13d 3aed fabe d65f 3ebd 25a3 acbe
00000110: d3ba a5bc d03c 563d eaba eebd 4e38 e8be
00000120: 5a55 7d3e 33ea 0f3e e814 81bd 3521 fd3c
00000130: 02c0 3b3e 6ed0 f7be d2b6 67be c84c 82bd
00000140: 2ab9 693e 4314 b43d 553c 83be bf1d e73d
00000150: ec99 8b3d 6d50 aebe 191a 743e 4e69 5dbd
00000160: 040d e6bc a55e efbd 9e16 01bf b98b 39be
00000170: 65a2 eabe 7213 8abe 9710 59be 97e2 c6bd
00000180: e8bf ba3d f29e 7ebe 89d0 c3be 08b3 8b3e
00000190: 3ac2 abbe fac5 ccbd 31a6 c5be 4635 0e3d
000001a0: c171 69bd 87fa bf3d 9c41 a7bd 03c0 c6be
000001b0: fa52 8f3e 2f13 92be c615 35be 3b46 83be
000001c0: 9c41 203e df88 14bf 1bde f6be c756 943e
000001d0: 2806 08be c48c 9fbe d3dd 913d c232 233e
000001e0: 5091 083e b970 7abe ef77 973d 1285 82bb
000001f0: 9e16 efbe d990 bfbc f55d 47be 109c c63d
00000200: 25f6 6a3d a138 22bd bc76 bbbc 4dd0 673c
00000210: 349e b3bd c044 bf3d 5167 13bd f3fe 883e
00000220: 1455 88bc 82b7 713d 84d1 f23d b9e0 763d
00000230: 2eee bb3d 796e 0d3e 4bec 963d 4f01 d3bd
00000240: acd1 fcbc 8e1c 80bd 4644 543e 07ca 743e
00000250: 5b60 a83d 9924 f63c d25f 5b3d 5d99 ad3e
00000260: 17f2 41be 6790 3abb 5c49 9fbd 2e1a eb3c
00000270: 9165 b93d 8480 023e eef7 8b3e 5ac8 dabd
00000280: 6969 79bc 8113 3e3e 3073 9b3d c8e8 ecbc
00000290: d410 5ebd ee38 d33d 055d a53d 8862 d53d
000002a0: 82f8 03bc d040 8d3b 6235 d4be f1c3 aebd
000002b0: 7b87 11be 1587 173e 69af 19be 2e0c ab3d
000002c0: 3c5b 88be a885 65bd 9e80 9cbc cecf 113e
000002d0: 4084 b33d 025e 51bc 3c31 e3bd bf04 39bd
000002e0: 3a8e 163e 1016 59bd 1557 37be 2eb0 1dbe
000002f0: d550 cb3d e52a 783c e8eb 6f3d acff 8bbc
00000300: 62d6 ab3e 595e 2d3e 809c 0cbd 87f9 983e
00000310: 105d 04bf fd14 29be 03a1 6ebe 2e6d 9cbd
00000320: 524f d5be 5bec fbbe 4557 f0bd 9a0c 84be
00000330: b45f f8bd 4ec3 163e 30b6 fd3c 6610 8fbe
00000340: 8afa 553e 5843 49bd f9b3 5f3e 6a76 01bf
00000350: 85e4 cb3d 7418 eb3c 67ef bbbd d428 3e3e
00000360: eb95 16be dd47 54be 133c ee3d 305d 1ebf
00000370: a171 b1be 35ae acbe 69ea 483e cfee 8dbe
00000380: ef2b debd 2530 0a3f 0c58 5cbe cf57 5d3d
00000390: 70b9 d13d 9394 ca3e 5a2a 2cbe 15f9 82be
000003a0: cfba a2be 447a cdbe 270d 5b3d 5524 b2bd
000003b0: 6aab e63d 107b 29be f48d d4be f94f e5bc
000003c0: 65b4 08be 0099 36bf 5394 9bbd 0b72 3a3e
000003d0: cafa bebd bd78 6ebe ecc4 d8bd 06a6 31be
000003e0: c95e 9fbd 4012 96be 8db3 9fbe 0810 13be
000003f0: 193d 2a3e 130d 76be c063 0d3e d510 aabd

model_sa.4.bias f4 [32]
-0.59326303 -0.4931225 0.8236082 -0.32028463 0.7436868 -0.19095837 -0.27357334 -0.6676927
-0.38369608 -0.40440685 -1.1726898 -0.23386362 -0.40108955 -0.21621293 0.060893115 0.027720764
-0.24921234 -1.0693561 -0.4637897 0.6029619 0.13309334 0.35470024 0.1638509 -0.16649997
-0.24199648 1.0488917 -1.177389 0.2406135 0.0773897 -0.5412395 -0.7947086 -0.18091261
00000000: 16e0 17bf 8d7a fcbe fdd7 523f 59fc a3be
00000010: 4262 3e3f 978a 43be ce11 8cbe e9ed 2abf
00000020: d073 c4be 6a0e cfbe b31a 96bf f279 6fbe
00000030: 9c5b cdbe ec66 5dbe 0f6b 793d a816 e33c
00000040: 8531 7fbe a9e0 88bf d875 edbe b65b 1a3f
00000050: 9f49 083e 459b b53e 88c8 273e f87e 2abe
00000060: edcd 77be 1542 863f afb4 96bf 6363 763e
00000070: 7e7e 9e3d ac8e 0abf 0672 4bbf 2841 39be

model_sa.6.weight f4 [1, 32]
-0.0209623 -0.06636303 0.10070805 0.02695272 -0.0111234635 -0.29546225 -0.0019366763 -0.0037992569
0.031114805 -0.024088131 -0.070927225 0.05740824 0.36298418 -0.085427724 -0.098562196 -0.038465906
0.031882796 2.1323676 0.12962307 -0.09163809 0.118462004 0.03602613 0.0001375241 0.09285617
-0.06868389 0.2988648 -0.045883875 -0.05592103 -0.13170974 0.01997734 -0.022891173 -0.086146474
00000000: 21b9 abbc 57e9 87bd 0640 ce3d f3cb dc3c
00000010: 303f 36bc d446 97be 13d8 fdba f4fc 78bb
00000020: 7ae4 fe3c 7954 c5bc 4b42 91bd e724 6b3d
00000030: 10d9 b93e bbf4 aebd fada c9bd 6d8e 1dbd
00000040: 8997 023d b678 0840 e9bb 043e c0ac bbbd
00000050: 359c f23d 2390 133d 5834 1039 602b be3d
00000060: 24aa 8cbd cf04 993e bbf0 3bbd 730d 65bd
00000070: ebde 06be 85a7 a33c 4586 bbbc 906d b0bd
