models/3/actor_n156.pt (torch, 226876 bytes, 30 tensors)

model.0.weight f4 [33]
00000000: 1d4e 873f cd72 363f d6f6 873f 4a84 523c
00000010: 6b87 14bd 6375 033c 89e9 2a3d 7eb6 843d
00000020: 5042 cc3d f426 9fbc bac5 d43e 362f c93e
00000030: c131 cd3e 7b9d da3f 96bd 8d3f dbb7 dd3f
00000040: 18dd a9bc c439 f33d 1480 4dbc 1be7 7abc
00000050: f797 a93e a2c3 683e f625 003e ee8b 543f
00000060: 928c 363f d40a 503f 5cee ec3f 0000 803f
00000070: 3eb2 f13f 0000 803f 0000 803f 0000 803f
00000080: 3dd5 af3f
1.0570713 0.7126892 1.0622203 0.012848923 -0.036261957 0.008023593 0.041726623 0.0648012
0.099735856 -0.019427754 0.41557103 0.39293832 0.40077022 1.7079309 1.1073482 1.7321733
-0.020735309 0.11876252 -0.012542743 -0.015313889 0.33123752 0.22730878 0.12514481 0.83026016
0.71308243 0.8126652 1.8510242 1.0 1.888252 1.0 1.0 1.0
1.373695

model.0.bias f4 [33]
00000000: 2753 bbbe add7 dbbe 4ddb babe 9a60 2c3e
00000010: 91e3 883d aa41 903c e336 e63d 7684 023d
00000020: ab98 85bd cae5 083d 23a0 56bd c37e f2be
00000030: 9a65 96bb 8e42 cebd be92 64be 276a 97bd
00000040: 3ec5 0b3d 7852 9d3d 9b59 c9bc 6d62 f03c
00000050: 421f 9e3d 472d 983a 0007 5ebd db13 b4bd
00000060: 59a6 24be 2e12 c13c 398f 98bd 4896 8e3e
00000070: aa20 cebe f5d1 82be 564b bdbd 57c6 49be
00000080: bad5 11be
-0.36586878 -0.42937985 -0.36495438 0.16833726 0.0668403 0.017609436 0.112409376 0.031864606
-0.0652326 0.03342227 -0.052398812 -0.47362337 -0.0045897486 -0.10071288 -0.22321603 -0.07393294
0.03412365 0.07681745 -0.02457886 0.029343808 0.07720806 0.0011610173 -0.054205894 -0.0879285
-0.16079082 0.023568239 -0.074491926 0.2784903 -0.40259296 -0.2555081 -0.09242885 -0.19704567
-0.14241686

model.0.running_mean f4 [33]
00000000: 920b 56be d103 2ac0 6c12 24be d035 383f
00000010: 6c99 b6bc 0a42 67bc 1119 eabc 7206 9abb
00000020: da64 0f3c 21aa 6cbc 8cd0 24bd 5191 d2bc
00000030: d00d 043d be65 65be 5d72 4ac0 a78e 01be
00000040: 377e 8f3c cc9d c73c 56cf e2bb c8bf 0d3d
00000050: 44d4 ba3d 80ff c7bc 9375 debd 9420 b2bd
00000060: e703 eb3d 0db2 2dbc 6ec2 32bc fcff 7fbf
00000070: 31e9 70bd 0000 0000 fcff 7f3f 0000 0000
00000080: 399e fcbc
-0.20902851 -2.656483 -0.16022652 0.7195711 -0.022289954 -0.014114866 -0.028576406 -0.0047004754
0.008752072 -0.014444859 -0.04023795 -0.025704058 0.032239735 -0.22402093 -3.1632302 -0.12652074
0.017516239 0.024367236 -0.006921689 0.034606725 0.09122518 -0.024413824 -0.10862269 -0.0869762
0.11475354 -0.010601533 -0.010910613 -0.99999976 -0.05881614 0.0 0.99999976 0.0
-0.030837165

model.0.running_var f4 [33]
00000000: ce4e 8940 98c9 433f ab2e 7840 4d01 823e
00000010: fe2a 8e3d 0d08 7a3d 2498 c53d e188 163f
00000020: c27f a63d 7067 343e dab3 4940 61a5 0940
00000030: e57a 4540 6235 a141 c915 1040 641e 9741
00000040: aaeb 063e e49d a43e 53f7 f33d c87f da3e
00000050: 3c09 9040 c65a 853f 2b5d b93f 54d6 1d41
00000060: f643 c740 be5e 1641 f931 0142 0400 0000
00000070: 9c6c fe41 0400 0000 0400 0000 0400 0000
00000080: 0d88 a33e
4.2908697 0.7647948 3.8778484 0.25391617 0.06941794 0.061042834 0.09648159 0.5880261
0.081298366 0.17617583 3.1516023 2.150719 3.085626 20.151066 2.2513297 18.88984
0.13175836 0.3215171 0.11912408 0.42675614 4.5011272 1.0418327 1.4481558 9.864826
6.227046 9.39813 32.2988 6e-45 31.803032 6e-45 6e-45 6e-45
0.31939736

model.1.weight f4 [256, 33]
00000000: c4e1 3c3e ee9d 85bc 051f 643e 5d49 9bbe
00000010: 0025 8bbe fdc0 223f 4c70 50be 54fa 08bf
00000020: 3d5d 023f 7ef8 07bf 6ef2 2ebe 3b6b cbbe
00000030: 7ce6 f83d e0d8 d3bb 78fe 7c3d af07 b13d
00000040: b93a dabd c1c6 b1be a2f9 7bbd 3afd b7be
00000050: 426b 24bf f1bc ba3d 2c96 e2be 1249 4ebf
00000060: c8bc 9dbe 9bae 96be 4a04 a13d 13b2 21bf
00000070: e017 a83e 9164 433f 0788 163f b30e 573f
00000080: 679a 783e 53c6 5e3e 93e1 cd3e b433 7cbe
00000090: 8ed9 903e 71f0 1c3f 0578 133f bfc6 f03d
000000a0: 7af7 04be d103 68be 5bd0 093f 7f09 373f
000000b0: fb6c 40bd 8693 8dbe 551a 5b3e 6162 9e3c
000000c0: 4ced 91be 1183 603e 3bce 3f3e 1549 40bf
000000d0: 68c1 a93b 8223 583d dad9 2f3f 4dd7 5abe
000000e0: f656 c23d 7a3a f83e 4cfb 8ebe 28e2 9bbe
000000f0: 3e10 bebe d679 11bf 3404 9c3e dee0 a53e
00000100: b07e 973e b3cd a63e 1b6b dfbc 9626 67be
00000110: 1433 803d 1f3d 04bf 02ac df3d 0379 243b
00000120: 700d e7be 7cd4 8e3d b913 063e a328 a9be
00000130: a97e eebd 4d72 6dbd c66d 9ebd da9a 553d
00000140: 2f8e 6f3f 4302 853b 933b 8fbd c1ae 0ebf
00000150: 8636 403e aef3 a8be abfa b3be 789f 34bf
00000160: 2666 083d b894 1f3f 9359 e03e 87e7 c0be
00000170: 0e14 f8bc e6d5 cfbe d404 95be e42a a83e
00000180: 2eb3 e43e 7a91 ec3e d97b 9fbe bcbf 7fbe
00000190: 3b76 04bf d82f 9e3c 9882 4dbd 7b4f 3fbd
000001a0: 365d 8dbe b3c6 bd3e 81ea 7a3e 0376 2bbe
000001b0: 9f34 ea3e a332 ca3e 102b aabe 5625 0fbd
000001c0: 0e8c 353e d1a6 b43d ac6d 16bf 1794 dfbc
000001d0: 22d5 053e 4fe2 85be ee0c ab3e 4b76 143e
000001e0: 99f2 9e3d 0255 7a3e 4255 243e 729f 043f
000001f0: ae71 4dbe ee59 15bd de0a 033f 3374 2f3f
00000200: b763 efbe 4eeb 0dbf 9c06 1bbf f628 a9be
00000210: 3af9 833e 53a7 fdbe 2fd6 63be b49d 83bd
00000220: 22b9 16be 00f4 933d 0754 b5bd f900 fcbe
00000230: 80e2 c03e 2a04 0d3f b050 47be 0831 d1bd
00000240: ab2e 14bf 46aa 0abf 3701 863e 5ce9 233e
00000250: 34b3 37bd af16 d03e 8364 c23e 781e 0e3f
00000260: d42b 033e e2c7 acbe e053 003f f916 eebe
00000270: bd18 373f d93a c9bb c7d2 d6bd ce9c 3ebe
00000280: 9b1e 8d3e 91e8 9cbd e626 263d 6eeb ed3a
00000290: ff7f 253e 9383 cebd 47b2 9abe 49a4 10be
000002a0: 12f8 f63d 2f76 b2bd e343 173e ecdf 0b3e
000002b0: ccb7 dabd d1a4 dd3c 76b6 a23e 25b5 9b3e
000002c0: aa9c 24be 1dae c4bd 3718 2b3e 357f 913d
000002d0: ea26 a93e b687 1e3e 707c 87be db16 bcbe
000002e0: a6f8 e73d 8c39 cf3e 36e2 193f bb46 5a3e
000002f0: 5695 cd3e bf86 883e 0044 0f3f 4fff 9fbe
00000300: 888f c53d 7c85 2d3f 6ac4 7cbd c34a 7fbe
00000310: 6e7d 37be e071 18bf aab3 1fbc 6ad2 0ebc
00000320: e4a4 1d3e 97be 38be ce24 67be 6ec9 4ebe
00000330: f4d7 35bd 6636 55bd 2f19 1cbe 9a9d f63d
00000340: c19b c6bd c6b2 9cbe 3fd9 c93d b04d bf3e
00000350: b6d5 05bf 67db e03e 78e8 3b3e 00c6 973e
00000360: 524e 593e 370b 223c fd64 653e 72de 883e
00000370: cf6f 243f 995e ad3e aa3c 31bf 3cd4 833e
00000380: 4197 84be 6d35 903d 32a1 363f fc86 99bd
00000390: 8bd7 a4bc dbe0 033d 8624 713d f721 95be
000003a0: 3454 5c3e 8326 cb3e 990e f5bd b2db a9be
000003b0: 4698 12bf ff7c 6f3e d5ff f0bd 069a 9c3e
000003c0: 6c64 97be 78cc a23e 0ce0 b23e 6707 6cbd
000003d0: f420 f23e f7a6 a33e d92b 3bbe 81ce 723e
000003e0: f72c 8bbe 4abc 0f3d caca ebbd 2d4f e53d
000003f0: 4f41 433f 605b aa3e 9fe1 b93e 34dc a3bd
0.18445498 -0.016310658 0.22277458 -0.3032941 -0.27176666 0.63575727 -0.20355338 -0.5350697
0.5092352 -0.53113544 -0.17084667 -0.39730248 0.121533364 -0.0064650625 0.061766118 0.08644044
-0.10655732 -0.3472195 -0.061517365 -0.35935384 -0.6422616 0.09118069 -0.44255197 -0.80580246
-0.3080809 -0.29430088 0.07862146 -0.63162345 0.32830715 0.7632533 0.5880131 0.84006804
0.2427765 0.21755342 0.40211162 -0.24629098 0.2829098 0.61304384 0.5760501 0.11756658
-0.1298503 -0.22657706 0.5383355 0.71498865 -0.046978932 -0.27651614 0.21396764 0.01933402
-0.28501356 0.21924998 0.18731014 -0.75111514 0.0051805265 0.052768238 0.6869179 -0.21371193
0.09489243 0.48482114 -0.279261 -0.3044598 -0.37121767 -0.5682653 0.30471957 0.32398123
0.29588842 0.3257881 -0.027272752 -0.22573313 0.062597424 -0.51655763 0.1092148 0.0025096543
-0.4512744 0.06974122 0.13093461 -0.33038816 -0.11645252 -0.057970334 -0.07735781 0.05214963
0.9357633 0.0040591075 -0.06993785 -0.55735403 0.18770799 -0.32998413 -0.35152182 -0.7055583
0.03330054 0.623363 0.4381834 -0.3767664 -0.030283 -0.4059288 -0.29105246 0.32845223
0.44667953 0.4620474 -0.31149176 -0.24975485 -0.51742905 0.019309923 -0.050173372 -0.046706658
-0.27610177 0.37065658 0.24503519 -0.16744237 0.45743272 0.39491758 -0.3323598 -0.034947716
0.17729208 0.0882088 -0.58761096 -0.027292294 0.13069585 -0.26149222 0.33408302 0.1449825
0.077611156 0.2444649 0.16048148 0.51805794 -0.20062897 -0.036462717 0.51188457 0.6853668
-0.46755764 -0.5543717 -0.6055696 -0.33039063 0.25776082 -0.4954172 -0.22249673 -0.06426564
-0.1471906 0.07224274 -0.088539176 -0.49219492 0.37672806 0.5508448 -0.19464374 -0.1021443
-0.5788371 -0.54166067 0.26172802 0.16006988 -0.044848636 0.40642306 0.3796731 0.5551524
0.12809688 -0.33746248 0.50127983 -0.46501902 0.7152212 -0.0061410484 -0.10489421 -0.18614504
0.27562413 -0.07661546 0.04056444 0.0018151829 0.16162108 -0.100836895 -0.3021414 -0.1412517
0.120590344 -0.08713948 0.1477199 0.13659638 -0.10679588 0.02705613 0.31779832 0.3041164
-0.16075388 -0.09603522 0.16708456 0.07104341 0.33037502 0.15481457 -0.26462126 -0.36736187
0.11326723 0.40473592 0.60110795 0.21316044 0.40152997 0.26665303 0.55963135 -0.31249472
0.09646517 0.67781806 -0.061710753 -0.24930863 -0.17918941 -0.5954876 -0.009747425 -0.008717159
0.15394932 -0.18041454 -0.22572634 -0.20194027 -0.044395402 -0.05205383 -0.15243982 0.12041779
-0.096976765 -0.30605143 0.098558895 0.37363958 -0.5227922 0.4391739 0.18350399 0.2964325
0.21221283 0.009890369 0.22401805 0.26732212 0.64233106 0.33861235 -0.6923319 0.2574786
-0.25896648 0.0704144 0.71339715 -0.07496449 -0.02012231 0.03219686 0.058872722 -0.29127476
0.21516496 0.3967782 -0.11965675 -0.33175427 -0.572636 0.23387526 -0.11767546 0.3058626
-0.29568803 0.31796622 0.3493656 -0.057624247 0.47290766 0.31963322 -0.18278445 0.23711587
-0.27182743 0.035091676 -0.11513288 0.11196742 0.7627153 0.3327284 0.36304948 -0.08000985

model.1.bias f4 [256]
00000000: 8261 45bf 4914 cbbe 1da7 9dbe 99d1 063f
00000010: 4d9c 133c 5d9f 083e d9b7 2d3e e5b2 22bf
00000020: b191 f3bd 3fe8 91be be34 fabe 693f 283e
00000030: a7bd 22be bbf4 42bf f1a3 bebe f75e 06bf
00000040: 5d6f 8e3e e4f1 8b3c a6b9 7cbc cf41 f9be
00000050: 5b3d 88be fa92 4ebf eca3 6dbe 1526 25bf
00000060: 7bca ac3e eadd 12bd 960d 863d 6f4b 13bf
00000070: 3f64 4cbe 4408 0ebf 4890 9fbe 402f adbe
00000080: 7d00 0ebf 1739 ad3d 7b61 5b3e 064d 9b3b
00000090: 764a 88be 5cbf 3ebe 5263 bbbe e090 64bf
000000a0: 06ea 4fbe 5ff3 09bf e572 79be 97b9 52bf
000000b0: e486 13bf 62d3 e03d 1354 10be 64d4 e53d
000000c0: 9ba6 34bf eca0 aebe 8e3e 18bf e577 20be
000000d0: dad4 00bf 6e45 8bbd 4873 e7be f598 06bf
000000e0: 69c7 08bf ee2c 1e3e 70eb 61be 5b33 a2be
000000f0: 14bb f6be 92bc 4fbf aff8 8bbe 11ee 0dbf
00000100: c545 a3be 6627 84be 4892 8e3e 0089 c13e
00000110: 85e6 cbbc 0d5a f83e bec4 ffbd 8fa2 2b3e
00000120: 4b91 60be 23a6 a63b 7df4 e7be 1041 173e
00000130: 5fab 34bf aa3b d03d c2e0 86be 7704 65be
00000140: 1258 963a bd20 2ebf 3508 44bd cb4c 6a3e
00000150: b3fb 4f3e 73ca a7be 16e1 ffbd 0cdd c3be
00000160: 1843 17bf 8b1f 9bbe d6bd 3bbe dcf7 9f3e
00000170: 1c5f 83be 696e dabe 3597 90be 9832 2d3e
00000180: 0bb4 45bf 6fb5 81be ccc2 8fbe 6d7b 33bf
00000190: b7be bbbd 673b 19bf 168f b6be 4412 353e
000001a0: 1fa2 c13e fcb9 07bf f955 373e 5f3a febd
000001b0: 627e e53e 5cf5 e3be 1739 d8be 9b1f 21bf
000001c0: d15c f9be 0032 1ebf 3722 4a3e 365d ebbe
000001d0: 5095 3cbf d8cc 19bd 4604 c4be c633 44bf
000001e0: 3312 c0be 788b c03e ef87 8bbd fb2c 433c
000001f0: 459e 79be 884e 49bf 2e8f 22bf 7bf2 a23c
00000200: 91ed 93be 913a afbe 7189 373e e558 73bc
00000210: 4a3d 0dbf 4810 b5bd 3f48 ddbe de79 bfbd
00000220: 4192 f9be ad70 1cbe 1a41 4cbf fe07 00be
00000230: ce2a e0be dd63 96be e70d 50be b949 76be
00000240: 0626 843e 19aa 9c3d 1983 0b3d 0cb2 e1be
00000250: f98e 833e e525 17bf 64ed 14be c8bd b6bc
00000260: e58f 1bbf 3004 fdbe 3c74 eebe 8244 04bf
00000270: 1ef4 92be 94a8 0ebf a2a6 fdbe 0818 92be
00000280: c8d2 7abe 8278 af3d 5584 fabe c116 23bf
00000290: 0d9a 0bbf 4120 f1be fcdd 9c3d 969c 47be
000002a0: 2f79 d9be 00aa 03be 8bb3 10bd a43a 153e
000002b0: 6594 453d f46c 1ebf 87cf 0cbe 05e1 ddbe
000002c0: f638 d6be 8c0b f43d 437f bebd 6f02 10bd
000002d0: 461e 5b3e f207 5dbc 29c3 f2be 25e3 053e
000002e0: 01f1 3bbe 6410 1ebe b558 3cbf 9267 e3be
000002f0: ba89 fd3d c858 cebe 2c6b 0bbf 6f51 263e
00000300: 0990 d8bd cf35 0abe e4ca c5be 86ed a7be
00000310: e40a 63be c81c 85be 934c c6be 2e57 60bf
00000320: 6246 afbe ab1a 4ebe ac7a 88be 2f4a 0fbe
00000330: fc97 24be 4119 09bf 714d acbe f0b6 56be
00000340: e920 a2be 8bff febe 5810 31bf f643 d1be
00000350: 3339 873e 0f9b 00bf 62d5 28bf fbbf 423e
00000360: 995b f13d 0286 93be 3524 8cbe c3cf 693e
00000370: 5ef3 9abe 892e 313e b59f 34bf 51cf 5e3e
00000380: 4a23 0cbf 71c6 9a3d a527 d6be 1ac9 b93d
00000390: 5374 06bf 8e79 803e ec42 b1be 3f32 183e
000003a0: 4085 8abe e265 a1be ec90 1dbe 2784 e4be
000003b0: d979 e8bc b628 a2be b55a e6bd 8974 203d
000003c0: 7435 79be c724 0bbf 077d c4be bebb 96be
000003d0: 93a4 6dbe 3e09 34bd 3017 63be 5de8 bfbd
000003e0: c83e 31bf 88a8 80be c4a3 55be da21 0bbf
000003f0: 2146 f1bd cf7f cfbe e0ea c5be 8f67 14bf
-0.7710191 -0.39663914 -0.3079156 0.5266357 0.009009433 0.13342042 0.16964664 -0.6355422
-0.11893023 -0.28497502 -0.48868364 0.16430439 -0.15892659 -0.7615468 -0.37234452 -0.52488655
0.27819338 0.017083116 -0.015425121 -0.4868302 -0.2660931 -0.8069302 -0.23207062 -0.64511234
0.3374823 -0.035856165 0.0654556 -0.5753698 -0.19960116 -0.5548136 -0.31164765 -0.3382511
-0.55469495 0.08458155 0.21423905 0.0047394065 -0.2661931 -0.18627685 -0.36599213 -0.8928356
-0.20304117 -0.5388698 -0.24360235 -0.8231444 -0.576277 0.10977818 -0.14094572 0.11222151
-0.7056672 -0.3410715 -0.5947045 -0.15670736 -0.50324786 -0.06800352 -0.4520514 -0.52577144
-0.53429276 0.15446827 -0.22062469 -0.31679806 -0.48189604 -0.8114711 -0.27338168 -0.55441386
-0.31889167 -0.2581131 0.2784598 0.37799835 -0.024890194 0.48506203 -0.124886975 0.1676123
-0.21930425 0.005085723 -0.45303717 0.14770913 -0.7057399 0.1016763 -0.26343352 -0.22364984
0.0011470339 -0.68018705 -0.04785939 0.22880857 0.2031086 -0.32771644 -0.124941036 -0.38254583
-0.5908675 -0.30297503 -0.18334135 0.3124379 -0.256585 -0.4266236 -0.28240362 0.16913831
-0.7722785 -0.25333735 -0.28078306 -0.7011021 -0.09167235 -0.59856266 -0.3565604 0.17682749
0.37819 -0.53018165 0.1790389 -0.12413477 0.44822985 -0.44523132 -0.42231056 -0.6293885
-0.48703626 -0.61795044 0.19739614 -0.45969552 -0.7366533 -0.03754887 -0.3828451 -0.766415
-0.37513885 0.37606406 -0.06813037 0.01191258 -0.24376781 -0.78635454 -0.63499725 0.019891014
-0.28892186 -0.3422437 0.17923523 -0.014852737 -0.55171645 -0.08840996 -0.43219182 -0.09349416
-0.48744395 -0.15277357 -0.7978684 -0.12503049 -0.43782657 -0.29373065 -0.20317803 -0.2405156
0.2581026 0.07649631 0.03406057 -0.4408115 0.25695017 -0.590422 -0.14543682 -0.022307292
-0.6076644 -0.49417257 -0.46573055 -0.51667035 -0.28701872 -0.5572598 -0.49541193 -0.2853396
-0.24494469 0.08567907 -0.48929086 -0.63706595 -0.5453194 -0.4709492 0.07659528 -0.19493327
-0.42475268 -0.12857819 -0.035327476 0.14573151 0.048237223 -0.61885 -0.1375104 -0.4333574
-0.41840333 0.11916265 -0.09301617 -0.03515857 0.21398267 -0.013490664 -0.4741452 0.1307493
-0.18353654 -0.1543594 -0.73572856 -0.44414955 0.12379785 -0.4030211 -0.54460406 0.16242002
-0.105743475 -0.13497089 -0.38631356 -0.32798404 -0.22172123 -0.2599852 -0.38730296 -0.87633026
-0.34233385 -0.2012736 -0.2665609 -0.13993143 -0.16073602 -0.5355416 -0.33652833 -0.20968223
-0.31665733 -0.4980434 -0.69165564 -0.40872163 0.26410827 -0.502366 -0.65950596 0.19018547
0.11785049 -0.28813177 -0.27371374 0.22833161 -0.302638 0.17302908 -0.70556194 0.21758772
-0.54741347 0.07557381 -0.4182712 0.0907156 -0.52521247 0.2509274 -0.3462137 0.14862917
-0.27054787 -0.31523043 -0.15387315 -0.44632074 -0.028378414 -0.31671685 -0.1124777 0.039173637
-0.24336797 -0.5435299 -0.38376638 -0.2944011 -0.23207311 -0.043954127 -0.22176814 -0.09370492
-0.6923642 -0.2512858 -0.20863253 -0.5434853 -0.11780954 -0.40527198 -0.38655758 -0.5797052

model.3.weight f4 [256]
00000000: d781 133f 1320 9d3f 1576 8e3f c309 903f
00000010: 56c4 033f ec32 b43f b0d9 843f 1ace 463f
00000020: e03e cf3f 845b a93f 09e6 953f 3add ba3f
00000030: 1ad2 6c3f 6978 6c3f cc86 ad3f 0312 343f
00000040: ee77 2a40 d95f 013f 822e 983f c737 cb3e
00000050: 868e 603f e51c 773f d80d 503f 59e5 3c3f
00000060: 23be 643f b18b a63f ecde 963f 6db2 843f
00000070: 8c29 a63f ecf5 803f 311b 953f 9ccb 643f
00000080: ac98 b93f 3dcf ce3f 3a5a 593f 0446 823f
00000090: b864 a53f cc31 c53f b643 8d3f a6c9 713f
000000a0: f8b5 393f 08d1 a53f b65a a03f 74f0 6a3f
000000b0: aef1 8e3f c1c0 883f 0913 5e3f 3c48 8b3f
000000c0: f72e 703f 031f 483f c1d2 2b3f 2b30 3a3f
000000d0: 079e c33f 8b89 973f 6e75 223f 3714 493f
000000e0: 16ac b83f b2c3 ac3f 2e5d 9b3f de14 d23e
000000f0: 7338 753f 461e 873f 734b 703f 3bf7 3d3f
00000100: 75a3 383f 76e4 703f ca65 453f 5188 a43f
00000110: 2939 be3f f201 453f d9cc a43f ced2 763f
00000120: 30aa 7e3f 711a d43f 5b74 3a3f 5c0f 8f3f
00000130: 9afd c93f bb29 c33f 42a7 643f dc5f a83f
00000140: a40a 503f cb74 623f fc36 6a3f 52fb df3f
00000150: 4b5f 803f 0937 b53f 4cb4 8b3f e181 aa3f
00000160: 4aec 313f 93a8 163f 8345 703f 2be5 a93f
00000170: b459 253f 52cc bb3f 8544 633f 9ff6 8a3f
00000180: 2f20 453f 305a 603f af55 463f 16b2 9a3f
00000190: e471 9f3f 98db 4a3f 3661 b03f beba 103f
000001a0: 136d 3f3f 8d28 3f3f f474 7f3f aeaf 503f
000001b0: c42f 683f 5eec 793f 5a04 623f bc03 043f
000001c0: b3bc b93f 0678 553f 6621 8c3f a6a1 443f
000001d0: c01a 953f 723f d63f 7dbd 773f dc33 583f
000001e0: 5dd1 913f 6187 2e3f c325 7b3f bcf9 803f
000001f0: 3dd2 ab3f 3a3a 863f 94c9 0b3f b95d c53f
00000200: 2a2a 463f 1938 5c3f cc50 083f d35f 9a3f
00000210: d37a 953f 9c2f 6e3f a92a 033f f747 803f
00000220: 3960 5a3f 22c9 373f 7c5f 803f 8767 523f
00000230: 4794 8e3f 6a26 7b3f 322d bb3f 1cc4 8a3f
00000240: 6049 5a3f cfcd 4d3f d40e da3f 8564 503f
00000250: c4ed c23f 9b89 973f f9c4 5f3f 6c36 953f
00000260: 7621 733f f291 b93f 3430 a13f fa9c 363f
00000270: 881e b13f ec28 593f 7d9b 7f3f f1bf 313f
00000280: 2c46 443f 8a76 9e3f 6482 8f3f 01a5 863f
00000290: d65d 923f 602f 6c3f f149 c13f 4f4f e93e
000002a0: 9605 913f ec08 933f d237 843f ac1b ff3e
000002b0: 028d 8e3f c7c4 443f 3c40 8e3f 2562 4e3f
000002c0: b40d 763f 923d 6b3f 07b0 403f 8029 bf3f
000002d0: 6b77 a53f 0a50 993f 5c3c c63f 5cb6 123f
000002e0: a093 a33f fb7d c53f 13a4 5d3f b37a 793f
000002f0: 3b0e 263f d51d 893f 3def 743f 255c a33f
00000300: caee 3a3f cb08 4f3f fabe 803f d6ed c13f
00000310: 7a7f 423f 159f 373f a7d4 ab3f 3085 5e3f
00000320: 7197 423f 9e42 ad3f 598d 953f 239a 253f
00000330: d147 a03f 692f 8e3f 7a65 8b3f 6972 523f
00000340: a093 4b3f b061 533f 6978 293f 83f7 743f
00000350: 63b1 323f c243 593f 9e6d 103f 957d fa3f
00000360: 5504 9e3f a6c8 803f d810 873f 5acc ac3f
00000370: 6aec 6b3f 9141 ee3f e229 603f 7f98 093f
00000380: 32f1 9f3f a680 973f 7826 a23f 378f 673f
00000390: d884 f23e 1f35 c53f 8a28 6c3f 4693 c63f
000003a0: c139 9b3f f3ac de3f 5f73 033f e979 843f
000003b0: edd3 8e3f b67a 9a3f 09ca 9e3f 04cd 843f
000003c0: dc7d 8e3f 2852 883f 90e6 993f e446 8a3f
000003d0: 4a6f 453f 9317 713f 978d 8d3f 0149 5d3f
000003e0: cbae 993f e0db 283f f021 893f f62a 253f
000003f0: 05a2 613f 294d 893f 9fb5 843f 1a4c 033f
0.57619995 1.2275413 1.1129786 1.1252979 0.5147146 1.407804 1.0378933 0.77658236
1.6191063 1.3231053 1.1710826 1.4598763 0.9250809 0.9237123 1.3556762 0.70339984
2.66357 0.50536877 1.1889193 0.39690992 0.87717474 0.96528465 0.81271124 0.73787457
0.89352626 1.301138 1.178678 1.0366951 1.2981429 1.0075049 1.1648923 0.89373183
1.4499717 1.6156994 0.849033 1.0177617 1.2921362 1.5405822 1.1036289 0.94448316
0.7254329 1.2954416 1.2527683 0.9177315 1.1167505 1.0683824 0.86747795 1.0881419
0.9382166 0.7817232 0.6711846 0.7272975 1.5282601 1.183885 0.63460433 0.7854647
1.4427516 1.3497221 1.2137811 0.41031545 0.9578926 1.0556114 0.93865126 0.7420537
0.72124416 0.94098604 0.7710844 1.28541 1.4861194 0.76956093 1.2875015 0.9641541
0.99478436 1.6570569 0.72833794 1.1176562 1.5780518 1.524711 0.89317715 1.3154254
0.81266236 0.8845946 0.9149015 1.7498572 1.0029081 1.415742 1.0914397 1.3320886
0.69501173 0.58850974 0.93856066 1.3273062 0.6459 1.4671729 0.8877643 1.0856513
0.77002233 0.87637615 0.7747449 1.2085598 1.2456632 0.79241323 1.3779666 0.56534946
0.7477581 0.7467125 0.9978783 0.81518066 0.90697885 0.9762629 0.8828789 0.515682
1.4510711 0.83386266 1.0947692 0.76809156 1.1648788 1.6738112 0.9677351 0.8445413
1.1392018 0.6817532 0.98104495 1.0076213 1.3423535 1.0486519 0.5460446 1.5419227
0.7740809 0.860231 0.53248286 1.2060493 1.1678108 0.93041396 0.5123697 1.0021962
0.85303074 0.7179128 1.002914 0.8218922 1.1139001 0.9810549 1.4623168 1.0841098
0.8526821 0.80392164 1.7035775 0.8140338 1.522881 1.1838869 0.8740993 1.1657233
0.9497293 1.4497664 1.2592835 0.7133328 1.3837442 0.84828067 0.9984663 0.69433504
0.76669574 1.2379925 1.1211667 1.0519105 1.1434886 0.9225979 1.510069 0.4556832
1.132983 1.1487098 1.0329535 0.498258 1.1136782 0.7686276 1.1113353 0.80618507
0.9611466 0.91890824 0.75268596 1.493454 1.2927068 1.1977551 1.548717 0.5730951
1.2779427 1.5429071 0.8657848 0.9745285 0.64865464 1.0712229 0.9567755 1.2762495
0.73020613 0.8087279 1.0058281 1.5150707 0.75975764 0.71727115 1.3424271 0.8692198
0.7601233 1.3535955 1.1683761 0.6468832 1.2521917 1.1108218 1.0890343 0.82205826
0.7952213 0.82570934 0.66199356 0.9569017 0.6980192 0.84869015 0.5641726 1.9569575
1.2345072 1.0061233 1.0552015 1.3499863 0.92157614 1.8613759 0.8756391 0.53748316
1.2495482 1.1836135 1.266799 0.90452904 0.47366977 1.5406836 0.9224936 1.5513694
1.2127 1.739653 0.5134792 1.0349704 1.1158425 1.2068698 1.2405406 1.0375066
1.1132159 1.0650072 1.2023487 1.0802884 0.7712294 0.94176596 1.1058835 0.8643952
1.2006468 0.659605 1.0713482 0.6451868 0.8813785 1.0726672 1.0367926 0.51287997

model.3.bias f4 [256]
00000000: d817 9dbe 06bd c2bb bec5 27bd f9e7 b53e
00000010: 0259 483e a703 8f3e 98c4 ddbd 1ee7 e13e
00000020: 209f a53e d5f3 d03d 7e0e 033f 987c 8fbe
00000030: 6dd8 5b3f b8d7 503d 588d 4a3e d338 95be
00000040: 97a8 c33e 4dec ebbd 302e 093f d086 563e
00000050: 95c3 85be c3d5 e3be 4931 233f 8f79 8bbd
00000060: 51dd d63e 805a ed3e 1add 65bd b45b a63c
00000070: d549 29be 1073 d43e a98a c13e 1904 bcbe
00000080: a91c a33e 8a5c 083f 0904 81bd d234 1a3f
00000090: 1a64 be3e a6df 8ebe e4da c4be 004e 0e3f
000000a0: dd8e 8f3e db85 00be 9e2c 1d3e 9d15 733e
000000b0: acae 713e 333f 6f3e 010c e0bc 7ccf 1cbd
000000c0: e3dd c83d cf71 b23c 3958 dd3b f074 70bd
000000d0: ec00 6c3d 3d37 2e3f e2eb 18bf b7af 483e
000000e0: db41 fa3d 277b 23be 90de ac3e 368f a83e
000000f0: 77d1 a43e 6a73 5d3d 64af 473f 2902 5c3c
00000100: d09d aabb d4ff 073f 0df9 4d3f a9f1 143f
00000110: 3c68 f63e ff12 b8be e408 b6be ea5d 70be
00000120: 1815 46be 1868 bd3e 4336 48be 9229 df3d
00000130: 637a a5bd 8004 543e d7fa 6dbe f678 9c3e
00000140: d93b 1b3e b943 d3bd deb4 5b3e 178c 373f
00000150: 3593 98bd 5365 b63e adc9 773e e0b2 773b
00000160: e3ea df3e 7257 5e3e 2d44 babe 6dc3 8c3d
00000170: fbd2 243e e224 f5be d75a 073f 7410 86be
00000180: 1e4c f13e 3871 f1be d81c cc3d 01da 7e3e
00000190: 7e2c e23e 8280 4f3e 3333 1a3d cf82 15bf
000001a0: c3a3 dbbe 8c2f b23e 6815 dfbd 540c 363e
000001b0: 1b3f 863e 8b14 923e 6bbf 2b3f cca5 9abe
000001c0: 0b37 e13e a296 f43e cd9f 043d 7501 413e
000001d0: c9c1 83be a8f2 2f3e 80c1 dc3e 9028 463e
000001e0: a3e9 253e da18 873c 38be 4a3d 630b e23e
000001f0: fe3a a23d 5e59 873e f890 80bd 7b6f d13e
00000200: 12ef fdbb fade a93e 461e d93e 4430 30be
00000210: 835b 1bbf 10e9 87be 4bdc 313e 2371 5e3d
00000220: 6a40 93be aaa1 02bd 14bc 73be 74a9 22be
00000230: 0996 4dbe 118d 293e bdfc b23d b405 11bf
00000240: 127b e6bd ee0b 5f3c 9171 68be e599 4fbe
00000250: f8e8 f3be 36c8 3abe 4c57 0fbe a892 5c3e
00000260: 599e a23e ac38 753e 31be 14be 8fee 0f3e
00000270: dc8a 983d 9e21 a5be 87d0 b33d 2cab 1b3e
00000280: b5be 47bd 75a3 9b3e c3d3 b43e 9075 193c
00000290: 7236 ebbe 9abf 893d 2bf3 9cbd ffbd 0d3f
000002a0: 9082 aa3d e24b 123e f07d c4be 236d bf3e
000002b0: ae56 0d3e fb92 193e 44df 423e 0e48 fc3e
000002c0: b23a 9a3e 7cfc 4c3f 6826 b13e c5a5 e53e
000002d0: 574b 1bbe f494 3a3e e1ce 8d3e 9214 e8be
000002e0: 1c70 90bd 2f15 6bbc f0bc 10be 7b0b 063e
000002f0: 192c 893e d70f 7e3e f69d a43e c311 3c3d
00000300: f796 3cbe e390 2f3e b4da 2fbe 69fe a43e
00000310: af0f ad3d 888c 523f b220 7f3d 688a 3dbe
00000320: 54cc ba3e e493 8c3e 10f7 1e3e b855 8c3e
00000330: 2f39 50bd 2d20 063e 600a 1ebe ea82 c0be
00000340: 1492 3bbe 55ab ad3e b941 a23e 5c7a 413f
00000350: 3cad 753e 639c 6d3d 9b80 92be f3b1 263e
00000360: bce9 0d3f 8fbe 2f3f 4611 48be ebcd 4f3f
00000370: bdf5 8fbd 2e0c c33e 6338 c8be 549e be3c
00000380: 003e 1b3f 5c3d 30be 81b9 32bd 9540 0dbf
00000390: 615a 73be e7e2 bd3e 35b5 d03d 929b 2abe
000003a0: d34e f63e 431b 813d 8722 a53d 2ae1 a83e
000003b0: 6e8c f43e 391f 283d 3e86 863e e06d d4be
000003c0: 5d2b 38be 6d5e 9f3e ae0b f13c 0075 243e
000003d0: f3b7 da3e b763 873e 5392 af3e 8b46 7c3d
000003e0: d895 e83e a11a 82bd ab12 11be a07a a03d
000003f0: ec49 83be 123b ab3d 2aca da3e b36e 84bd
-0.30682254 -0.0059429435 -0.040960066 0.35528544 0.19565204 0.27932474 -0.10828513 0.4412164
0.32347965 0.10202757 0.5119399 -0.28024745 0.85877115 0.050986975 0.19780481 -0.29144916
0.3821456 -0.1151968 0.535861 0.20949864 -0.2612578 -0.44499025 0.6374708 -0.06810295
0.41965726 0.4635811 -0.056119062 0.0203074 -0.16532071 0.41494036 0.37801102 -0.36721876
0.31857803 0.53266203 -0.06299598 0.6023685 0.37185746 -0.27905005 -0.3844825 0.5558777
0.28038684 -0.12551062 0.15349051 0.23738714 0.23601788 0.23363952 -0.027349474 -0.03828381
0.098079465 0.021782784 0.0067549017 -0.05870527 0.057618067 0.68053037 -0.5973493 0.1959828
0.12219592 -0.15964948 0.33763552 0.3292176 0.3219106 0.054065146 0.78002 0.013428249
-0.005206801 0.5312474 0.80458146 0.58181244 0.481264 -0.35951993 -0.35553658 -0.23473325
-0.19343984 0.3699348 -0.19551949 0.10896601 -0.08079984 0.20704842 -0.23240219 0.30561036
0.15159549 -0.103156514 0.21455714 0.71698135 -0.074499525 0.3562418 0.24198027 0.0037795827
0.43733892 0.21713045 -0.3638014 0.06873212 0.16096108 -0.47879702 0.52872986 -0.26184428
0.47128385 -0.47156692 0.09966439 0.2488785 0.4417457 0.20263866 0.037646484 -0.58402723
-0.42898378 0.348019 -0.10892755 0.1777814 0.2622002 0.28531298 0.67088956 -0.30204618
0.43987307 0.47771174 0.03237896 0.18848212 -0.25733784 0.1718241 0.4311638 0.19351411
0.16202407 0.016491342 0.049497813 0.44149312 0.07921408 0.2643537 -0.062776506 0.40905365
-0.0077494467 0.3317793 0.4240591 -0.17205912 -0.6068651 -0.26545 0.17369191 0.054307114
-0.28760082 -0.031892456 -0.23802215 -0.15884954 -0.20076765 0.16557719 0.08739612 -0.5664933
-0.112539425 0.013613684 -0.22699572 -0.2027355 -0.4763868 -0.18240437 -0.13998145 0.2154032
0.31761435 0.239474 -0.14525677 0.14055847 0.0744836 -0.3225221 0.08780008 0.15202016
-0.048765857 0.30398145 0.3531781 0.009366408 -0.45939976 0.06725998 -0.07663568 0.55368036
0.08325684 0.1428676 -0.38377333 0.37387952 0.13802597 0.14997475 0.19030482 0.49273723
0.30122906 0.8007276 0.34599614 0.44853035 -0.15165459 0.18220884 0.276969 -0.45328194
-0.07052633 -0.014348312 -0.14134574 0.13090317 0.26791456 0.2481073 0.32151765 0.045915376
-0.18416964 0.17145114 -0.17173272 0.3222535 0.08450257 0.82245684 0.06228704 -0.18509829
0.36484015 0.27456582 0.15523934 0.27409148 -0.050835785 0.13098212 -0.15433645 -0.3759988
-0.18317443 0.33919778 0.31690767 0.7557733 0.23991865 0.05801047 -0.28613743 0.1627882
0.55434775 0.68650144 -0.1953784 0.8117358 -0.07029293 0.3809523 -0.3910552 0.023268856
0.6064148 -0.17210907 -0.04363394 -0.5517667 -0.23764946 0.37087175 0.101908125 -0.16660908
0.48107013 0.06304028 0.08063226 0.32984287 0.4776339 0.0410454 0.26274294 -0.41490078
-0.17985292 0.3112673 0.029424515 0.16060257 0.42718467 0.26443264 0.34291324 0.061590713
0.45426822 -0.06352735 -0.14167278 0.07835889 -0.25642335 0.08360876 0.42732364 -0.06466427

model.3.running_mean f4 [256]
00000000: 9473 663d a2d3 0d3f 620d 3f3e 133f 9d3f
00000010: 5df7 023f ed2a 843f 640b 9a3f 0da5 a43c
00000020: c9bc b13e 74c7 693e 0bd8 9d3e 303f d93e
00000030: d2eb 583f ffd0 773d fa87 663e 3baa 353d
00000040: 3aca 823f 8fad 7c3f 6f1a 203f a68c 123e
00000050: 0d47 6a3e c68a 5e3d d2ea cc3e 7441 b93e
00000060: f5aa ae3f 12f7 ce3e 5825 2c3f 848c 503e
00000070: aa7d 363e 6e14 ee3d 39e6 f83e 24e8 493f
00000080: d85e de3e dd37 313f decd 0f3f 45cb 393f
00000090: 6856 023f 4259 533d b2bd c03e eb17 473d
000000a0: 2960 703f b9ca 0c3e 16b7 3d3f 8edf f23b
000000b0: 2eda 103e b3b4 523f 03a9 b03e ab0b 6e3f
000000c0: 7dfb 603b ca32 bf3d 7657 f73d 3bc3 cc3e
000000d0: 4b4b 0c3f 311e 8f3f e1ee 993e 4f90 023f
000000e0: d694 5d3e 790d 363f 31c7 0d3f a14e 3a3e
000000f0: 8a89 e83e 9aee 873d 5c68 c83e 71cd 123e
00000100: 76f2 153e 144a 633e 7a4b 583f edbb 9a3f
00000110: c110 013f e4df 243f 1ec9 ce3e cb36 203f
00000120: 1206 2a3e 4a35 bc3e 83d6 f53c 4434 0f3f
00000130: 89c6 343e 1559 cd3e 7ff3 4a3e 178a c23e
00000140: 7341 863e e69c 683d b385 c93e 00b3 523f
00000150: 6029 233f 375d 2a3e 29f4 133e d5d2 e73e
00000160: 4908 123e 1e72 dc3e 2379 943e 5d1e 6f3f
00000170: 0498 173f e309 dd3e f977 bd3e b4ce 8f3e
00000180: d4e7 1f3c e0a2 673f ddf2 943e d8f3 533e
00000190: 0eab 533f b16c 493e 8355 263e 1c65 b43e
000001a0: 13d2 243f a360 593e 0f7f 283f 4b98 973e
000001b0: f2d8 933f 9a48 413e d3bf ef3e f7cb 3a3d
000001c0: b3d9 8a3e 11c6 d63d 30f6 1e3f fb6f 033f
000001d0: da02 973e d2e4 b43e 960a b33e 7a7c b23d
000001e0: 1425 ae3e 74d9 9a3f 0319 8e3f 0897 263f
000001f0: 6db3 193f f51c ed3c 3ed1 5c3d 530e 383f
00000200: b1f2 ee3c 1d8d a73d 05a2 263f bf87 a23e
00000210: 7920 233d e933 d53e 4750 263f 8789 bf3e
00000220: adaf 7f3e d857 a33e 6546 833b c883 1f3e
00000230: 83ec e53e 421e 013e b5ef 4c3e 44e7 773e
00000240: ecaf 573f b2f4 5e3f 87f0 a73e b6c3 3c3d
00000250: 2ce1 0e3f afea e63d 69f2 3e3f d66c 603f
00000260: 0388 b03d 3e14 5e3e 2ac8 ed3d bdb7 fc3e
00000270: 336d 193f 2d5e 2b3d 8e29 2b3d 44d4 e03e
00000280: e110 653e 3bec 863f a201 af3d 4c69 163d
00000290: 20a6 493e 06aa 723e 5d5a 8f3e cf07 123f
000002a0: 4e4a 8a3e 8fa2 023f 2021 b53e cc1f 363f
000002b0: b45e 793f 4bf8 a03d f5bf 7b3f ee0f 803e
000002c0: 8eea 9f3e 2f34 723f b1e0 f83e 755f eb3e
000002d0: 7b27 043f dfde 3a3f 3dad 873e 267c 7a3e
000002e0: 5c2f 223e 9b14 423f d8ff f53c 3090 143f
000002f0: a883 213f 3d92 9e3d 133e 823d ad8c 063f
00000300: 36e5 153f baed 283e 46ee 323e fdb2 273f
00000310: 7d3c d93e 3c8a f83e 3111 2b3e d38f 0c3e
00000320: ddfe fe3c bd00 b43e 34f3 ce3e 4156 1d3e
00000330: 376d 0e3f 1170 453e 1997 b83e fc1f c63e
00000340: 4f58 463e c53c 153e 0903 a03c 2a79 3f3f
00000350: 44f6 983f a0c4 c13e 1201 913c c06e 653f
00000360: 43ef 193f 673f f13e d9c2 3b3f 7abf 993f
00000370: 0cc2 c63d 3eb3 813f d174 263e 8bf0 0a3f
00000380: 1ee6 053f 89df 773f 0860 873e 4983 143f
00000390: ab02 673e 66cf 153f 88e9 4a3f c99d 193f
000003a0: 61bc e23e 73b6 f93d ad18 453f 316f 3a3e
000003b0: 3d1f 3b3f dec0 7b3e 1154 383f 6250 eb3e
000003c0: 7dbe cf3e fdb3 893e c65f 2d3f e1bc 273f
000003d0: 9ef8 773e 6a59 5f3f ef0c 113e 4505 f83e
000003e0: 323a c43e dc98 8c3e 56b4 033e 66c0 f63d
000003f0: 81a4 df3e a668 6a3d 982e ae3d 4a13 e73d
0.056262568 0.5540105 0.18657449 1.2284874 0.51158696 1.03256 1.2034726 0.020098234
0.34714344 0.22829992 0.3082889 0.4243102 0.84734833 0.06050205 0.22512808 0.044351798
1.0217965 0.9870233 0.62540334 0.14311466 0.22878666 0.054331563 0.40022904 0.3618275
1.3645922 0.40422875 0.6724448 0.20366102 0.17821375 0.116249904 0.48613146 0.78869843
0.43431735 0.69225866 0.56173503 0.7257579 0.50913095 0.051598795 0.37644726 0.048606794
0.9389673 0.13749208 0.7410749 0.0074119037 0.14145729 0.82306975 0.34503946 0.92986554
0.0034329586 0.09335859 0.12077229 0.399927 0.5480239 1.1181089 0.30065063 0.5100145
0.21638808 0.7111431 0.55382067 0.18194057 0.45417434 0.066373065 0.3914212 0.14336182
0.14643273 0.22196227 0.8449017 1.20886 0.5041619 0.6440413 0.40387815 0.6258361
0.16603878 0.36759406 0.030009514 0.55939126 0.1765386 0.40107027 0.19819449 0.3799598
0.2622181 0.056790255 0.39359817 0.8230438 0.6373501 0.16637121 0.14448608 0.4527804
0.14260973 0.43055815 0.2899867 0.93405706 0.5921633 0.43171605 0.37005594 0.2808739
0.009759862 0.904829 0.2909154 0.20698488 0.82682884 0.19670369 0.16243558 0.3523339
0.6438305 0.2122827 0.65818876 0.29608378 1.1550581 0.18875352 0.46826038 0.045604672
0.27119216 0.10486997 0.620944 0.51342744 0.29494363 0.35330826 0.34969014 0.08715148
0.34012663 1.2097611 1.1101383 0.65074205 0.60039407 0.028944472 0.053910486 0.7189686
0.029168459 0.08181212 0.6509097 0.3174419 0.03982589 0.41641167 0.64966244 0.37409613
0.24969359 0.31902957 0.0040061944 0.15577614 0.44907007 0.12609199 0.20013316 0.24209315
0.8425281 0.87092125 0.32800695 0.046085082 0.55812335 0.11275231 0.7458864 0.8766607
0.08619692 0.2168741 0.11610444 0.4935893 0.5993225 0.04183786 0.041787677 0.43911946
0.2236972 1.0540842 0.08545233 0.036721513 0.19692278 0.23697671 0.2799863 0.57043165
0.27009815 0.51029295 0.35376835 0.7114227 0.9741013 0.07859858 0.9833978 0.25012153
0.3123364 0.94610876 0.48608926 0.45971265 0.5162274 0.72996324 0.26499358 0.24461421
0.15838379 0.7581269 0.030029222 0.5803251 0.63091516 0.077427365 0.06359496 0.52558404
0.58552873 0.16496935 0.17473707 0.6550749 0.4242896 0.48542964 0.16705777 0.1372674
0.031127388 0.35156813 0.40419924 0.15364935 0.556354 0.19281031 0.36052778 0.38696277
0.19369625 0.14573963 0.019532697 0.74794257 1.1950154 0.37845325 0.017700706 0.89622116
0.6013071 0.47118685 0.7334419 1.2011559 0.0970498 1.0132825 0.162555 0.5427329
0.52304256 0.9682546 0.26440454 0.58012825 0.22559611 0.5851959 0.7926259 0.60006386
0.44284347 0.121930026 0.7699078 0.18206479 0.7309454 0.24585292 0.72003275 0.45959765
0.4057502 0.26895133 0.67724264 0.6552258 0.24215934 0.8724581 0.1416509 0.4844152
0.3832565 0.27460372 0.12861761 0.12048416 0.43680194 0.057228707 0.08504981 0.11282976

model.3.running_var f4 [256]
00000000: 994c 263d a228 263f 5307 5f3e 42fa 1d3f
00000010: 4556 e13e 1020 b73f c7ed 0640 87b4 8d3c
00000020: 22a5 be3e 967f 483e 67cf 833e 36a0 263e
00000030: cad0 843f 4307 263d 3d5d 3a3e 7db4 3f3d
00000040: 1e81 f03d 9a5e 793f 2ddd 283f 6473 d53d
00000050: e412 5d3e f94f 953d 1dee cb3e 9bc8 0b3f
00000060: b11b 2c3f 2b70 a63e 419b b83e 07ba 303e
00000070: da2f ce3d 6860 0d3e bb95 283f 7c39 8f3f
00000080: 5557 173f b900 243f 541f c83e 9d14 883f
00000090: 3b78 313f ff5b ee3c afcc b03e bcb4 5c3d
000000a0: bf69 883f bf68 b83d ba3b 593f a1b5 883c
000000b0: f700 103e f71a 863f 9e94 c13e 8245 b33f
000000c0: 0eb8 a23a f8bc 973d 96da 143e dc2c ec3e
000000d0: b646 1c3f 7ee3 cf3f 71f3 c53e 6b2a 273f
000000e0: 68c4 683e a6bb f83e fe7d 213f 4d07 5b3e
000000f0: 17ef 183f 09ad 5f3d 15be 173f ca0b 2a3e
00000100: 51c5 1f3e 76f9 483e 23d1 4e3f 8740 b13f
00000110: 12f3 0a3f 8eb7 c23e ba35 9a3e 5e79 bb3e
00000120: 0ab3 dc3d 531c 493e b154 133d 9dcd ff3e
00000130: 78c4 1e3e 2a59 6c3e 76b3 493e 44cc aa3e
00000140: e720 303e 2d45 6b3d 0a7c e63e 6eff 3e3e
00000150: 702c 0b3f 1f45 0e3e 270f 0a3e 4315 e13e
00000160: b037 003e bd4a 073f 3d03 c23e bf64 e33e
00000170: e922 263f 657e 043f dba4 ad3e 1eeb db3d
00000180: 2a66 df3b 0aea ac3f 86ee cf3e bcbf 6b3e
00000190: acfb 2e3f be09 393e 23a9 173e c191 993e
000001a0: b7f6 c43e f81b 753e 678a ce3e eff7 b23e
000001b0: b856 ae3f bec7 273e 2462 1e3f 467c 233d
000001c0: 4288 3f3e fffa ba3d 53b9 c83e f181 053f
000001d0: 1faf a83e 3afa 7f3e 67cf ac3e 8253 c23d
000001e0: 2a5a bb3e 89bd c23e a2a9 d43f cfad ce3e
000001f0: ba2f 523f dfbc 003d 3910 353d 6079 0e3f
00000200: 40ef 6d3c ab11 783d 222f ec3e 59cd a83e
00000210: 67e9 0b3d 4396 cc3e 6b50 6f3f 0eb5 813e
00000220: 68b9 863e 6a01 b13e 9181 2f3b 7eba ea3d
00000230: e444 1e3f e2a5 123e 0cfd ec3d a514 893e
00000240: a030 3a3f c24d 6c3f b90a 623e 1c8f dd3c
00000250: 2584 533e 695b aa3d 279b 713f 1b51 a43f
00000260: 1137 a43d c7e8 953e 6fcf 603d 7b37 353f
00000270: 2f2e 6e3f 3a37 393d cfbd 2f3d de51 133f
00000280: be49 6b3e 95b4 ca3f 52d1 5f3d 6893 033d
00000290: f238 463e 4dc7 503e 4d81 503e 4ffb 553f
000002a0: 1574 a83e 888d 063f c72d e93e 80c4 f93e
000002b0: 9148 8b3f 349d 763d 0712 0940 4826 9b3e
000002c0: 44e2 8d3e 0dcf 8f3f 35de 053f ba05 e73e
000002d0: 5944 9e3e ca53 8c3f 2c37 b63e 8157 553e
000002e0: 33b7 de3d ed69 a43f 5089 063d d1b3 223f
000002f0: ad47 083f 81d7 313d f85c 893d 6a24 773e
00000300: 3cc6 3e3f 9a1b 303e ae76 2d3e 1148 5f3f
00000310: 1b11 cc3e 8373 2d3f d11e 0b3e eb44 033e
00000320: d8d6 df3c 181a af3e 6f2d e13e 527c 013e
00000330: 9018 523f 79e2 6c3e 5492 c63e d670 f13e
00000340: b8bb 313e aeb3 e33d 216d a63c cde3 893f
00000350: 2b8e a23f 82a5 db3e 12c8 7c3c 9abd 633e
00000360: 91a1 e53e 4685 063f a28e 923f 6c5b 4a3f
00000370: 25f5 903d 8270 a93e b3f9 2a3e 260a fd3e
00000380: 8d73 1f3f 0a88 923f ce9b 813e 45b7 cb3e
00000390: 4489 873e fb35 a43e 8981 973f 9a27 ef3e
000003a0: 420e d73e f2ed c53d e0d0 703f 8b65 0c3e
000003b0: f94f 653f 77fd 3c3e 8e84 4b3f 9ddc c63e
000003c0: c524 ca3e 99ec 943e 3899 813f 4676 923f
000003d0: 0628 4e3e 4915 853f f77b fa3d 08ea 083f
000003e0: cf8c e63e e51e ac3e 209e de3d 48b6 eb3d
000003f0: a262 c63e b211 513d 4b93 893d 23a6 013e
0.040600393 0.6490575 0.21780138 0.6170999 0.4401113 1.430666 2.1082628 0.017297996
0.3723536 0.1957992 0.25744173 0.16272053 1.0376217 0.04053427 0.1819963 0.046802986
0.11743377 0.97409976 0.6596249 0.104224 0.21589237 0.07290644 0.39830104 0.54602975
0.67229754 0.32507452 0.3605595 0.17258464 0.10067721 0.13806307 0.6585347 1.1189418
0.59117633 0.640636 0.390864 1.0631291 0.6932408 0.029096602 0.3453116 0.0538833
1.0657271 0.09004354 0.8485676 0.01668817 0.14062868 1.0476979 0.37808698 1.4005587
0.0012414472 0.0740909 0.14536509 0.46127975 0.61045396 1.62413 0.38662294 0.652991
0.22731173 0.48580664 0.63082874 0.21389504 0.5973982 0.05460838 0.5927442 0.1660606
0.15602614 0.19626412 0.8078787 1.3847817 0.54277146 0.38030666 0.30119115 0.36616033
0.107763365 0.19639711 0.03596944 0.49961558 0.15504634 0.23080888 0.19697365 0.33358967
0.17200051 0.057439018 0.4501651 0.18652126 0.5436468 0.13893555 0.13482343 0.43961534
0.12521243 0.52848417 0.37893096 0.444128 0.6489702 0.5175536 0.33914837 0.107382044
0.006817599 1.3508923 0.40611666 0.2302236 0.6835277 0.18070123 0.14810614 0.29994014
0.38469478 0.2393645 0.40339968 0.34954783 1.3620214 0.1638479 0.618685 0.03991344
0.18704322 0.09129905 0.3920389 0.521514 0.32946107 0.24997798 0.33751985 0.09488584
0.36592227 0.3803523 1.6614268 0.4036698 0.82104075 0.03143012 0.044204924 0.55653954
0.014522374 0.060563724 0.4612971 0.32969168 0.034158137 0.3995839 0.93482083 0.25333446
0.2631333 0.3457139 0.0026780108 0.11461352 0.6182387 0.14321092 0.11571702 0.26773563
0.72730446 0.9230615 0.22074403 0.027045779 0.20655878 0.08318216 0.9437737 1.2837251
0.080183156 0.29279158 0.054885324 0.7078778 0.9303922 0.045218684 0.042905625 0.57546794
0.22977349 1.5836359 0.054642983 0.032123 0.1935766 0.20388527 0.20361824 0.8358659
0.32901064 0.5255971 0.45542738 0.4878273 1.088152 0.060208514 2.1417253 0.30302644
0.2771169 1.1235062 0.52292186 0.45121557 0.3091152 1.096307 0.35588968 0.20834161
0.10874786 1.2844826 0.032845795 0.6355563 0.5323437 0.04341841 0.067071855 0.24134985
0.7452123 0.17198029 0.16939804 0.8721934 0.398568 0.6775438 0.13585974 0.12819259
0.027324125 0.34199595 0.43979976 0.1264508 0.8206873 0.23133267 0.38783514 0.471564
0.17356765 0.111182556 0.020315709 1.0772644 1.2699636 0.4289971 0.01542856 0.22240296
0.44849828 0.5254711 1.1449778 0.7904575 0.070780076 0.3309365 0.16696815 0.49421805
0.6228569 1.1447766 0.25314182 0.3978826 0.26471913 0.32072434 1.1836406 0.467099
0.42003065 0.09664525 0.9406872 0.1371061 0.89575154 0.18456064 0.7949914 0.3884019
0.39481178 0.2908676 1.0124884 1.1442344 0.20132455 1.0397121 0.12230676 0.53482103
0.45029303 0.3361732 0.10870004 0.11509377 0.38747126 0.051042266 0.06717547 0.12661032

model.4.weight f4 [128, 256]
00000000: 66f7 333f d02d 843e 2871 443f 9445 3d3d
00000010: 93ca b23e e312 923d 283d 9dbb f9e8 ab3e
00000020: 6223 b1bd c129 f13e 23f0 b3be 5b90 0a3e
00000030: 039c 23bd 37b3 8ebe bed2 b83e db5a e03d
00000040: fbc9 35bf ab41 d53e 0cd8 16bd adc4 2cbf
00000050: be36 37bd 35fc 713e 8ccb 443d ca16 d2bd
00000060: 2b8e a4be 09ce 823e 0ba2 e73e 9706 4f3e
00000070: 098e 31be 9700 2abf 072e b0bd fe09 3bbe
00000080: 8371 e8be c2d3 983e be5f 4d3d c6c0 23bc
00000090: 29f4 433e ea24 01be e8f2 a53e a20c 29be
000000a0: 2b0a 44bd 1b08 24be 2cb9 a4be 2c4e d53e
000000b0: 9d54 bfbe ca83 55be 1308 19bf e4f5 f0be
000000c0: e57c 36bd b617 99be 4009 a23e 4ffc c0be
000000d0: e035 2b3e f150 4dbf b514 273e d065 8a3d
000000e0: a002 13bf 9b24 a9be 41e0 3ebe fe1e 903e
000000f0: d0bb 683e 1cb6 863e 9957 adbe a336 3ebf
00000100: 96b2 0cbf c6cb 37be 7748 09be 06b8 833e
00000110: db55 64be f95b 2cbf 30d0 ebbe 6567 e3b9
00000120: 352c dc3e 9524 a8be dac8 733e 53cb e23e
00000130: 9c9f 04bf 29ad 563c fde1 0f3d 6d68 babe
00000140: f967 b43d fcc1 b33e 4a20 b3bd 186a df3e
00000150: 1048 76be f602 27bf cb65 f3be 651c 15be
00000160: 5822 e2be 01c5 5ebe 5461 ca3d 20fc e53e
00000170: e0d8 84bd 0f10 08be 248f a2bd 5a4b 79be
00000180: b200 20bd 329b dcbd 671b d5be a803 e1bd
00000190: 9e56 81be 83d9 9b3d 3c34 b0be 4ae5 d53d
000001a0: 46c8 b53e 9ad4 5cbe 409c b03e e800 34be
000001b0: ccb5 82bd 2b94 1ebf c8cd fdbc 81df c83d
000001c0: 53c5 043d 4ad9 4e3e 4b18 9e3e fed9 64bb
000001d0: 0d1f 9abe 7199 3ebf 3672 84bc 8ec3 503e
000001e0: 0d3a cd3e 3044 f53e c301 ef3e 8a15 8c3e
000001f0: 2ab6 b03e 2a32 a5be 9d65 e13e 650d 9ebe
00000200: a2d8 693d abda 1dbe a2e2 003d dbf9 0a3f
00000210: 141d d53e 2676 f73e 4661 d03e e6dd dc3e
00000220: 57e3 4f3e 0b4c e4be 09dd 263f bd01 d5bd
00000230: 3ac4 313f b9ff acbd b44d 21bf b619 cc3e
00000240: be1d c1bc 5d58 fe3e 13d1 8d3e bb91 c1be
00000250: e018 793f 00b3 c33d 7c0b b03e 735b ebbd
00000260: ed49 bcbe 2ed8 afbe 94ec d73e 9233 1abf
00000270: ca8c c63e b436 b4bd eac7 5a3e dec4 043e
00000280: 1530 09be 839d 5b3c 91a4 0cbf 161b 15bd
00000290: 463c a93e fbf6 083e f042 1d3f cd8f 433e
000002a0: 97e0 e03c 4e1f babe 61dd 9cbd 7319 433e
000002b0: fe5c 0fbe c927 7cbe 1981 a03d 2b1f 57bd
000002c0: 04a0 9dbe e6b4 60be d992 b2bd f591 c3be
000002d0: bbd7 0f3f e48a 2a3e 40c3 b23e c528 8abd
000002e0: 0845 2f3e da6c 883e 659d e1bd c619 a93e
000002f0: ff16 eabd 5097 a4bd 7fce 80be 5191 26bf
00000300: 4321 9ebc a908 81be 494f 8b3c ceda ba3c
00000310: 6a85 ae3e cf7b abbe b203 13bf 73ff ab3e
00000320: a273 90be f225 d9bc 51ff b7bd a2de b5be
00000330: 6540 053e ad14 063f e48d 28be 5e54 b53e
00000340: b306 b9be e9be 39be 2a8f 18bf 35bd 23be
00000350: 550e 56be d675 14bf 81ac 16be d0a6 3e3f
00000360: a478 64be 4115 0c3e 6160 3b3d 14d4 5d3e
00000370: da80 203e ab03 313f 5d1b 293e 06d7 9bbe
00000380: 39d8 84bd 5c86 dd3e 9bf0 343e b634 f73e
00000390: 7134 44be 4eb7 223d f6c4 3b3e 7f33 c3bd
000003a0: 3dc6 b33e 3ca6 50be 7b4b a4be 29b3 2a3e
000003b0: f4a1 b2be 083d 87bd 8e47 26be 7f43 90bd
000003c0: 42b2 9c3e 2158 83be ce3a 4e3d 1a37 0dbf
000003d0: b23d 1d3c 6834 163e c772 2b3e 1454 80be
000003e0: 256e a13e e499 713e 8bb4 073f b6d8 8ebe
000003f0: 2c1f 7f3e 6e3d 343e c09a 053e 0ab0 a5be
0.70299375 0.25816202 0.7673516 0.046208933 0.34920177 0.071325086 -0.00479855 0.33576182
-0.08649327 0.47102168 -0.35144147 0.1353163 -0.039943706 -0.27871105 0.36098284 0.10954829
-0.7101132 0.41651663 -0.036827132 -0.67487603 -0.04472994 0.23631366 0.04804568 -0.10258253
-0.32139716 0.25547817 0.45240816 0.20217358 -0.17339338 -0.6640715 -0.08602529 -0.1826553
-0.45399103 0.29849058 0.050140135 -0.009994691 0.19136108 -0.12611738 0.32411885 -0.16508725
-0.04786126 -0.16018717 -0.32172525 0.41661203 -0.37369242 -0.20851055 -0.59777945 -0.470626
-0.044552702 -0.29900903 0.31647682 -0.37692496 0.1671977 -0.8020163 0.16316493 0.067577004
-0.5742588 -0.3303574 -0.18640234 0.28148645 0.22727895 0.26310813 -0.33855894 -0.7430212
-0.5496 -0.17948827 -0.1340655 0.25726336 -0.22298376 -0.6732784 -0.46057272 -0.0004337385
0.43002477 -0.3284041 0.23807088 0.4429575 -0.51806045 0.013102808 0.03512763 -0.36407796
0.08808894 0.35108936 -0.08746393 0.4363563 -0.24050927 -0.65238893 -0.475386 -0.14561613
-0.44166827 -0.21754839 0.09881845 0.4491892 -0.06486678 -0.13287376 -0.07937458 -0.2434515
-0.039063163 -0.10771789 -0.4162247 -0.109870255 -0.25261396 0.076098464 -0.34414852 0.10444124
0.3550436 -0.21565476 0.3449421 -0.1757847 -0.06382331 -0.61944836 -0.030981913 0.09808255
0.032414746 0.20200077 0.3087791 -0.0034919973 -0.30101815 -0.74452883 -0.016167741 0.20387098
0.40083352 0.47903585 0.46681032 0.27360183 0.3451398 -0.32264835 0.44022837 -0.30869594
0.057091363 -0.15415446 0.031466134 0.542875 0.41623747 0.48332328 0.40699214 0.43138045
0.20301567 -0.44589266 0.6518102 -0.10400722 0.6944004 -0.08447213 -0.6300919 0.39863366
-0.023573752 0.4967679 0.27698573 -0.37806496 0.9730358 0.09555626 0.34383762 -0.11492052
-0.3677515 -0.3434462 0.42172682 -0.6023494 0.3877929 -0.08799496 0.21365324 0.12965724
-0.13397248 0.013404253 -0.5493861 -0.036402784 0.33053797 0.13375466 0.61430264 0.19097824
0.027450843 -0.3635201 -0.07659412 0.19052677 -0.14000317 -0.24624552 0.078371234 -0.05251996
-0.30786145 -0.21944007 -0.08719415 -0.38197294 0.56188554 0.16654545 0.3491459 -0.067460574
0.17116177 0.26645547 -0.11016349 0.33027476 -0.114301674 -0.08036673 -0.25157544 -0.65065485
-0.01930297 -0.2520192 0.01700558 0.022809412 0.34086162 -0.33492896 -0.57427514 0.3359333
-0.2821322 -0.026507352 -0.089842446 -0.35521418 0.13012846 0.523753 -0.16460377 0.3541593
-0.36137924 -0.18139233 -0.5959345 -0.15990146 -0.20903905 -0.57992303 -0.14714243 0.74473286
-0.22311646 0.13679983 0.04574621 0.21662933 0.15674153 0.6914622 0.16514345 -0.30437487
-0.06486554 0.4326657 0.17669909 0.48282403 -0.1916063 0.039725594 0.18336853 -0.095313065
0.3511218 -0.20375913 -0.32088837 0.16669907 -0.34889185 -0.06603438 -0.16238233 -0.07044124
0.3060475 -0.25653175 0.05034905 -0.55162203 0.009597229 0.14668429 0.16743003 -0.25064147
0.31529346 0.23593861 0.5300986 -0.27899712 0.24914235 0.17601559 0.13047314 -0.3236087

model.4.bias f4 [128]
00000000: 0b80 19bf 6ad3 8fbd 5de9 ecbd 28b4 a2be
00000010: 8ddd a8be fff0 7ebf 786a 96bd c9f3 44bf
00000020: ccd1 34be 4416 b5bd 148e 28bf eea9 93bd
00000030: 784c 90be efc0 09be 28d0 d9be 0e57 92bd
00000040: e4c0 03bd 125c 9dbe a28a 90be 606a e2be
00000050: 21e0 93bd b1bd c0bd a6dc 61bf bb8a 19bf
00000060: d278 1dbf f536 06bf 8c00 eebd 666d 26bf
00000070: 7293 5bbf 9594 f4be 53a8 b0be d7a9 f0be
00000080: 6a47 e8be 3e83 17be 35b9 11bf 2e76 24bf
00000090: 6f34 76be f7d7 dabe 3919 3dbe 25a1 35bf
000000a0: 4e45 1cbe 7919 5b3d b504 1abf 31bf 953e
000000b0: c1a6 f1be b924 08bf 1f9a 6c3e 5e92 2b3e
000000c0: f780 2cbe 9bd9 e63e 4337 0e3e 1eef 063c
000000d0: 9126 0dbf e7e2 33bf d0c0 26bf 9cd1 89be
000000e0: 542d 22bb 3eb5 01bf d7b6 95be b310 e5be
000000f0: 6889 19be e8ff 2abf 4068 e0bd e055 1bbd
00000100: d1ee 44bf 73ef 333e e83e d1be 92a4 a73e
00000110: 9d0e 31bf 86c6 9bbe 4e48 b8be 5550 aebe
00000120: 9b54 cfbe 696a 363e a808 1ebf ddd6 26bf
00000130: 419c 303e 31fe bf3e 47af e0bd 9896 f9bd
00000140: 0c0a 24be 6f42 fdbe c392 9dbe 9535 3ebf
00000150: 7385 73be 061e e5be dfbb b1be 4759 48be
00000160: eaa1 2cbd b83f 8bbd a3e5 9cbe e36b ae3d
00000170: 8f54 d23e 544d 40bf 5f74 ee3d e984 a2be
00000180: 78ba b4be 2489 b4be e73f 05bf 111c 1fbf
00000190: e0be 35bf 869e b2be 76c5 8fbd 4fa1 07bf
000001a0: 044e 52bf 2556 60be e212 1d3e e96f 89be
000001b0: 4380 93be 1e4c 52be e300 d2be d6a0 00bf
000001c0: 839b d7bd 1b34 fa3c 4659 35bd 36ea 073e
000001d0: ba06 78be 6339 603d e0f4 09bf 8f07 18be
000001e0: fa6e 13be 4b64 d73d 9f49 e1be dc22 11bf
000001f0: 2190 0fbf 9ae9 0ebf 6e19 403e 0b31 1cbe
-0.59961003 -0.07022746 -0.11567948 -0.31778073 -0.3298153 -0.9958648 -0.07344526 -0.76934487
-0.17658156 -0.088421375 -0.65841794 -0.07210146 -0.2818334 -0.13452505 -0.42541623 -0.071455106
-0.032166377 -0.30734307 -0.28230768 -0.44221783 -0.072204836 -0.09411181 -0.8822731 -0.5997731
-0.6151248 -0.5242761 -0.11621198 -0.6501068 -0.8577186 -0.4776961 -0.3450342 -0.47004578
-0.45366985 -0.14796159 -0.5692323 -0.6424283 -0.2404344 -0.42742893 -0.18466653 -0.7094901
-0.15260813 0.05349109 -0.6016343 0.2924743 -0.47197536 -0.53181034 0.23105668 0.16755053
-0.16846071 0.45087895 0.13888268 0.008235721 -0.5513697 -0.702681 -0.6513796 -0.26917732
-0.0024746256 -0.5066718 -0.29241058 -0.44739303 -0.14993823 -0.6679673 -0.10957384 -0.037923694
-0.76926905 0.17571811 -0.40868306 0.32742745 -0.69162923 -0.304249 -0.35992664 -0.34045663
-0.40494236 0.1781403 -0.6173196 -0.65171605 0.17247106 0.3749862 -0.109709315 -0.121869266
-0.16019458 -0.49464747 -0.30776033 -0.7430051 -0.23781376 -0.4474947 -0.34713647 -0.19565307
-0.0421466 -0.06799263 -0.3064395 0.085166715 0.41080138 -0.75117993 0.1164329 -0.31742027
-0.35298514 -0.3526088 -0.5205063 -0.621522 -0.7099438 -0.3488657 -0.070200846 -0.5298051
-0.8215029 -0.21907862 0.15339234 -0.26843193 -0.28808793 -0.20536849 -0.41016302 -0.50245416
-0.105277084 0.030542424 -0.04427459 0.13272938 -0.24221316 0.05474223 -0.53889275 -0.14846633
-0.14397803 0.10517176 -0.4400148 -0.56693816 -0.560793 -0.558252 0.187597 -0.15253083
