models/3/critic_n156.pt (torch, 215160 bytes, 13 tensors)

model_s.0.weight f4 [33]
00000000: f97c 5d3f e3f1 023f b3a6 623f 47c7 193d
00000010: c1e3 293d d45e 503d 8ba5 113c af16 793d
00000020: 15f6 c23d 9b9c 863d cbde 653e 9a1a 563e
00000030: a68c 6e3e 2589 c63f a300 583f fd3f c53f
00000040: 6a2c 9f3a c2c9 2f3d 6c15 1d3d f6b0 db3c
00000050: 061a 663e 85b9 0f3e 0a8a cb3d e726 173f
00000060: 837d e33e e8ce 0f3f 17ce b83f 0000 803f
00000070: 0950 ba3f 0000 803f 0000 803f 0000 803f
00000080: 7c81 643f
0.8651882 0.5115034 0.8853561 0.03754356 0.04147697 0.050871685 0.008889566 0.06081265
0.09519593 0.06572839 0.2244827 0.20908585 0.2329584 1.5510603 0.8437597 1.5410153
0.0012143974 0.04291702 0.038350508 0.02681778 0.22470865 0.14035614 0.09938438 0.59043735
0.44431695 0.5617509 1.4437894 1.0 1.4555675 1.0 1.0 1.0
0.8926008

model_s.0.bias f4 [33]
00000000: fa7c 9abd e0a6 dfbe 9041 8abd d0c6 323c
00000010: 969d d63c c52f 93bb 3a54 433c ee43 f43a
00000020: c45c 393c 6de6 a53c b2a9 11bd 0d6d 65be
00000030: 6a26 98bb 2305 eb3c 175b 83be f129 d0bc
00000040: 2881 c138 f0b8 083c 1d75 e039 eee9 0d3c
00000050: 5dec bc3c 599e b1bb 9f8a 2d3d 159b b63b
00000060: 4081 32be 9944 37bd 7a2c f73c 56f7 fdbe
00000070: d1f0 e8bd b0d0 8cb9 bfda 01bf 4d05 32bf
00000080: dbad 10be
-0.07543369 -0.43682003 -0.06750786 0.010911658 0.02619819 -0.0044917786 0.011921937 0.0018635967
0.011313621 0.020251477 -0.035562225 -0.22404881 -0.004643251 0.028688973 -0.25655434 -0.025410624
9.2270144e-05 0.008344874 0.00042811866 0.00866173 0.023061926 -0.005420488 0.042368528 0.0055726864
-0.17432117 -0.044743154 0.030172575 -0.49602765 -0.11374057 -0.00026858365 -0.50724405 -0.6953934
-0.1412882

model_s.0.running_mean f4 [33]
00000000: af20 4dbe 0919 29c0 9af3 32be d5d8 373f
00000010: 1fcc bebc 0e5d 84bc 589b f9bc 9ebd 8bbb
00000020: 17b9 613b aa74 83bc 7d1f 40bd b5a2 1cbd
00000030: 8dc5 9f3c 9016 3dbe 3b8a 48c0 426c 1dbe
00000040: 33fc 923c da2e cb3c b256 6abc d5ed 143d
00000050: 0889 b03d 3d56 34bd 516a 11be 220b c1bd
00000060: 79bf 093e 7ba9 70bc db9d 863d fcff 7fbf
00000070: 8107 aabd 0000 0000 fcff 7f3f 0000 0000
00000080: 790b 4cbd
-0.20031999 -2.642153 -0.17475739 0.71815234 -0.023290692 -0.016157653 -0.030469581 -0.0042645475
0.0034442598 -0.01604684 -0.04690503 -0.038241107 0.01950338 -0.18465638 -3.133437 -0.15373328
0.017942524 0.024802614 -0.014302896 0.036359627 0.08619887 -0.044027556 -0.14200713 -0.094259515
0.13451947 -0.014688845 0.06573077 -0.99999976 -0.083022125 0.0 0.99999976 0.0
-0.04981563

model_s.0.running_var f4 [33]
00000000: 5ee8 8a40 d629 4b3f ac77 7840 2c35 813e
00000010: c163 8f3d ce7c 813d 04bd c73d 71c6 163f
00000020: cfe8 a23d ae2e 303e ca5d 4640 f5db 0140
00000030: d421 4340 a80d a341 c4b0 1440 d14a 9741
00000040: de1f 053e c029 a53e 9375 f53d 199e da3e
00000050: 32b3 9440 6ab3 863f 76dc c83f 3d37 1c41
00000060: e31e ba40 f09d 1141 f5e0 0142 0400 0000
00000070: ee7e fd41 0400 0000 0400 0000 0400 0000
00000080: 7335 a33e
4.340865 0.7936071 3.8823042 0.2523588 0.070014484 0.06322633 0.09752849 0.5889655
0.07954561 0.17205307 3.0994744 2.02905 3.0489397 20.381668 2.323289 18.911531
0.13000438 0.32258415 0.11985316 0.42698744 4.6468744 1.0523503 1.5692279 9.763486
5.8162704 9.101059 32.469685 6e-45 31.686977 6e-45 6e-45 6e-45
0.31876716

model_s.1.weight f4 [256, 33]
00000000: ea79 15be fcd5 143d 8c71 d13e 599a b6be
00000010: 15d3 6abc e194 5e3d aa7b a93d 7d64 90be
00000020: 8dc6 ffbe 08a0 84ba c0e8 f9bd 269c 9c3d
00000030: 62dc 3f3d 44d2 5d3e 7cd3 323d 9cd0 0dbf
00000040: 9108 cb3d a78b 5fbe b130 013f 3724 623d
00000050: baf0 843e 4c10 ab3e b31a 8a3d 64e0 753c
00000060: ec88 013f 2c64 d4be 80ff b4be 8960 913e
00000070: 5288 a43e 4a3b 5a3d 5030 b03e 7988 a23e
00000080: 6af3 c13e ae49 7d3e 202a b2be 407f 09bf
00000090: 45df 80be 7836 bb3e b130 503d 0968 f43e
000000a0: fe89 8dbd 80ae 5ebd bd20 f4be 9bd8 cb3d
000000b0: e017 913d 0b62 90be 0688 65be 9960 84bd
000000c0: d482 42bd 1ecd ae3e 534e 9d3e 303b 583e
000000d0: ff1d 8f3e 3933 8d3d a3be 0b3e c62b 07be
000000e0: 4637 babd d069 5e3e 21c5 683d 6543 12bf
000000f0: 03d6 9c3e 3dc3 8e3e 9082 3f3c 11ee a03e
00000100: 400b a73e 9f1d afbe 4ad5 9b3d 509f a13e
00000110: 5981 283f 91fd 1a3d 6816 073f d9a9 febe
00000120: b02d 9f3e dd22 ebbe 6404 29bf a7e0 863d
00000130: d4a8 2f3e 2716 da3e 371c 4c3f 4ae1 d83d
00000140: aa0b 323c 187b c3bd 7290 423c 83f5 6bbe
00000150: 3fb0 fc3c 2ced ac3e ff27 b43b 1398 f13e
00000160: cecf 8cbc 08f9 e83e 8f3d 933e 8b53 bfbe
00000170: 97f7 713e 9eb5 8b3e 4bd5 16be c451 71be
00000180: da81 f73e e923 b13e 70a0 8bbc 2443 8c3e
00000190: 5b40 283f d765 e03e ba24 0a3e d0cd a2be
000001a0: fd22 d0be 4177 523e 9b05 19be e2ae 88be
000001b0: c2f0 fd3d 819b 68bd 27d8 9a3d a340 7cbf
000001c0: 454e 56bd df4d 19be 5f0c 2d3c 2710 58be
000001d0: 4c24 c2be e505 91be 18a9 9d3d 3d77 45be
000001e0: ba67 ca3e 6f4e 893e 3d46 303e 2ec1 88be
000001f0: fa40 47be 64c0 f13d 7e2d 0d3f b146 81be
00000200: 389d 29be 5dac fe3e 49fe 083f dfcd 56be
00000210: 1350 6a3e bf2c b83e 2af8 bcbd 43c6 4cbe
00000220: f648 c0bd 01f2 763e 40aa cd3e 6784 1a3e
00000230: c43b 093f 7497 dfbd 683c 093f da9b 8d3e
00000240: 43ae 393e 7c4e 2f3e c7b3 5abc 0927 df3e
00000250: dbe7 993e 60aa ebbd 7743 c8bd ca50 293e
00000260: 4697 a3bc c8e2 0fbc c31d 40bd d34e ef3d
00000270: a11f 033f bd3b 973d b796 edbe bc1c e13e
00000280: c48a 9b3d 2a03 39be fe3e 023f 17e3 f53e
00000290: 314b 2ebf 9dba 0fbd 5b96 083f 3139 23bf
000002a0: 3bbf 80be ad82 e4be d335 923e a31b 803c
000002b0: 46e5 2e3e daab 59be 1a4c b7bd f1da d2be
000002c0: 2f4b 433f 7843 47be 2394 20be 4eb8 883c
000002d0: 3b30 1b3e 73f3 8d3e bf6f 7bbd 06d1 9d3e
000002e0: 2881 01bf 2832 08bf 5d45 eabd 1710 1bbe
000002f0: 71d6 45bd 0112 5b3e 3445 363e d669 c73d
00000300: e0d0 aa3e 5241 953e 5ea6 02bd 2096 933e
00000310: 27ea 8a3e 85b7 863e 708c 04bf 6d18 d53d
00000320: 2591 623e 535b 5c3e bcd9 07be 7c99 293e
00000330: 2595 683e 6b39 9abc 3aa5 85bd 79d7 353d
00000340: d7fe 55be d7fb a8bd f585 113e 2856 9d3e
00000350: a89d 92bd ae4c 0d3b 250c 643e 6c1d 9b3d
00000360: ec3b d63d f97b a638 e81f e03b 4158 8abe
00000370: 1706 0bbe 80d8 cf3d 075f 2b3e 0315 da3d
00000380: b444 14be 362e 213e 6960 023f 85ae c13d
00000390: 6d6b 823e d0e3 133e 43f5 1dbf 7c24 5ebe
000003a0: 3fef f8be 9e89 9f3e f813 4c3e 2725 ef3c
000003b0: 3654 293f aaee f83e ac18 a73e 7748 f5be
000003c0: fbca 2d3f 1e25 f03e 7eaa d8be e6a3 cfbe
000003d0: 5f8a 79be a1a6 f43e 375e 2bbe 762b 983e
000003e0: 96d7 7ebe b445 973c 17fe e13e 59b2 e13e
000003f0: f530 ce3d da04 233f 9ae0 bebe 4b28 183f
-0.14597288 0.036336884 0.40906942 -0.35664633 -0.014332552 0.0543412 0.0827554 -0.28201666
-0.4995617 -0.0010118494 -0.12202597 0.076469705 0.046841033 0.21662241 0.04365872 -0.5539644
0.09913743 -0.21830617 0.5046492 0.05521032 0.2596491 0.3341087 0.06743374 0.015007112
0.5059955 -0.41482675 -0.3535118 0.28393963 0.32135254 0.0532792 0.3441186 0.31744745
0.37881023 0.24735138 -0.34797764 -0.53709793 -0.2517034 0.36564994 0.050827686 0.47735623
-0.069110855 -0.054365635 -0.47681227 0.099534236 0.07084632 -0.281998 -0.2241517 -0.06463737
-0.04748805 0.34140867 0.3072382 0.21116328 0.27952573 0.068945356 0.13646941 -0.13200292
-0.09092574 0.21720052 0.05682862 -0.57134086 0.30632028 0.2788333 0.011688843 0.3143163
0.3262577 -0.34202287 0.07609041 0.31566858 0.6582237 0.037839476 0.52768564 -0.49738958
0.31089544 -0.45925036 -0.66022325 0.06585818 0.17154247 0.42595026 0.7973055 0.105898455
0.010867039 -0.09544963 0.011875259 -0.23042874 0.03084576 0.33774698 0.005497932 0.47186336
-0.017188933 0.45502496 0.28757903 -0.37368426 0.23629604 0.27287 -0.14729802 -0.23566347
0.48341256 0.3459771 -0.017044276 0.27394974 0.657232 0.43827698 0.13490573 -0.31797647
-0.40651694 0.20553304 -0.14943545 -0.26695925 0.123994365 -0.056788925 0.07560759 -0.9853613
-0.052320737 -0.14971112 0.0105620315 -0.21099912 -0.37918317 -0.2832481 0.07698268 -0.19283767
0.39532262 0.26817653 0.17214294 -0.26709884 -0.1945838 0.11804274 0.5514754 -0.25249246
-0.1656388 0.49740878 0.5351301 -0.20976971 0.22882108 0.3597164 -0.09227021 -0.19997506
-0.09388916 0.24115755 0.40168953 0.1508957 0.5360682 -0.10917559 0.536078 0.27657968
0.18132882 0.17119783 -0.013348526 0.4358447 0.30059704 -0.11507106 -0.09778493 0.16534725
-0.019969594 -0.008782096 -0.046903383 0.116849564 0.51220137 0.07384441 -0.4640405 0.43967235
0.07594827 -0.18067613 0.5087737 0.48024818 -0.68083483 -0.035090078 0.53354424 -0.6375914
-0.25145897 -0.44630948 0.2855669 0.015638178 0.17079648 -0.21256962 -0.08950062 -0.41182664
0.76286596 -0.19459331 -0.1568151 0.016689446 0.15155117 0.277248 -0.061385866 0.30823535
-0.505877 -0.5320153 -0.11439011 -0.15142857 -0.04830021 0.21393587 0.17799836 0.097369835
0.33362484 0.29151398 -0.03189694 0.28825474 0.2713177 0.2631189 -0.5177679 0.104050495
0.2212568 0.21519212 -0.13266653 0.16562456 0.22713144 -0.018826207 -0.06525655 0.044394944
-0.20897995 -0.0825116 0.14211257 0.30729795 -0.07158977 0.0021560597 0.22270258 0.07573971
0.10460648 7.9385885e-05 0.006839741 -0.27020457 -0.13576542 0.10148716 0.16735469 0.10648539
-0.14479333 0.15740284 0.5092836 0.09457115 0.25472584 0.14442372 -0.61702365 -0.21693605
-0.4862003 0.3115968 0.19929492 0.02919252 0.6614412 0.48619586 0.3263601 -0.4790685
0.6788785 0.46903318 -0.42317575 -0.40554732 -0.2436919 0.47783378 -0.16735159 0.29720658
-0.24886927 0.018465854 0.44139168 0.4408138 0.100679316 0.6367928 -0.37280732 0.5943648

model_s.1.bias f4 [256]
00000000: d0a2 95be 63e3 71be d7ab b8be 1cb2 f4be
00000010: 0425 b9be 92a5 51be c172 7ebe 196b febe
00000020: 0536 83bc a247 c7be 124e 0fbf ea4e 73be
00000030: bb31 9cbe 48c0 94be 5575 c2be d2a8 15bf
00000040: 2a75 e3be 39ed 06bf 7bf8 ddbe 9059 b6be
00000050: 968c 37bd 7ce3 0dbf b887 12bf 7619 e0be
00000060: d8ad 0cbf acb2 6ebe c9fc dcbe 587f aebe
00000070: 3239 e1be a033 39bd 6652 31be b4e2 a7be
00000080: 9155 bbbe a1b5 f7be d39e b3be e0c8 18bf
00000090: 5396 c53e eed5 ddbd c101 1ebe 9997 d0be
000000a0: cada d2be 6e5a 86be 45d1 91be 7f73 04be
000000b0: 6345 0bbe 6f70 edbe e4ac fcbe bcb1 efbe
000000c0: bbf5 82be 3378 19be ccda 20bf 15c9 d7be
000000d0: bfe7 bfbe 7f4e f6be 7dfc 42be e29b 8ebe
000000e0: 90a6 9dbe 1fab 44be f1ef d8be c2db a1be
000000f0: c170 9ebe f954 5ebe 1f9f edbe c212 43bf
00000100: 7aa0 87be 7351 92be f3df adbe 42cd d1be
00000110: 7dcd 5cbe d227 cabe 7b72 e5be 3f9a c8bd
00000120: 395f 70be 1b04 fcbe f971 debe 0b8f cbba
00000130: 569a 86be 3166 89bd 1b89 0cbe 59fc dcbe
00000140: f7e3 dbbe cc7e cfbe 2f4e a3be 0004 a8be
00000150: 6722 95be cfdd acbe dada 39be 6894 17bf
00000160: 6685 0ebf c413 47be 6978 f5be e2b6 c9be
00000170: e56e 4ebe 980b c4bc de6c b7be bd78 93be
00000180: 9470 1abe ab1c 87be ce88 bf3c 8ee8 12bf
00000190: f74c 57be 0b44 fdbc ad7f 09bf c1fc 4cbe
000001a0: f75a dabe c170 c3be 72de c6be fa99 e6be
000001b0: a3ee 83be b38b 10bf 8548 88be cbe2 25bf
000001c0: 4116 45be 4be5 f1be fe75 1fbf aded d7be
000001d0: 44cc b8be 1a63 bfbe 773e a1be 035b b6be
000001e0: 3a95 c6be 47a4 adbe 0656 e3be dc4e c0bd
000001f0: 55d6 8abc 811c 9ebe 621c 92be 7aab adbe
00000200: 1a16 2abf a9fb 8b3b 6ea0 dcbe f903 dcbe
00000210: 031a c7bd 4a3d 0bbe 1166 a2be 1254 edbe
00000220: 01fd 05bf bafb 91be 053b 44be 7fd1 d3be
00000230: 65fa a9be 80d3 043e 6d81 d9be be48 93be
00000240: 6a82 d9be e04a 633d 3629 8fbe 90da 8abe
00000250: cd4e 06bf 5411 81be 3cca b9be 236a 8cbe
00000260: e6ca d2be 89d9 a9be 5f12 87be 94bc c4be
00000270: ac2c ccbe 391a 0bbf ede2 03be 517e 96be
00000280: 6178 d9be 52e4 92be 07cd 74be 8eae 78be
00000290: 705a 40be f1ad c8be 54c9 06bf b114 b8be
000002a0: af5c 7ebe c90f 1abf 2bb5 eabe 8a49 aebe
000002b0: d14f edbe cabe 94be d750 afbe c707 c4be
000002c0: e37e 1dbf d19c cebd f71d 52be b9ae bebe
000002d0: b119 bfbe ef54 c3be 67a2 bcbd d70b 64bd
000002e0: 295c f7be 9b5a 99be 8b6c a6be bac1 afbe
000002f0: 2e0f a4be 6739 e2be 1e9a c9be 54fe 56be
00000300: 898d dbbe 1115 d3be 4aca 6abe 31b3 bcbe
00000310: 9776 c5be 8e71 72bc 05bc c6be 94f5 61be
00000320: a991 80be 48e7 9fbe d887 b63a c8d3 003e
00000330: 78fe 52be 7147 cdbe bfb4 cbbd 309c aabe
00000340: 0d60 a7be 4f67 2fbf 6e46 b6be d72d 4abe
00000350: cf26 15bf 07ac cbbe e9e3 60bd e9e6 05bf
00000360: b56a c5be 09a9 01bf bba9 3ebe f858 a7be
00000370: 4908 20be 7c16 5dbe a8fd c0be cc51 f0be
00000380: 71a4 e9be 2dc9 bbbe 2125 9abe 8b85 71be
00000390: 4d7f 8ebe 939b 0bbe 8889 eabe 11f4 febd
000003a0: 7bd5 b9be 3110 cabe 5d4a a3bd 19ff 0abf
000003b0: 6d5c e5be 9348 2ebe 3b6a cdbe c848 a0be
000003c0: 8814 00bf bc07 9cbe 007d ebbe ec12 1cbe
000003d0: d17a 96be 2a60 cabe 3dc0 c1bd 9ac5 ddbe
000003e0: e21d dabe ec63 c6bd 6ffb 36be efa1 c6be
000003f0: f493 e8be f440 adbe 83f8 43be b7de 08bf
-0.2922578 -0.23621897 -0.36068603 -0.47792137 -0.36161053 -0.20473316 -0.24848463 -0.49691084
-0.01601697 -0.3892184 -0.559785 -0.23760572 -0.3050669 -0.2905295 -0.37980142 -0.58460724
-0.44425327 -0.52705723 -0.43353638 -0.35615206 -0.044811808 -0.5542524 -0.5723834 -0.43769425
-0.54952765 -0.23310345 -0.4316161 -0.3408153 -0.4398895 -0.04521525 -0.17316589 -0.32790148
-0.3658872 -0.4838076 -0.3508211 -0.5968151 0.3859125 -0.108318195 -0.15430357 -0.4074066
-0.41182548 -0.26240867 -0.28479972 -0.12934683 -0.13600688 -0.46374843 -0.49350655 -0.46815288
-0.25578102 -0.14987259 -0.6283386 -0.421456 -0.37481496 -0.48106763 -0.19041629 -0.27853304
-0.3079114 -0.19205903 -0.4237056 -0.31612974 -0.309454 -0.21712102 -0.46410462 -0.762005
-0.2648962 -0.28577766 -0.33959922 -0.40976912 -0.21562763 -0.39483505 -0.44813904 -0.09795045
-0.23473825 -0.49221882 -0.4344633 -0.0015530301 -0.26289624 -0.067089446 -0.13724177 -0.43161276
-0.4294736 -0.40526426 -0.31895587 -0.32815552 -0.2912781 -0.33762977 -0.18149891 -0.59210825
-0.556723 -0.19441134 -0.47943428 -0.3939734 -0.2015949 -0.02393131 -0.35825247 -0.28803053
-0.15082008 -0.2638906 0.023380663 -0.573861 -0.21025454 -0.030916234 -0.5371044 -0.20018293
-0.42647526 -0.38171962 -0.38841587 -0.4503935 -0.25768003 -0.56463164 -0.26617828 -0.64799184
-0.1924677 -0.4724525 -0.62289417 -0.4217352 -0.36093342 -0.37380296 -0.3149297 -0.3561631
-0.38785726 -0.33914396 -0.44401568 -0.09390041 -0.016947905 -0.30881122 -0.2853728 -0.3391989
-0.66439974 0.0042719436 -0.43091148 -0.4297178 -0.09721758 -0.13597599 -0.31718495 -0.46353203
-0.5233918 -0.28512365 -0.19163139 -0.4137077 -0.33198848 0.12971306 -0.42481557 -0.28766435
-0.4248231 0.05549133 -0.2796113 -0.27119875 -0.5246399 -0.25208533 -0.36287105 -0.27424726
-0.41170424 -0.3317378 -0.26381204 -0.38425124 -0.39877832 -0.5433689 -0.12879534 -0.29393247
-0.42474654 -0.2868982 -0.23906337 -0.24285337 -0.18784499 -0.39195207 -0.5265095 -0.35953286
-0.24840043 -0.60180336 -0.45841345 -0.3404048 -0.46349958 -0.2905181 -0.34241363 -0.38287184
-0.6152174 -0.10088504 -0.20519243 -0.37242678 -0.37324288 -0.38150737 -0.09210663 -0.055675354
-0.483125 -0.2995194 -0.32504687 -0.3432749 -0.3204283 -0.4418442 -0.39375395 -0.20995456
-0.4288142 -0.4122701 -0.2292873 -0.36855462 -0.3856704 -0.014797581 -0.38815323 -0.22066337
-0.2511113 -0.3123114 0.0013925983 0.12580788 -0.20604885 -0.40093568 -0.09946584 -0.33322287
-0.32690468 -0.6851701 -0.3560061 -0.19744049 -0.5826234 -0.39779684 -0.054904852 -0.52305466
-0.38557974 -0.5064855 -0.18619435 -0.32685065 -0.1562816 -0.21590608 -0.37693524 -0.46937406
-0.4563327 -0.36676922 -0.30106452 -0.23586099 -0.27831498 -0.13633566 -0.45808053 -0.12448896
-0.36295685 -0.39465478 -0.07973168 -0.542955 -0.44797078 -0.17019872 -0.4012011 -0.31305528
-0.5003133 -0.3047465 -0.45993805 -0.15241593 -0.29390576 -0.39526492 -0.09460495 -0.4331482
-0.42600924 -0.09687027 -0.17869352 -0.3879542 -0.4542538 -0.33838618 -0.19137768 -0.53464836

model_sa.0.weight f4 [128, 260]
00000000: d514 e33d 722e 14bf 9e44 bd3e 77c6 ae3d
00000010: 71da 21be 903e 863e 611e 0dbf 9fa4 0abf
00000020: 980b 263c 2398 6f3e c185 233e 3562 1fbf
00000030: 612f 09bf 7d1d a13e d86b f4be d9ee 813e
00000040: 2d1f 693e 875e 28be bc7a 1ebd 63aa 923e
00000050: ae52 08be 45b5 9abe b191 f9be 6682 08bf
00000060: 4389 8d3c 4ea5 f93e 0e2d 9dbd 5693 dabe
00000070: df7e 17bf 0dfe 64bf 879d 0d3f 4c69 913e
00000080: 7af1 d7be 40d0 303e 5841 f13d 4b17 b13d
00000090: 5cfa ccbc 51a3 b63d fd17 07be 30fb 0f3e
000000a0: 6e76 70bc 076d 273e c6b1 65be b4ac 56bc
000000b0: d9f9 2e3e ed33 c63e 4172 673e 93e6 48bd
000000c0: cb3f eabe cc73 d43c 81e4 233e 0219 353d
000000d0: 73d9 803e cd38 97bc e164 713e 01c4 ea3c
000000e0: f00e 71bf 86e3 42bc 6346 2d3e 4d6b 29be
000000f0: 46eb bebe 5107 da3d 8053 2a3e f1e5 ed3e
00000100: 05ef 8d3d 4e84 04bf 8601 bb3e 4f55 95be
00000110: 78f0 703e 56a4 0d3f d2f6 c73d f004 ecbe
00000120: d417 5d3e 8d7e 1b3f d614 24be 2b54 773e
00000130: 7317 0e3f 596e 043d 0a88 753e b99b 72be
00000140: 6fdc 9a3d c508 243f e98b c0be c542 11bf
00000150: 3960 7f3d fb05 4bbe e5ef 2ebf 84a8 703e
00000160: 638d fb3b 2a5b c4bb 7fdf 6b3c a526 fcbe
00000170: 201c dfbe bce1 1fbd f7be bfbe 274e a2bd
00000180: 4f86 fe3e dff9 8a3e 6a0c 963b f287 123e
00000190: d7d0 ec3e ae98 4ebe 3609 863e 6d84 edbd
000001a0: 7f77 0dbe 7c9f e33e bb5b 5dbe c521 02bf
000001b0: f0f5 e8be 9fd2 6a3c e92e b43e 6642 23be
000001c0: f858 033f c8a9 2cbf 977b b03d 6ce9 a53e
000001d0: 4526 183e 9a39 7abe ce56 103f 4240 afbe
000001e0: a560 b0be 77d3 203c 1fe6 963c 8c8f 3f3e
000001f0: c8e2 30be 9cb3 9cbe 246d 34bf d890 23bf
00000200: 3e13 1abe 7a39 86be fe48 103e b7e8 913e
00000210: 8c61 f9be 8f43 a5bd d4ed 31be 29b4 adbd
00000220: 9b31 3fbf 688b 5cbf 861d a7bd 8c71 05bf
00000230: 3e2c 0e3e 219c d43e d286 ba3c 4c65 0abf
00000240: 8691 febd 79be cfbd 6a6e eebe f946 843e
00000250: a25d 02bd ffbb cb3d efee 22be a944 debe
00000260: 5b88 003f b053 283e e4a3 3cbf 9b1a cabe
00000270: 1949 d1be f26b bfbe 945d c5be 4b25 20be
00000280: a009 8e3d 1fe8 7abe 3b1b b1be 168a f23e
00000290: 2bfa b93c 0b1a 37be 0cde 853e 0626 29bd
000002a0: 2d61 bf3e 7c69 1d3e 8658 9e3e c14f 303e
000002b0: cc81 cf3c cc6f 663e e593 923e 26b2 fb3e
000002c0: 33ff 7cbe dd82 91bd 91c3 08bf 1b01 15be
000002d0: 61f2 c63d 78c8 db3e cb06 e13d 328c 54bf
000002e0: f1b2 073e c026 7a3d f7d1 3cbe c1a3 d2be
000002f0: cff7 82bf ecec 63be 9a33 a9be 344c 2fbf
00000300: 96e4 49bd 0ea4 753e e0b0 dfbe e9cf 49be
00000310: 56a1 023d cc43 f1bc 6ead 143e 0f79 8f3d
00000320: fffe dcbe 0fce 493d bac0 3dbf 23c2 50bf
00000330: 0f86 c9be 9169 a23e c467 67bf cc4f 3b3d
00000340: 11f5 5abe ebc0 723e 8bce d9bd 8a56 6cbd
00000350: 901f cdbe bdd7 2f3e 4a13 bf3e a399 0dbf
00000360: a22c 9dbd abad a63e e9d8 903d adc2 6ebf
00000370: ef2c 8dbe d232 bcbe c09c 86bd 8c63 c33e
00000380: 30b8 e9be 95c6 09be 8799 cf3d 6097 ff3d
00000390: ed01 73be 765d 83be f2c0 993e a96f e2bc
000003a0: 929c 0bbf bea6 1e3e 1587 38bf a03b be3d
000003b0: 23dc 8ebc 1cee 59be dbef 2abf ce94 79bd
000003c0: a191 80be add8 1b3f 5d02 c43e 0ee4 05bf
000003d0: 029c 9e3e 9b6d d73d 71ef f23d 456e c83d
000003e0: 48ce f5be 038f f8bb 1b3e 2b3e 9722 9c3e
000003f0: 594e 383e a404 29be c019 06be d203 863e
0.11087958 -0.5788337 0.36966413 0.08533948 -0.15805985 0.26219606 -0.5512448 -0.5415744
0.0101346 0.2339788 0.15968992 -0.6225923 -0.5358792 0.3146781 -0.47738528 0.2537754
0.22765799 -0.1644231 -0.038691267 0.2864562 -0.1331279 -0.30216423 -0.48743966 -0.5332397
0.017277366 0.4875893 -0.07674609 -0.42690533 -0.59177965 -0.8945015 0.5531849 0.28400648
-0.4217642 0.17266941 0.117800415 0.08647021 -0.025021724 0.08917869 -0.13192745 0.14060664
-0.014676673 0.16350184 -0.22431096 -0.013102699 0.17087497 0.3871149 0.22602178 -0.049048018
-0.45751795 0.025934123 0.16005136 0.044213302 0.251659 -0.018459702 0.23573638 0.028657915
-0.9416342 -0.011895066 0.16921382 -0.16544838 -0.37288874 0.10645927 0.16633415 0.46464494
0.06930355 -0.5176438 0.365246 -0.29166648 0.23529232 0.5532888 0.09763874 -0.46097517
0.21591121 0.60739976 -0.16023573 0.24153201 0.5550453 0.0323318 0.23977676 -0.23692216
0.075615756 0.6407588 -0.37606743 -0.5674251 0.062347624 -0.198265 -0.683348 0.23501784
0.0076767667 -0.005992313 0.014396547 -0.49248233 -0.43576145 -0.039033636 -0.37450382 -0.079250626
0.49711844 0.27143762 0.0045791166 0.14309672 0.46253082 -0.2017543 0.26178902 -0.11597524
-0.13815115 0.44457614 -0.21617024 -0.5083278 -0.45500135 0.014332443 0.3519204 -0.15943298
0.5130763 -0.67446566 0.08617323 0.3240465 0.14858349 -0.24436036 0.56382453 -0.34228712
-0.34448734 0.009816042 0.018420277 0.18707103 -0.1727401 -0.3060578 -0.70479035 -0.6389289
-0.15046403 -0.26215726 0.14090344 0.2849786 -0.48707235 -0.080695264 -0.1737588 -0.084816284
-0.74685067 -0.8615022 -0.08159928 -0.52126384 0.13884065 0.41525367 0.022769365 -0.54060817
-0.124301 -0.10143752 -0.46568614 0.25835398 -0.031827576 0.09947967 -0.15911458 -0.4341176
0.5020806 0.16438174 -0.7368758 -0.39473423 -0.40876082 -0.37387043 -0.38547957 -0.15639226
0.069354296 -0.2450261 -0.34591088 0.47370976 0.022702297 -0.17881028 0.2614597 -0.041296028
0.37378827 0.1537227 0.30926913 0.17217924 0.025330447 0.22503585 0.2862846 0.49159354
-0.24706726 -0.07105038 -0.5342341 -0.14551203 0.09714199 0.42926383 0.10987624 -0.8302642
0.13251854 0.06107211 -0.1843947 -0.4114056 -1.0231875 -0.22258347 -0.3304718 -0.6847565
-0.049290262 0.23988363 -0.43689632 -0.19708218 0.031892143 -0.029451273 0.14519283 0.07005512
-0.43163297 0.04926878 -0.741222 -0.8154623 -0.3936009 0.31721166 -0.9039271 0.045730397
-0.21382548 0.23706405 -0.10635098 -0.057699718 -0.40063143 0.17172141 0.37319404 -0.55312556
-0.07674529 0.32554373 0.07072622 -0.932658 -0.27573344 -0.36757523 -0.065728664 0.38161886
-0.45648336 -0.1345466 0.10136705 0.12480044 -0.23731203 -0.25657243 0.30030018 -0.027641134
-0.5453578 0.15493295 -0.7208112 0.09288716 -0.017438954 -0.21282238 -0.6677224 -0.060932927
-0.25111106 0.60877496 0.38283053 -0.5230111 0.309784 0.105189525 0.11862076 0.09786657
-0.48008943 -0.0075854077 0.1672291 0.3049514 0.17998637 -0.16505677 -0.1309576 0.2617479

model_sa.0.bias f4 [128]
00000000: 2ef8 de3e d142 b4be f657 24bf 3cb8 14bf
00000010: c201 173e b2cf 853e b66f 1a3f 49d6 60bf
00000020: a6e4 3cbf 823d 073f a1a2 5f3f c5e0 c5bd
00000030: ba81 023f 1798 1abf 51e7 10bf 5408 a4be
00000040: ff42 fdbe 4d7d 02bf a566 013f 4238 60be
00000050: 626b acbd 876c 87be 8d0d 773d 1e7e 95be
00000060: 7ba5 19bf 78d8 b1be 7382 333f 2d63 4fbf
00000070: 1ebe 07bf 3b90 523e 11a2 283f 41f3 09bf
00000080: 8262 adbe 54df 46be bdf3 3d3f ec1d 8fbe
00000090: 22ae 2fbf e55f 8a3e cb74 a4be c599 3ebf
000000a0: 99f9 273f b8bf a03e 886b b5be 1913 473f
000000b0: 9041 2abf d5c0 f83b 5b96 d93e 0abc 17bf
000000c0: 15fd 2dbf a4ef 49be 7ca4 813e 724c 10bf
000000d0: 55aa 76be e1ec cfbe 2ea2 f1be 1647 713f
000000e0: 191a d33e 983e 633e 7732 17bf cd23 3bbe
000000f0: 5384 e13e 2a70 253f 336a 493f f1bb e03e
00000100: fcc9 693f c278 c13d ae1a 283f f3c7 303f
00000110: 20f1 94bd 38bb 4dbf 42a1 46bf d047 e6bc
00000120: dfd8 50be 7163 62be c57a 46bf 9e0a 823f
00000130: b691 24bd 1969 fcbe b961 d4be a729 2fbf
00000140: 309d dd3c eb9a d6bd bbd6 86be 8d4d fcbe
00000150: 35b1 203f a219 1cbf 80fd 5c3f e87f 12bf
00000160: d0b6 3e3f fa24 33bf 40f9 b43e 057a 80be
00000170: 2704 e83e 51a6 98bb f789 dfbe 0069 7bbe
00000180: 3415 793e e6e2 18bf 84bc 093e 4da1 6cbe
00000190: b079 cb3e d0d8 8fbe a106 35bf b40d 273e
000001a0: 51ed 2dbf 8b5e 0ebf ae93 f33e 5340 843e
000001b0: 35ba f53e 195a e13d b05b 5c3f 8863 6a3e
000001c0: 0211 453f 666b 0abf a5c7 363f 0b45 3fbf
000001d0: 7004 3f3f 4011 24bf 399c debe 1fd2 01be
000001e0: f2ad 38be 3662 b4be d727 083f 1c25 39bf
000001f0: 3ca2 59bf 652f a43e 9fb5 59bf e0b6 2e3f
0.4354872 -0.35207227 -0.6419672 -0.5809362 0.14746764 0.2613502 0.6032671 -0.87826973
-0.7378639 0.5282823 0.87357527 -0.09662012 0.509792 -0.6038832 -0.5660296 -0.32037604
-0.49465176 -0.50972444 0.5054725 -0.2189646 -0.08418919 -0.26449987 0.060315657 -0.29197782
-0.6001813 -0.34735465 0.70120925 -0.81010705 -0.5302447 0.20562832 0.65872294 -0.538868
-0.33864218 -0.1942113 0.7420004 -0.27952516 -0.6862508 0.27026287 -0.32120356 -0.74453384
0.6561523 0.3139627 -0.35433602 0.77763516 -0.6650629 0.0075913467 0.42497525 -0.592713
-0.679643 -0.19720322 0.25320804 -0.56366646 -0.24088414 -0.40610412 -0.47194046 0.94249094
0.41230848 0.22191846 -0.5906138 -0.18275376 0.44046268 0.64624274 0.7867767 0.43893388
0.9132383 0.09446861 0.6566571 0.690551 -0.072725534 -0.803638 -0.7758981 -0.028110415
-0.2039523 -0.22108246 -0.7753108 1.015949 -0.040178023 -0.49298933 -0.41480806 -0.6842293
0.027052492 -0.10478767 -0.263357 -0.49277917 0.62770396 -0.6097661 0.8632431 -0.5722642
0.744977 -0.69978297 0.35346413 -0.25093094 0.45315668 -0.0046584983 -0.43659946 -0.24551773
0.24324495 -0.5972122 0.13450819 -0.23108406 0.39741278 -0.28095102 -0.7071324 0.16313821
-0.6794024 -0.5561301 0.47573608 0.25830325 0.47993627 0.11003513 0.86077404 0.2288953
0.76979077 -0.54070127 0.71398383 -0.74714726 0.74616146 -0.6408882 -0.43478563 -0.12677811
-0.18035105 -0.3523118 0.5318579 -0.7232225 -0.85013175 0.3206741 -0.85042757 0.68247795

model_sa.2.weight f4 [64, 128]
00000000: c12f 82be 42fc 013f 7385 8b3e 2121 183d
00000010: 5692 08bf acd1 b4be 0709 5c3b 5c47 fdbc
00000020: e112 35bd 023d d4bc 0b63 0ebf 86fe 24bd
00000030: a54d 86be 9791 cdbe da19 acbd cfe4 52be
00000040: fda7 06bf a04a 1fbe 2efc e9bb a4c7 373e
00000050: b8b1 3dbd c6e3 af3e 465d c73d 3b74 5e3d
00000060: 04a3 eabe a7d4 1bbf 521a 7cbd ed7f dc3e
00000070: 8197 0bbf d86a 1ebc a0c2 39be 1491 9b3c
00000080: 63b5 7abe fd93 14bf 05af 62be 0db7 203e
00000090: 0ec4 8ebd d518 3fbe 1266 0ebf 6d65 73bd
000000a0: 4dba 2cbf 186d 3ebe f8ea 31be 67fc 84bd
000000b0: 2196 a2be 705b 89bd fae0 1fbe 60cb c9bd
000000c0: 9806 7dbd 78d8 9e3e 4396 8ebe a0c9 903e
000000d0: 642a dc3d d092 3d3c 3974 4a3e df9d e43c
000000e0: 906a a6be 350a 25bf 59ce 99bd 9a28 233f
000000f0: 492d c5be a162 5b3e 2762 583e 7642 96bd
00000100: ed82 8dbc f55d 583d 3b37 2dbd 019c 64be
00000110: 5ea1 253d bb10 7cbd 3a70 933e 80ea e2be
00000120: 60f9 f6bc 5331 15be 9f28 91be c04d 81be
00000130: 1ff9 15be 2f0e 44bf 3cbf 9fbe 61e9 f0be
00000140: 42f3 c1be eee5 adbd 54cd 27be a7e7 18bd
00000150: 24bd b93d f7d4 22bf 049e 72be 2d83 12be
00000160: ac5d 3cbe 8f8f d3bc abf0 e2be 5769 26be
00000170: 3fe1 3dbf 8b62 6abe 7136 aabe 1705 f7be
00000180: e625 81be 7605 273e dafe a5be 0e83 9cbb
00000190: e6a4 3f3e 7830 32bf 71ae f8be 782f b7bd
000001a0: acbc 05be b5d5 743e 0c78 d2be b235 98bd
000001b0: 8862 a6be d69d 46be 4e90 c53d e1c1 fb3d
000001c0: 4342 b0bd 6c70 e23e 68cb 84bc 53ff d4be
000001d0: 88f2 a9be bb4d e23b 8eee 9b3d 0bed 2dbe
000001e0: 609e 9cbe 813f 13be c6a5 7c3e be94 adbd
000001f0: 591e d1be 473e 97be 6060 c7be 7067 61be
00000200: cac5 3bbf be52 683e 675f 3fbe 8be8 853e
00000210: b4d7 833d 0261 413e 4581 af3e 9669 d83d
00000220: 6330 1fbd 28d8 ce3e 289b 29bf 74eb 213b
00000230: a603 9b3e 8db6 ddba b0a2 3bbf 22e5 a23e
00000240: 621b e63d faa2 46be 7679 8cbd 974a d83d
00000250: ae65 2dbd 28f2 923e 600e 613d 66a9 c5bd
00000260: 2ec4 a8be ddb5 833e 975c cebe 552e 1abf
00000270: 6374 03bf da94 8d3e 4be4 84be 2387 8b3d
00000280: 307d cbbe 3250 80bd 0913 903e 3a61 8f3e
00000290: a24f 923d e3c0 683e b7a7 d2be 4a71 d1be
000002a0: 7893 0e3f 10a3 2e3e 7cfc e2be 5eb4 5ebe
000002b0: 2f55 483e df85 a4be 2c49 44be c4d9 44bf
000002c0: b77b f5be 71f3 5d3d cd1b 14be c4a1 93bd
000002d0: 6287 c2be de84 263b d0b9 783d aeed 1cbf
000002e0: 732a 9c3e dfba 5c3c aa9e 3c3e 5e3d 87bd
000002f0: 78a8 2dbd a310 d2be e9de 39bf f2b2 ba3e
00000300: a57b 88be 4728 0cbe a806 723e 2f7a c33e
00000310: b7c2 293e 5551 67bd 7d25 ec3e 61e2 6d3d
00000320: 00d4 f6bd a3ce 4cbf 5a22 d0bc b7b0 0a3b
00000330: 885e babd 57a3 2ebf 2b8c e33d f001 acbd
00000340: 9f6d 8f3e 3c98 8bbe 15c2 373d d689 753e
00000350: fa75 efbe 012e dfbe 7fed 0a3f 8211 813e
00000360: f04d 92be 0d70 853b 8410 b83e ef40 a4be
00000370: 0045 43be 69c5 693e 12a7 8c3d d7c7 223d
00000380: e283 d3be 708e 8bbe 71e0 b4be 0eee 1abe
00000390: 8d89 7bbe 2c61 a83d 9743 cb3e f136 5e3e
000003a0: 80cb b9be e3d4 ee3e ab95 4c3e 1f08 89be
000003b0: b8c9 763e 1957 8a3e 81eb 5e3e e22f 8ebe
000003c0: 464d 6abe 45bc 5fbe 5954 09be 4fcb e2bc
000003d0: 55ca 563d cfb5 cebe 25ad f33e 0e0a 153e
000003e0: 4011 943c d853 95be a225 42bd a09d 963e
000003f0: 1ca9 d5bd 9840 a7be 094c 04bf f833 c93d
-0.25427058 0.5077554 0.2725025 0.03714097 -0.5334829 -0.35316217 0.0033574717 -0.030917816
-0.044207457 -0.025907997 -0.5561988 -0.040281795 -0.26231113 -0.4015014 -0.08403368 -0.20595096
-0.5260008 -0.15555811 -0.007140658 0.1794725 -0.046312064 0.34353465 0.09734587 0.054310065
-0.45827496 -0.60871357 -0.06154854 0.4306635 -0.5452805 -0.009669028 -0.1814065 0.018990077
-0.24483256 -0.5803831 -0.22137077 0.15694828 -0.06970988 -0.18661816 -0.55624497 -0.0594229
-0.6747177 -0.18596303 -0.1737479 -0.064934544 -0.31755164 -0.067068934 -0.15613165 -0.09853244
-0.061773866 0.31024528 -0.27849016 0.28278828 0.10750273 0.011570647 0.19770898 0.02790731
-0.32503176 -0.644687 -0.07510061 0.6373383 -0.38511112 0.21424343 0.21131192 -0.07336895
-0.017274344 0.05282398 -0.042289 -0.22325136 0.040437095 -0.061539393 0.2879656 -0.44319534
-0.030148208 -0.14569597 -0.28351304 -0.2525463 -0.14645813 -0.7658414 -0.31200588 -0.47053054
-0.37880903 -0.08491121 -0.1638692 -0.037330296 0.09069279 -0.6360621 -0.2369309 -0.14307852
-0.18395108 -0.02582529 -0.4432424 -0.16251121 -0.74171823 -0.22889154 -0.3324466 -0.4824607
-0.25224227 0.16310677 -0.32421 -0.004776365 0.18715248 -0.6960521 -0.48570588 -0.08944601
-0.13060254 0.23909648 -0.41107213 -0.074321166 -0.32497048 -0.19396147 0.096466646 0.12292839
-0.086063884 0.44226396 -0.016210273 -0.41601047 -0.3319285 0.006906239 0.0761386 -0.16984956
-0.3058958 -0.14379694 0.24672613 -0.08475636 -0.40843466 -0.295397 -0.38940716 -0.22012115
-0.7334868 0.22687814 -0.18688737 0.2615398 0.064376265 0.18884662 0.34278312 0.10567014
-0.038864505 0.4039929 -0.66252375 0.0024706991 0.3027622 -0.0016915366 -0.73295116 0.3181544
0.112356916 -0.19398108 -0.06859104 0.10561102 -0.042333297 0.28700376 0.05494535 -0.09651451
-0.32962173 0.25724688 -0.40305015 -0.6022695 -0.5134947 0.27652627 -0.25955424 0.06812885
-0.39743948 -0.06265296 0.28139523 0.28003865 0.07144095 0.2272983 -0.4114358 -0.40906745
0.5569377 0.17054391 -0.44333255 -0.21748492 0.19563745 -0.32133386 -0.19168538 -0.76894784
-0.4794595 0.054187242 -0.1446373 -0.07208589 -0.37993914 0.0025408785 0.06072408 -0.6130017
0.30501136 0.013472288 0.184199 -0.06603502 -0.042396992 -0.41028318 -0.7260576 0.3646465
-0.26656833 -0.1368724 0.23635352 0.38179156 0.16578184 -0.05647405 0.4612235 0.05807722
-0.120521545 -0.800028 -0.025407005 0.002116246 -0.09100062 -0.68217987 0.11110719 -0.08398807
0.28013322 -0.27264583 0.044862825 0.23978361 -0.46769696 -0.43589786 0.5426864 0.2520867
-0.28575087 0.0040721954 0.359501 -0.3208079 -0.1906929 0.22829212 0.06867804 0.039741363
-0.41311556 -0.2725711 -0.35327485 -0.15129873 -0.2456419 0.08221659 0.39700004 0.21700646
-0.3628807 0.46646795 0.19978969 -0.26764008 0.24100387 0.27019575 0.21769525 -0.27770907
-0.2288104 -0.21849163 -0.13411082 -0.027684836 0.052439053 -0.40373084 0.47593036 0.14554617
0.018074632 -0.2916553 -0.04739917 0.29417133 -0.10432646 -0.3266647 -0.5167852 0.098243654

model_sa.2.bias f4 [64]
00000000: f063 debe ced1 edbe 19fd df3e 0c75 5a3f
00000010: 5005 80be af25 96be 3226 c53d adff 793f
00000020: acea a73e c458 c4be 352f 22bf b435 b8bc
00000030: 6e13 543f a32f 06bf 5c20 0a3f a14f 263d
00000040: b351 c5be 5f03 0ebf af91 a03d ea19 3c3f
00000050: 445c 0cbf 33ba 3fbf 5727 e6bc fab7 af3f
00000060: 0368 acbf ded3 82be fcd8 a1bd 8051 38bf
00000070: f8a5 a6be cf02 0dbf fe31 4d3f 9008 81bf
00000080: a505 19bf 44b3 c73f b71d 19bf de58 543c
00000090: 9a1c 523f 0b7d a63f e615 98bd c795 9c3f
000000a0: 13df 27bf f858 7e3e e9f9 3a3f 39ca 32bf
000000b0: 37c2 943f 4789 7a3f 5d51 ad3f 2830 d13f
000000c0: 9d20 233d f8a7 673f cf59 02bf 2ae4 843f
000000d0: ae43 0d3f a3d2 e5bd 635e a53f d20e 1d3e
000000e0: 70e5 7f3f 9f1a 69bf 4cec 663c c0ad 863f
000000f0: aed8 6dbf bf44 84bf 7085 b73f 32bb a03f
-0.4343562 -0.4644913 0.43747786 0.8533485 -0.25004053 -0.29325625 0.09626426 0.97655755
0.32796228 -0.38348973 -0.6335328 -0.022486545 0.8284215 -0.5241644 0.53955626 0.040603284
-0.38538894 -0.55473894 0.07840287 0.7347704 -0.54828286 -0.7489349 -0.02809493 1.372802
-1.3469242 -0.25552267 -0.079027146 -0.7199936 -0.325485 -0.5508241 0.8015441 -1.0080738
-0.5977424 1.5601583 -0.59810966 0.012960641 0.8207489 1.300691 -0.07426052 1.2233208
-0.6557476 0.24838626 0.7303758 -0.6983982 1.162177 0.9786572 1.3540455 1.6342821
0.039826024 0.90490675 -0.5091829 1.038213 0.55181396 -0.112218164 1.291943 0.15337685
0.9995947 -0.91056246 0.0140944235 1.0521774 -0.9290875 -1.033348 1.4337597 1.2557127

model_sa.4.weight f4 [32, 64]
00000000: 4510 04be 4773 8fbe d8f4 3b3c 1a2c 5e3e
00000010: 3b66 5abe 16c7 3dbf aed1 3d3d 406b ce3d
00000020: 59d0 c3bd fae5 17be 674c c8be b802 c9be
00000030: 5dd6 87be 0bed 5cbd 1674 97be a055 fbbe
00000040: a858 b43d bc72 a3be 2a30 ecbd cd35 94be
00000050: aceb a7be 419f 95be 6e6a 1cbf a246 a6be
00000060: 363f f8bd c4e2 c13d 168b 203e 54d4 25bf
00000070: 0178 393d 262e 17bd e8ce 9fbe 6b0b 50ba
00000080: fca5 03bf fae6 8c3e db3e 863e e738 b0be
00000090: 4216 313d f4fa dfbc 1459 8abe 4ea7 2dbe
000000a0: 245f e9bd 12cf 1dbe 9482 ccbe 35a8 ef3d
000000b0: 4012 2fbe 9bf8 24bf 6e9d 7a3e e2ac 0abe
000000c0: 5ce6 103e b1bf b33e 6d60 8bbe e713 cd3e
000000d0: 4140 e9bd 83e0 b7bc ff94 5fbd a9b6 59bf
000000e0: 5512 d33e d4c4 cfbe 2e9e 18be a91d 273e
000000f0: 86ea 6cbe a3e6 d03e 1b33 dabd 80e8 2ebe
00000100: bdc0 07bf e2fb 923e c854 2d3d 4802 023e
00000110: 5a37 013e 4496 afbc 0cfd cfbe 548a 0d3e
00000120: a495 44be 548d 6ebe 67e9 cbbe cdf1 f7be
00000130: 49e7 b1bd 4c21 71be 255f db3d 6bfc 79be
00000140: e2b9 60be ce6f 25be 459f 22be b670 cd3e
00000150: c7b8 febb ff0f 3a3e 447c 35bd 7b4d 3b3e
00000160: 6f39 46be 8a13 39be f5b4 0b3e 3a39 d9be
00000170: 3299 00bf 63d2 c83d 7491 92be 376b 8cbd
00000180: 6cec f23d 2187 42be 4f02 f03d 2b71 8cbe
00000190: 5009 cdbd 34b7 dabe f506 82be 1972 75be
000001a0: 02ce edbd 44e7 073e 501e 5bbf 02d4 edbd
000001b0: 359a 153e 628b b4be 7199 e83d ffd6 93be
000001c0: a84d 223e 9a0e d43c 6f97 83be a8aa 863e
000001d0: 8d19 e33c 5c43 79be 0707 a93d b519 6cbe
000001e0: d929 8e3e 7dbd f5be 6028 13be c82b 8abc
000001f0: 0c3e 68be 1b41 cc3d 9678 9b3d 13bf d7bd
00000200: 7d85 8cbc 4974 59be b6fa 953d ebd3 ef3d
00000210: e6bc 2bbd de68 fdbe 396d 833d ea5d 923d
00000220: 6a47 903e f787 8b3d 2952 d5be 91d0 d4bc
00000230: 8f3a 883e 50a8 2abe eaba 2e3e 8ff1 95be
00000240: 6beb f0bd c640 6dbe 5a77 54bd 3080 933e
00000250: 44ff 3f3e 0479 0dbd a8e0 75bb bd49 f53c
00000260: 57c8 84be 0a15 b63d 34c3 863e 6147 05be
00000270: ddf7 cebd cdd4 b7bd c48f 7a3d 7d27 eebe
00000280: 9081 8cbd 948c 853e dbb8 cbbe 771c cebe
00000290: 9ea3 10be e8f1 d93e b081 29be a027 343e
000002a0: 3aaf e8bd a15d e4bd 8c37 57be b277 bdbe
000002b0: fed8 f7bd ff57 f13c fed7 ddbd 61ef b03d
000002c0: faeb c43d 44ae 18bd 787d 22be 533c 453e
000002d0: 31b9 c73e 2f00 a6be 8c10 8b3c 7c61 ae3e
000002e0: 1f19 f03a 1402 13bf 603b 193e e6f8 0d3e
000002f0: 4087 31be 8ebc 84be 2b81 2d3d 4670 883e
00000300: 0da7 a53c 7b28 a7be 4d5e 8b3c 9112 ccbd
00000310: 9c86 ce3d cb5f 653e 704d 393e a66b 993d
00000320: 5bf2 143d 8064 4d3e 345e 5bbe 9726 babe
00000330: af59 d93c a139 34bd 63c6 30be bb41 e2bd
00000340: f0ba 32be 85e7 16bc 9796 903d 731e b0bd
00000350: a6aa 793e 1bda 1ebe e45b 7b3e beb1 17bf
00000360: 2dc3 1dbd a36a 12bc 5538 58be f479 8ebc
00000370: f060 f5bd b00f 1d3d 5167 9abd de7b c33d
00000380: c1e5 32bd 09af a2bd ab53 38be d700 b0be
00000390: 2955 8bbe 2d38 4bbe 4f86 7c3c e654 0abd
000003a0: 546a 17be 915f 00be 530b 51bd ba66 bb3d
000003b0: 79d1 88be 405a b1be 38de 10bf 0344 6c3d
000003c0: b017 163a 754e 51be b73d 6abe b8aa 93be
000003d0: d6f9 c4bd 06c1 93be 48ba a1be bf11 253e
000003e0: 2d05 86be 9202 17be 2d89 48be fcf8 743c
000003f0: 8909 aabe 998e 9ebd cd5a adbe 52d1 79be
-0.12896831 -0.28017637 0.0114719495 0.21696511 -0.2132806 -0.74131906 0.046342544 0.1007905
-0.095612235 -0.14833823 -0.3912079 -0.39259887 -0.26530734 -0.053937 -0.29580754 -0.49088764
0.08805972 -0.31923473 -0.11532624 -0.28947297 -0.3279699 -0.29223064 -0.610999 -0.32475764
-0.121214315 0.0946708 0.15678057 -0.6477711 0.04528046 -0.036909245 -0.31212544 -0.0007936272
-0.5142515 0.2751997 0.2621983 -0.34418413 0.043234117 -0.027341343 -0.27021086 -0.16958353
-0.113951 -0.15411022 -0.39943373 0.11702005 -0.17096806 -0.6444184 0.24474117 -0.13542512
0.14150375 0.35107186 -0.27222005 0.40054247 -0.113892086 -0.022445923 -0.054585453 -0.8504434
0.41224924 -0.40579855 -0.14904091 0.16319908 -0.23136339 0.40800962 -0.10654279 -0.17080879
-0.5302847 0.28707796 0.04231718 0.12696183 0.12618771 -0.021433957 -0.40622747 0.13822299
-0.19197708 -0.232961 -0.3982651 -0.48426667 -0.08686692 -0.23547858 0.10711507 -0.24412696
-0.21945909 -0.16155931 -0.15881069 0.40125054 -0.007773492 0.18170165 -0.044307962 0.18291275
-0.19357847 -0.1807386 0.13643248 -0.42426473 -0.5023376 0.09805753 -0.28626597 -0.06856387
0.118615 -0.1899686 0.1171919 -0.2743009 -0.10011542 -0.42717898 -0.25395933 -0.23969306
-0.116115585 0.13271815 -0.8559313 -0.11612703 0.14609607 -0.3526259 0.113573916 -0.28874967
0.15849936 0.025885869 -0.25701472 0.26302075 0.027722144 -0.24342102 0.082532935 -0.23056681
0.27766302 -0.4799613 -0.1437087 -0.01686658 -0.22679919 0.099733554 0.07591359 -0.105344914
-0.017153496 -0.21235766 0.0732321 0.11710342 -0.041928194 -0.4949407 0.06417317 0.07146819
0.28179485 0.068130426 -0.41664246 -0.025978358 0.26607177 -0.16665769 0.1706349 -0.29285857
-0.117636524 -0.2316924 -0.051871635 0.28808737 0.1874972 -0.034539238 -0.0037517939 0.029942388
-0.25934097 0.08890732 0.26320803 -0.1301551 -0.1010587 -0.089761354 0.06117226 -0.46514502
-0.068606496 0.26083815 -0.3978947 -0.40256092 -0.14124915 0.42567372 -0.16553378 0.1759324
-0.11361547 -0.11150671 -0.21017283 -0.37005383 -0.12101935 0.029460905 -0.10832213 0.08639408
0.096153215 -0.037275568 -0.15868175 0.19261293 0.39008477 -0.32422015 0.016975664 0.3405875
0.0018318034 -0.57425046 0.14964056 0.13864478 -0.1733675 -0.25925106 0.042359512 0.26648158
0.020221258 -0.32648072 0.01701274 -0.09964479 0.100842685 0.22399823 0.18095946 0.074912354
0.03636394 0.20057869 -0.21422654 -0.36357567 0.026532022 -0.04400027 -0.17263179 -0.11047693
-0.17454123 -0.009210472 0.07059973 -0.08599558 0.24381503 -0.15512888 0.24546772 -0.5925559
-0.038516212 -0.008936557 -0.21115239 -0.017392136 -0.1198138 0.03834504 -0.07539237 0.0954511
-0.04367614 -0.079435416 -0.18000667 -0.3437564 -0.2721341 -0.19845648 0.015412881 -0.03377237
-0.14786655 -0.12536456 -0.05103619 0.09150453 -0.26722315 -0.34639168 -0.5658908 0.05768205
0.00057255756 -0.20440085 -0.22875105 -0.28841186 -0.09617965 -0.28858203 -0.31587434 0.16120051
-0.26175824 -0.14747074 -0.19583578 0.014951941 -0.332104 -0.07742042 -0.33858338 -0.24396256

model_sa.4.bias f4 [32]
00000000: 0f0f fcbe ea89 16bf f4a7 5f3f f2a9 f5bc
00000010: 3855 983e 2185 8c3f 2226 ca3e 495f 42be
00000020: 1e64 8dbe f7e3 9abf 03bc 5e3e 79d9 06bf
00000030: 2074 d6be f4fc 863c 3a1a 64be f6cf b53e
00000040: 9282 4dbe 4535 893f 09d5 8dbe 3629 90bd
00000050: 56de bfbe b884 0d3f 5958 a83f 52f7 1abe
00000060: dce6 97be 206e 07bf 5682 c3be b737 363f
00000070: a110 9dbe 78f3 06bf be22 82be 7dad 75be
-0.4923024 -0.5880419 0.8736565 -0.029988263 0.29752517 1.0978128 0.39482218 -0.18981661
-0.27615446 -1.2100819 0.21751408 -0.52675587 -0.4188547 0.01647804 -0.2227563 0.35510224
-0.2006934 1.0719382 -0.27701595 -0.0703911 -0.37474316 0.5528064 1.3151962 -0.15133408
-0.2966832 -0.5290241 -0.38185376 0.71178764 -0.3067675 -0.52715254 -0.2541713 -0.23991962

model_sa.6.weight f4 [1, 32]
00000000: 7df3 83bc d362 ddbc babb 1e3d 3c0a 39bc
00000010: f9ff 07bb 4bf3 823c b626 7e3b 2c70 a13c
00000020: 4aa3 3b3b 9dd3 0340 b35e b13d 71c7 353e
00000030: 0fc7 f13d d79f 4bbc 58a7 05be db33 703c
00000040: 78af c4bd 0411 063d 1e32 1ebd 9b07 0b3d
00000050: d83f e3bc 871a 233d 80c2 283e 2eeb f83c
00000060: e0ac 83bc 5e6b 23bc a3f3 6e3c 1a8b c03c
00000070: 34f9 debd bd52 e13a 6067 0fbe 940d 0f3e
-0.016107315 -0.027024662 0.03875325 -0.011293944 -0.0020751937 0.015985152 0.0038780398 0.019706808
0.0028631263 2.0597908 0.086606406 0.17751862 0.118055455 -0.0124282455 -0.13052118 0.014660801
-0.096037805 0.03273107 -0.038622014 0.0339428 -0.027740404 0.03982022 0.16480446 0.03038558
-0.016073644 -0.009974329 0.014584455 0.023503829 -0.108873755 0.0017190796 -0.14004278 0.13970023
