models/4/actor_n131.pt (torch, 226876 bytes, 30 tensors)

model.0.weight f4 [33]
000000 f2 6c 8d 3f a4 22 2d 3f f0 86 8e 3f 91 d7 86 3d
       1.1048872 0.6763098 1.113493 0.06584085
000010 f3 fb bc 3c 0c 7c 69 3d 5d 3b 89 bc fa e1 c2 3d
       0.023069357 0.057003066 -0.01675194 0.09515758
000020 49 e4 59 3d 00 e3 87 bd 99 59 d8 3e 04 c6 d3 3e
       0.053196225 -0.06635094 0.42255858 0.4136201
000030 dd 72 eb 3e c7 66 d8 3f d7 6f 88 3f cc 82 e4 3f
       0.4598607 1.6906365 1.0659131 1.7852416
000040 ab a4 58 3d cd f9 79 3d b1 84 eb 3c b2 07 43 3d
       0.052891415 0.061029244 0.028749796 0.04761476
000050 da c9 a7 3e 68 90 d0 3e 44 84 56 3e c3 83 63 3f
       0.32771188 0.40735173 0.20948893 0.8887293
000060 3e e1 41 3f d1 3b 64 3f f7 e3 e7 3f 00 00 80 3f
       0.7573432 0.8915377 1.8116444 1.0
000070 60 e8 fc 3f 00 00 80 3f 00 00 80 3f 00 00 80 3f
       1.9758415 1.0 1.0 1.0
000080 ac c8 b5 3f
       1.4201865

model.0.bias f4 [33]
000000 35 9b ca bd 9f a0 9c be 25 09 1a 3c 9b f9 97 3d
       -0.09892885 -0.30591294 0.009401594 0.07420655
000010 95 b5 84 bc 67 79 79 3d 16 02 cd bd 52 21 78 bd
       -0.016199866 0.060906794 -0.100101635 -0.06057865
000020 1f f3 b6 3c 5c 98 79 bd 68 ef a2 bd e6 49 62 bd
       0.022332726 -0.060936317 -0.07955819 -0.055246256
000030 ad 49 46 3c 4f 2b a4 bd be 35 b5 be 50 10 86 bd
       0.012102527 -0.08016073 -0.35392565 -0.0654608
000040 46 3e 79 bc 23 8f 0f 3e bf ea 7b 3c 63 f2 83 bc
       -0.015212601 0.14019446 0.015375792 -0.01610679
000050 59 97 f2 3c 99 30 aa bd c7 a0 f7 bd 9e 64 46 bc
       0.029613184 -0.083100505 -0.12091213 -0.01210895
000060 c9 9b 25 be 60 e5 b4 bc 06 01 26 be 96 d5 26 be
       -0.16172709 -0.02208203 -0.16211328 -0.16292414
000070 c7 3f a7 bd 0a 4f 75 3e 37 7b 8e 3e d6 56 c9 bd
       -0.081664614 0.23955932 0.2782838 -0.09831016
000080 d6 59 ae 3d
       0.085132286

model.0.running_mean f4 [33]
000000 46 91 8f 3e 61 af 2c c0 e7 75 50 3f de 4d 2d 3f
       0.28040522 -2.6982043 0.81429905 0.6769694
000010 84 c8 c1 3c e1 56 0e 3c 38 a6 bb 3d 83 f3 dd bc
       0.023655184 0.008687706 0.09162563 -0.027093654
000020 a0 4e 68 bc 19 82 89 3c bb 27 61 3d 6d e5 a9 3b
       -0.014178902 0.016785668 0.05496953 0.0051848204
000030 ed c1 ae bc cc 56 af 3e e4 1e 48 c0 d3 84 79 3f
       -0.021332705 0.34245908 -3.1268854 0.974683
000040 a3 4d 54 3c ea 86 98 bc d8 a5 0f bb 43 36 86 3c
       0.012957963 -0.01861902 -0.002191892 0.016383296
000050 42 41 0c be db 5a f0 3c 57 9c 6a 3c 92 44 1d bd
       -0.13696769 0.029340198 0.014319501 -0.038395472
000060 57 11 a3 3d 15 5a 05 bb 05 8d 1a be fc ff 7f bf
       0.07962292 -0.0020347883 -0.15092857 -0.99999976
000070 6f 28 40 3c 00 00 00 00 fc ff 7f 3f 00 00 00 00
       0.01172839 0.0 0.99999976 0.0
000080 86 3f 20 3c
       0.00978077

model.0.running_var f4 [33]
000000 72 50 57 40 c3 78 52 3f ac 1d 76 40 30 f9 9e 3e
       3.364285 0.8221552 3.845561 0.3104949
000010 99 a0 72 3d 7c 47 8f 3d 1e 0a c0 3d da c5 12 3f
       0.05923519 0.069960564 0.0937693 0.5733315
000020 73 5a 99 3d b5 0b 35 3e 91 6c 50 40 f2 21 12 40
       0.07487955 0.17680247 3.2566264 2.2833219
000030 00 4e 60 40 42 98 89 41 af 0a 33 40 12 0a 8f 41
       3.5047607 17.199345 2.797527 17.879917
000040 41 cb f8 3d ec 7d a3 3e 62 e1 e4 3d 1f 15 e3 3e
       0.121481426 0.31932008 0.11175801 0.44352052
000050 d8 e6 5b 40 0e bf 76 3f 41 f9 69 3f 92 81 2c 41
       3.4359646 0.96385276 0.91395956 10.781633
000060 00 c6 07 41 43 e2 30 41 a2 ca fa 41 04 00 00 00
       8.48584 11.05524 31.348942 6e-45
000070 01 2c 03 42 04 00 00 00 04 00 00 00 04 00 00 00
       32.792973 6e-45 6e-45 6e-45
000080 26 c1 ae 3e
       0.34131736

model.1.weight f4 [256, 33]
000000 e0 6e e7 3d 08 e7 e2 3e 0e df af 3e 59 c4 07 bf
       0.113004446 0.44316888 0.34349865 -0.5303398
000010 b0 c2 13 3e 89 26 09 3e 57 06 0f 3e 44 26 35 3d
       0.14429736 0.13393606 0.13967262 0.044225946
000020 3c 29 ed bc 04 e3 82 bd 37 45 92 be 0b ae ed 3a
       -0.028950326 -0.06390956 -0.28568432 0.0018133534
000030 ef 75 f3 3e 7c 82 2b 3d fa 3a a9 be 45 9f 78 3d
       0.47550914 0.041872486 -0.33052808 0.060698766
000040 a0 15 03 be bb 3e 16 bf 6d 7a a6 3e aa 83 e3 bd
       -0.12801218 -0.5868947 0.32515278 -0.11109097
000050 98 55 59 be cb 04 34 3e 67 77 bc bd 42 5c 19 be
       -0.21224058 0.17579953 -0.09202462 -0.149766
000060 15 81 5d be ae 38 1c 3e 27 1e c3 3e 8c 12 04 3f
       -0.21631272 0.15255997 0.38108942 0.515908
000070 08 d5 e1 be 4f c0 a9 be 42 96 dd be 9b c3 d4 3e
       -0.44107842 -0.33154532 -0.432787 0.41555485
000080 a5 f4 09 3f a9 9a 56 3e 5a 86 12 3f 16 43 ab 3e
       0.5388892 0.20957436 0.57236254 0.3344962
000090 62 22 bf 3d 4a fb ad 3d 64 e5 c7 3d 9f 58 df bd
       0.0933273 0.08495195 0.0976055 -0.10905575
0000a0 bc ee f8 be 61 37 29 be 14 65 fa 3d ad 9a 96 3e
       -0.4861964 -0.16525032 0.1222631 0.29414883
0000b0 dd 79 db 3e e5 85 ab 3c f8 f2 82 3e 7b 2f f4 be
       0.42866412 0.02093787 0.25575995 -0.47692475
0000c0 fd 2e b8 be 22 23 0e 3d 7d 9d e9 bd c4 f6 96 3e
       -0.3597335 0.034701474 -0.11406992 0.29485142
0000d0 2a da b5 bc 76 00 c5 be ad 8b 41 3c b9 c5 c1 be
       -0.022198755 -0.38476914 0.011813086 -0.37846163
0000e0 5f 8f c8 be b8 c7 57 bf bd c9 43 3d 82 7c 7d be
       -0.39171883 -0.8428912 0.047799814 -0.24754527
0000f0 2a bd 08 be c7 dd 99 3d bd 42 d6 3d 12 99 88 3d
       -0.1335341 0.07513004 0.10461948 0.06669821
000100 2b 21 43 bd 70 f0 ec 3d 7c cd 6e 3e 5f e6 2d 3e
       -0.047639053 0.11569297 0.23320574 0.16982411
000110 87 16 83 be 7c 7d b5 be 36 15 59 3e 34 fc dc 3d
       -0.25603124 -0.354473 0.21199498 0.107902914
000120 94 f5 ce 3c 14 96 5c 3e 55 e5 1e bd 08 be 81 bd
       0.025263585 0.21541625 -0.038792927 -0.06335074
000130 34 9c 6e 3e 71 1c 0e bf 5a 10 b5 be 31 c5 fe 3d
       0.23301774 -0.5551215 -0.35364038 0.12439955
000140 f7 59 74 bd c6 a9 bf be 25 1e ad 3e 90 b3 a0 3d
       -0.05965611 -0.37434214 0.3381206 0.07846749
000150 d7 3c 6d 3e ab 23 26 3e 9b 52 0d 3e 0c 0b 75 3e
       0.2316774 0.16224544 0.13801043 0.23929995
000160 08 8d 0d be 29 b1 16 3f c5 d8 0c 3f 21 74 b0 be
       -0.1382333 0.58864075 0.55018264 -0.344636
000170 19 e0 c1 bc 8e 6c c2 3e c7 98 54 bc a5 2e a0 be
       -0.023666428 0.37973446 -0.012975878 -0.31285587
000180 21 43 b8 be 78 45 bf 3e cb cc 1b bf 76 a1 24 3e
       -0.35988715 0.37357688 -0.60859364 0.16077217
000190 d1 fc 4b 3e 34 81 85 3d 01 cc 76 be 0f 99 95 be
       0.1992066 0.06518784 -0.24101259 -0.29218337
0001a0 13 e1 1a be 61 07 93 3e a7 65 00 bf dc ac 89 3e
       -0.15124922 0.28716567 -0.5015511 0.26889694
0001b0 ca 5a 5d 3e 6f f0 a9 3e 52 1c 85 bd e0 87 00 be
       0.21616665 0.3319125 -0.06499542 -0.12551832
0001c0 98 b5 92 3e 47 eb 1a 3e 5f 70 1a bd 84 2a fe bc
       0.2865417 0.15128814 -0.03770482 -0.031026132
0001d0 e9 0c 3a 3c c4 4b 3a be 92 6a 2c 3e c1 27 28 3d
       0.011355617 -0.18192965 0.16837528 0.041053537
0001e0 b0 14 24 3e 15 8b 5f be fe 1b 87 3e 97 e1 06 3f
       0.16023517 -0.218304 0.26388544 0.5268797
0001f0 92 5f 12 be 95 3d 1d 3d 72 94 03 3f 50 10 23 3f
       -0.1429427 0.038388807 0.51398385 0.63696766
000200 e9 16 0e bf 2e ec 8f be 62 30 9c 3e 19 61 03 bf
       -0.5550371 -0.28109878 0.30505663 -0.51320034
000210 8b 13 51 3f 7f 26 82 be 77 92 ae be eb 99 24 3f
       0.81670445 -0.25419995 -0.3409612 0.6429736
000220 76 78 a0 3d b3 ec 20 be 46 54 94 bd c4 9c af 3e
       0.07835476 -0.15715294 -0.072426364 0.3429929
000230 78 40 00 bf fd 25 7e bd 81 6c 04 3f 52 88 83 be
       -0.5009837 -0.062047947 0.51728064 -0.25689942
000240 8d 28 9b be b6 26 38 be b8 94 16 3d 35 2f 37 be
       -0.30304375 -0.17983517 0.036762923 -0.17889102
000250 62 9a 31 3e 49 87 7e bd 9d 69 be bd 42 29 88 bd
       0.17344049 -0.062140737 -0.09297488 -0.06648494
000260 32 5c bf be 91 29 32 3c 1b 48 5f 3b 65 ae c7 be
       -0.37375027 0.010874168 0.0034070078 -0.3900024
000270 6c 08 9b 3e cd 8a 93 3e 66 32 04 bf 2a 14 0f bd
       0.30279863 0.28816834 -0.516394 -0.03493134
000280 0d 17 5f 3e 23 e2 37 be 9d fd 00 3e 76 cf 79 3e
       0.21786137 -0.17957358 0.12596746 0.24395546
000290 35 42 21 3e 79 36 8c 3e 69 66 81 3e fe 74 f7 3e
       0.15747912 0.2738531 0.25273445 0.48331445
0002a0 13 bd a2 bd fa 61 49 3d 30 fc 10 bc ad d2 1c be
       -0.07946219 0.049165703 -0.008849189 -0.15314741
0002b0 82 13 bb be 72 8e 69 be 07 78 d9 3e 34 f3 9b bd
       -0.3653832 -0.22808245 0.42474386 -0.07614747
0002c0 dc c3 af 3d 4a 1a b3 3d 99 07 9b be 88 8f ae be
       0.08582279 0.087452486 -0.30279234 -0.3409388
0002d0 06 39 94 be e8 14 9c 3e 87 bc ef be d2 cb 63 3d
       -0.28949755 0.304847 -0.46823522 0.0556143
0002e0 24 03 94 3e db fb 4c bd 03 d7 9e b9 d2 bd a5 bc
       0.28908646 -0.050044876 -0.00030296305 -0.020232115
0002f0 da 14 bb bd 45 c2 24 bf 5a 58 a9 3e 1b 0a 44 3f
       -0.091348365 -0.6435893 0.3307522 0.7657792
000300 e3 de 9c 3e 05 31 86 3e e5 26 81 be a4 ac 2d be
       0.306388 0.26209274 -0.25224987 -0.16960388
000310 18 48 48 3e cd f3 0a 3e 4f c5 99 be 8e 80 83 be
       0.19558752 0.13569565 -0.30033347 -0.25684017
000320 88 35 8b be ea 35 bb 3e b8 30 77 bc 94 db 88 3d
       -0.2718928 0.3656457 -0.015087299 0.06682506
000330 68 c6 7a be 98 4a 03 be 76 82 8d 3e c1 89 84 be
       -0.24489748 -0.12821424 0.27638596 -0.25886348
000340 f3 42 0f 3d 76 2d da 3e 3c 72 f8 3d e5 79 f0 3e
       0.034975957 0.4261281 0.121311635 0.46967998
000350 cf 62 22 3e 49 b1 3b 3f 08 29 b9 3e 58 33 04 be
       0.15858005 0.7331739 0.36164117 -0.12910211
000360 06 6c 84 3d f0 d5 47 3e 80 3e 21 3d 4a a4 25 bd
       0.06465916 0.19515204 0.039366245 -0.04043988
000370 0e 23 bc 3e d9 e9 2a 3c 78 40 6c 3e ae d6 09 be
       0.36745495 0.01043173 0.23071468 -0.134608
000380 26 84 b4 be 2d d6 29 bd ee 32 8c 3c b7 3c 2d bd
       -0.3525707 -0.04146402 0.017114129 -0.04229423
000390 5e 7d 8e be 9b 9c aa 3d 60 f8 02 bf 9d 02 c0 be
       -0.27830023 0.083306514 -0.5116024 -0.37501994
0003a0 00 89 94 be 41 f7 dc 3e ea 29 e0 3d 9d 0c 59 3d
       -0.29010773 0.4315739 0.109454945 0.052990545
0003b0 2b 27 2c be 33 db 8e be 9b fd 8b be 13 da 15 3e
       -0.16811816 -0.2790161 -0.27341923 0.1463397
0003c0 76 23 a9 bd 68 57 92 be 4e 66 50 be 11 e1 a6 3e
       -0.08258717 -0.2858231 -0.20351526 0.32593587
0003d0 92 d7 2a 3d d1 de b0 bc d5 0a 25 3e fe c7 b3 be
       0.04170949 -0.021590622 0.16117413 -0.3511352
0003e0 d9 03 52 3e dc c0 fb 3e 03 c9 3e bd 01 da 34 bf
       0.2050928 0.49170578 -0.04657842 -0.7064515
0003f0 a1 9d 16 bf 91 a2 4c be ca 86 e5 3e 29 12 60 be
       -0.5883427 -0.19983889 0.44829398 -0.21881928

model.1.bias f4 [256]
000000 31 cc ee be 8e d0 02 3e a8 21 f0 be f7 94 e5 be
       -0.4664016 0.1277487 -0.46900678 -0.44840214
000010 d7 74 30 bd 70 58 77 be ff ca 14 3d 20 93 1f be
       -0.043080177 -0.2415483 0.036326405 -0.15583467
000020 f2 d2 96 be cf 77 00 be 43 cc db bb b1 32 00 bf
       -0.29457814 -0.12545703 -0.0067076995 -0.5007735
000030 5c d2 0c bf ac 48 a4 be 54 41 2f be 15 80 01 bf
       -0.5500848 -0.32086694 -0.17114764 -0.5058606
000040 be 9b 2d bd 8f b1 2b 3d 34 61 eb be b9 2a 9a 3d
       -0.042384855 0.04191738 -0.45972598 0.0752768
000050 3b a5 b0 be 9a 0a 5a 3e d7 fb 56 3d 44 cc 0a bf
       -0.3450106 0.21293107 0.052486267 -0.54217935
000060 c6 d6 ce be f1 3c 66 be 5f 4c 75 bd 91 b5 2b be
       -0.40398234 -0.22484185 -0.059887286 -0.16768481
000070 8b d5 c2 bd 59 12 96 be d3 02 16 bf 45 34 30 bf
       -0.09513386 -0.29310873 -0.5859806 -0.68829757
000080 a8 f4 f9 be 20 53 09 bf 57 25 21 3d 18 2c a1 be
       -0.4881947 -0.53642464 0.03934225 -0.31478953
000090 1b ec 8e be a6 ee f1 be 50 c5 b1 be b9 73 78 bd
       -0.2791451 -0.47252387 -0.3472085 -0.060657237
0000a0 79 89 8a bc fa e9 d2 be 65 eb 43 bf 48 b2 0a 3e
       -0.016911255 -0.41194135 -0.7653106 0.13544571
0000b0 5f fa fe bd a7 93 30 3c 78 87 0a 3e 18 37 16 bf
       -0.12450098 0.010777391 0.1352824 -0.58677816
0000c0 d6 17 67 be 96 fb ac 3e 49 18 4f 3c af 90 8c 3b
       -0.22567686 0.33785695 0.012640067 0.0042897086
0000d0 93 98 bd be 85 18 4c be 61 bd 13 be 95 79 74 be
       -0.37030467 -0.19931228 -0.14427711 -0.23874505
0000e0 f8 54 2f be ee 00 db be dc f8 dd be f9 10 2d 3e
       -0.17122257 -0.42774147 -0.43353927 0.16901006
0000f0 8d db 21 bf 20 60 b6 3e dd 29 a2 3d 77 54 03 bf
       -0.6322563 0.35620213 0.07918141 -0.5130076
000100 9e 72 06 bf f0 ab a9 be 70 90 03 bf b3 62 dc be
       -0.5251864 -0.3313899 -0.5139227 -0.43044052
000110 67 ef a2 be 05 10 10 be ab 1b ea be eb af bb bd
       -0.31823274 -0.14068611 -0.45724234 -0.09164413
000120 99 77 13 bf 67 e5 f7 be 37 2c 02 bf e0 08 a5 be
       -0.57604367 -0.48417208 -0.50848716 -0.32233334
000130 5b 9d ce be 3e 7f b4 be 6f 66 46 3b 97 3a 2c bf
       -0.40354428 -0.35253328 0.0030273458 -0.672769
000140 60 70 a3 bd e1 d6 c4 be 53 91 10 be 8b ce 39 bf
       -0.07980418 -0.3844519 -0.14117937 -0.72580785
000150 de 11 37 be 02 04 1b bf 1a 64 b8 be 1c f8 09 bf
       -0.1787791 -0.6055299 -0.3601387 -0.5389421
000160 0c 4d 55 bf 29 d4 d6 3d 16 29 0e 3f 8b bf eb be
       -0.8332069 0.10489685 0.5553144 -0.46044573
000170 42 8e 11 bf dd ab 9e be b6 52 07 be 7a 92 07 bf
       -0.56857693 -0.30990496 -0.13215145 -0.5295788
000180 9f b4 05 3e 6b f4 e1 be ba 4d ff be 21 83 71 3d
       0.13057183 -0.4413179 -0.49863988 0.058962945
000190 e2 98 c2 be 71 b0 09 bf 33 fd 27 bf 98 ad 29 bf
       -0.38007265 -0.53784853 -0.65620726 -0.6628051
0001a0 25 51 21 3d df a9 0c 3e 44 30 5a 3e 68 c1 12 bf
       0.039384026 0.13736676 0.21307474 -0.57326365
0001b0 77 95 10 bf 7f 7d a4 3e ce d8 af 3e 30 e6 9d bd
       -0.56478065 0.32126996 0.34345096 -0.077099204
0001c0 1e 4d 66 be 56 52 e2 bc ac 6a cd bd 6a 5d 8f bc
       -0.22490355 -0.027627151 -0.10030112 -0.017500598
0001d0 5a 73 af be 0b 84 dd 3d 01 97 1f be 83 db 00 be
       -0.34267694 0.10816201 -0.15584947 -0.12583737
0001e0 7d c2 c1 be ff 66 e1 be b2 4f 85 be 03 29 f7 be
       -0.37843695 -0.44023892 -0.26037365 -0.48273477
0001f0 4d 8d 63 3d 31 87 88 3e dd fc 05 bf 27 54 9e be
       0.055554677 0.26665643 -0.52338964 -0.30923578
000200 ca 70 28 bf f8 91 20 bf da 1e 3e bd 28 1c 06 3d
       -0.657971 -0.6272273 -0.04641614 0.032741696
000210 84 70 17 be a1 42 ad be de 90 10 bf f2 2e ef 3d
       -0.14789015 -0.33839896 -0.5647105 0.11678876
000220 bb b9 9f be 48 c6 e8 3d ee 0d 88 be dd 18 12 bf
       -0.3119639 0.11365944 -0.26573128 -0.5706919
000230 30 05 c7 3d 0a 79 bb be b1 b9 35 3e 73 8d b5 be
       0.09717786 -0.36615783 0.17746617 -0.3545948
000240 0b dd 35 3e 74 41 6f 3e 00 45 07 bf 02 84 63 3e
       0.17760102 0.23364812 -0.5283966 0.22218326
000250 f6 f2 11 bf 4c 07 cb be 3a d4 dc be 47 fa 7b bf
       -0.57011354 -0.39654005 -0.43130666 -0.9842877
000260 80 37 fd bd 24 b3 3b bf d6 f6 71 bd 77 ea 2c be
       -0.123641014 -0.7332022 -0.05907329 -0.16886316
000270 92 d5 c9 bd f2 32 0e be e3 76 cc be 6b 8b f3 be
       -0.098551884 -0.13886622 -0.39934453 -0.47567305
000280 ab aa c9 3e 75 75 dc be 92 5b 51 be df da 0c bf
       0.39388022 -0.43058363 -0.20445088 -0.5502147
000290 0e 91 78 be 57 b9 c3 be aa 58 d5 be 34 5e 3b be
       -0.24274084 -0.3822734 -0.41669208 -0.18297654
0002a0 b6 89 39 3e d5 e8 24 bf 2e 49 f0 be c3 6d 8b be
       0.18118939 -0.64417773 -0.46930832 -0.2723218
0002b0 d7 13 dc be 85 1e 1a be 5a c0 0f bf 30 98 18 bf
       -0.42983887 -0.15050705 -0.5615288 -0.5960722
0002c0 26 21 3c be 6e 20 d9 3d ba 5e 75 be 1f 95 8b 3d
       -0.1837202 0.106018886 -0.23961917 0.06815552
0002d0 27 cb 1f 3e 7e f6 dd be eb 71 8b 3e 6e 4c 8b 3e
       0.1560484 -0.4335212 0.2723535 0.2720675
0002e0 00 fa 62 3e 0c cd 1d bf f7 9c b7 be e3 1f 94 be
       0.2216568 -0.61641 -0.35861942 -0.28930578
0002f0 f3 ba 18 3e 84 ee e5 be 37 e5 9b be 38 4b 97 bd
       0.14915065 -0.44908535 -0.30448315 -0.07387394
000300 0d 20 10 bf db d8 ab be 78 0f 22 be f8 ce da be
       -0.56298906 -0.33563885 -0.15826213 -0.4273603
000310 67 f6 f2 bd f3 85 d4 3b 19 bf 1f bf 5f cd 21 be
       -0.11863404 0.0064856946 -0.62400967 -0.15800999
000320 51 9b 16 bf 44 db 29 bf a6 dd c2 be 8d 22 a3 bd
       -0.58830744 -0.663502 -0.3805973 -0.079655744
000330 a3 22 e2 bc b4 2b 1c bf d9 15 ab 3c 67 2e 02 bf
       -0.027604407 -0.61004186 0.020884441 -0.50852054
000340 d9 ae 2f 3d 94 ed 13 bf bb d7 83 bd 97 d8 a8 be
       0.042891357 -0.5778439 -0.06437632 -0.32977745
000350 01 b8 0a bf ac 5f b6 be 6d c7 9f be 7f c8 82 be
       -0.5418702 -0.35619867 -0.31206837 -0.2554359
000360 a5 8e 2e bf c1 e8 a8 be 99 a8 e8 be 62 08 ce 3d
       -0.6818641 -0.32990077 -0.4544113 0.10060193
000370 cf 9e bc be 35 24 30 bf 60 4b 43 bf 32 d4 0a bf
       -0.3683991 -0.6880525 -0.7628689 -0.54230034
000380 ff bd 89 bc 66 28 e0 be d8 eb 78 3e c3 26 1c be
       -0.01681423 -0.43780822 0.24308717 -0.15249161
000390 ee 27 82 bd e5 19 eb be ab 87 f5 be 5d ea 09 bf
       -0.06355272 -0.45918193 -0.4795507 -0.53873235
0003a0 e7 4e 42 bf 63 e9 ba 3e b2 02 c4 be 38 7f 86 3e
       -0.75901645 0.36506185 -0.38283306 0.26268935
0003b0 fd 0a ee 3c 9f 17 47 bf 30 59 a3 be 40 53 88 bd
       0.029057974 -0.7777042 -0.31903982 -0.06656504
0003c0 87 bd 03 bf ff 00 8a be 84 1e ad be 30 0a f3 bd
       -0.5146107 -0.26953885 -0.33812344 -0.118671775
0003d0 86 12 df be d6 e3 4a be 2e df 8e be 06 42 36 bf
       -0.4356882 -0.19813475 -0.27904648 -0.71194494
0003e0 18 17 25 3a fc 02 b3 3e f0 34 fb be fe 8f f7 3d
       0.0006297692 0.34963214 -0.49063826 0.12088011
0003f0 b0 fc 15 3d 59 e9 b1 be f8 48 34 bf 54 c6 62 bf
       0.036617935 -0.34748343 -0.7042384 -0.88583875

model.3.weight f4 [256]
000000 2c f1 8d 3f 69 c3 93 3f d4 a3 51 3f c6 a1 27 3f
       1.1089225 1.154401 0.81890607 0.6548122
000010 65 2c ab 3f ed 68 44 3f 9e 7e 84 3f 09 89 aa 3f
       1.3372923 0.76722604 1.035114 1.332307
000020 49 15 70 3f 17 99 21 3f 96 55 87 3f bf b9 b4 3f
       0.9378248 0.6312422 1.0572994 1.4119185
000030 72 2f 73 3f c0 f8 9d 3f 95 cc 5e 3f 8f 09 5f 3f
       0.9499427 1.2341537 0.8703092 0.8712396
000040 1e c7 64 3f 9c ef a4 3f ad 38 ac 3f b3 be e2 3f
       0.8936633 1.2885623 1.3454796 1.7714447
000050 1f ac 92 3f 7f 2f c0 3f 28 86 6c 3f 50 81 75 3f
       1.1458777 1.5014495 0.92392206 0.9590044
000060 59 26 93 3f c2 c8 96 3f 4a 8c 7d 3f eb 2b 00 3f
       1.1496078 1.1780016 0.9904219 0.50067014
000070 6a 61 a5 3f 96 bf 71 3f 1c f4 6e 3f 95 13 76 3f
       1.2920353 0.9443296 0.9334123 0.9612363
000080 64 51 b5 3f bf f0 60 3f 87 2e c8 3f ab 2b 1b 3f
       1.4165463 0.8786735 1.5639199 0.6061351
000090 c1 d6 7e 3f f4 23 90 3f 00 8c 62 3f a6 05 98 3f
       0.9954644 1.1260972 0.88494873 1.1876724
0000a0 92 bc be 3f 68 c5 b6 3f 22 fb aa 3f e2 a7 b3 3f
       1.4901297 1.4278994 1.335789 1.4035609
0000b0 e5 ba 89 3f 75 9e 9f 3f c5 8f cc 3f fe 2a 5a 3f
       1.0760161 1.2470232 1.5981375 0.8522185
0000c0 9b 92 8c 3f a7 76 84 3f 59 c0 8d 3f 03 99 98 3f
       1.098224 1.034871 1.1074325 1.1921695
0000d0 88 80 a6 3f 37 13 90 3f e7 75 69 3f 8a 5c a3 3f
       1.3007975 1.1255864 0.9119553 1.2762616
0000e0 85 0d 4d 3f 74 b0 7a 3f 83 8e 8c 3f 46 ad a2 3f
       0.80098754 0.97925496 1.0980991 1.2709129
0000f0 4e cf 26 3f 83 dc 31 3f 80 ea 8c 3f f2 70 2b 3f
       0.6516007 0.694771 1.1009064 0.66969216
000100 88 c0 93 3f 53 e0 d8 3f 85 12 57 3f e3 af 6e 3f
       1.1543131 1.6943458 0.84012634 0.9323713
000110 83 77 9a 3f bd d3 96 3f 07 b6 34 3f 1e 00 a0 3f
       1.2067722 1.1783367 0.7059025 1.2500036
000120 12 9e 99 3f 39 c9 35 3f 6d 94 80 3f 62 03 9b 3f
       1.2001364 0.71010166 1.0045296 1.2110407
000130 bd a7 43 3f 85 04 9b 3f a6 d1 c0 3f 5f b0 4e 3f
       0.76427823 1.2110754 1.506398 0.8073787
000140 b1 57 5f 3f 94 47 68 3f b0 ad a7 3f d5 2b 64 3f
       0.8724318 0.9073422 1.309988 0.8912938
000150 e4 41 5f 3f 5d 09 91 3f 24 a4 6d 3f c4 c4 a2 3f
       0.87209916 1.1330982 0.92828584 1.2716298
000160 86 76 5a 3f 73 23 44 3f 74 78 a4 3f 81 76 97 3f
       0.853371 0.7661659 1.2849259 1.183304
000170 d1 b5 2b 3f 16 06 7f 3f 28 25 90 3f 8e dd 33 3f
       0.67074305 0.9961866 1.1261339 0.7025994
000180 70 58 96 3f a1 0e 95 3f 92 e8 96 3f 2d c5 96 3f
       1.1745739 1.1645089 1.1789725 1.1778923
000190 79 7c 22 3f bd 14 48 3f 5e c3 1e 3f 9e fb 91 3f
       0.6347118 0.78156644 0.62016857 1.1404912
0001a0 a5 4e e7 3f ed 72 41 3f bc 75 8a 3f a2 0b ab 3f
       1.8070875 0.7556599 1.081718 1.3362925
0001b0 a0 c3 89 3f 9e a4 26 3f d1 a8 84 3f 82 97 33 3f
       1.0762825 0.65094936 1.0364019 0.7015306
0001c0 5a 6b 16 3e 40 8e 79 3f fd c5 91 3f 52 4d ad 3f
       0.14689389 0.9748268 1.1388546 1.3539221
0001d0 a7 a9 97 3f b8 d2 bc 3f 86 f7 71 3f e6 da 78 3f
       1.1848649 1.4751806 0.94518316 0.9720901
0001e0 82 ef 56 3f 92 7f c3 3f 7e e5 74 3f c2 de c8 3f
       0.8395921 1.5273306 0.9566268 1.569298
0001f0 ad bd 4b 3f 9d b7 c4 3f 78 1d 8f 3f 43 ec 4c 3f
       0.795863 1.5368534 1.1180868 0.80048007
000200 d6 85 ae 3f 30 91 8d 3f 24 74 7b 3e 3c 6d 1a 3f
       1.3634593 1.1059933 0.24556023 0.6032293
000210 76 19 66 3f 24 d7 81 3f 4b 38 ab 3f af 7a ab 3f
       0.898826 1.0143781 1.3376554 1.3396815
000220 b5 04 9c 3f 50 62 53 3f b0 17 5b 3f 31 b6 9c 3f
       1.2188936 0.8257189 0.8558302 1.22431
000230 32 a1 87 3f 76 7d 4b 3f b9 4f 7f 3f 14 02 9f 3f
       1.0596068 0.79488313 0.9973102 1.2422509
000240 f4 41 41 3f 7d fc 7e 3f b5 5d 84 3f f4 0a 7b 3f
       0.7549126 0.99604017 1.0341097 0.9806359
000250 ad 2e f8 3e e7 67 8e 3f da 4c 4f 3f eb 82 ce 3e
       0.4847311 1.1125458 0.8097664 0.40334257
000260 ef 46 8f 3f 58 20 62 3f 9b c1 78 3f 8d 31 95 3f
       1.1193522 0.883306 0.9717042 1.1655747
000270 12 8d ad 3f 8d 3f 76 3f fd ec 8c 3f cd ff 89 3f
       1.3558676 0.9619072 1.1009823 1.0781189
000280 bd 7a 9a 3f 27 3e 7f 3f 70 65 8b 3f f5 fd ab 3f
       1.2068707 0.9970421 1.0890331 1.3436877
000290 0f c8 79 3f 2f a6 67 3f fc 7a 54 3f ae fa 7c 3f
       0.9757089 0.9048795 0.8300016 0.98820007
0002a0 7b 17 ac 3f b9 8b 49 3f ce 76 64 3f 52 78 99 3f
       1.3444666 0.78728825 0.8924378 1.1989844
0002b0 db 25 78 3f f0 55 6b 3f 02 8c 8a 3f 98 5b 93 3f
       0.9693276 0.91928005 1.0823977 1.1512327
0002c0 e6 bb 62 3f 69 9e b8 3f 1d 14 39 3f 78 72 af 3f
       0.8856796 1.4423343 0.72296315 1.3706808
0002d0 f4 1a 1a 3f 2c f1 19 3f ac 57 2a 3f d2 9b 45 3f
       0.6019738 0.60133624 0.66540027 0.7719089
0002e0 cc 9b 80 3f 5e 24 54 3f 6e 80 6a 3f ff 1c 8b 3f
       1.0047545 0.8286799 0.9160222 1.0868224
0002f0 47 de 87 3f 70 48 72 3f 51 30 5f 3f 0f ea 85 3f
       1.0614709 0.9464178 0.871831 1.0462054
000300 d8 db 11 3f b7 71 51 3f 6b 4e 9f 3f 79 3f 2f 3f
       0.5697608 0.8181414 1.2445806 0.68456227
000310 ba f3 6c 3f 6a 7f aa 3f 11 e7 5f 3f 61 74 84 3f
       0.925594 1.3320134 0.87461954 1.0348016
000320 78 4e 50 3f 9b fa aa 3f ed dc 97 3f d3 48 b0 3f
       0.81369734 1.3357729 1.1864296 1.3772224
000330 dc 59 eb 3f 6b cc 3d 3f be 50 2f 3f ce ef 4a 3f
       1.8386798 0.7414004 0.6848258 0.7927216
000340 9b 6d aa 3f bf d2 ab 3f 2c d7 72 3f f2 48 20 3f
       1.3314699 1.342369 0.94859576 0.62611306
000350 22 38 3d 3f aa 08 a7 3f cf da 90 3f 7d 5c a9 3f
       0.73913777 1.3049519 1.1316775 1.323135
000360 70 04 90 3f ad 4a 48 3f 83 f1 96 3f df c1 6e 3f
       1.1251354 0.78238946 1.1792454 0.93264574
000370 34 05 94 3f 57 0a 90 3f 90 a5 8b 3f 80 aa 81 3f
       1.1564088 1.1253155 1.0909901 1.0130157
000380 a2 00 85 3f c5 6a 35 3f 58 ec be 3f 3c b4 a3 3f
       1.0390818 0.7086604 1.4915876 1.2789378
000390 94 2c 56 3f 2a 7a 2e 3f 73 2b 81 3f b7 f2 87 3f
       0.8366177 0.6815516 1.0091385 1.0620946
0003a0 a2 0a 5b 3f 9b b1 a8 3f 11 a1 90 3f a0 62 4a 3f
       0.855631 1.3179201 1.1299154 0.7905674
0003b0 0f 4f 6b 3f df b0 83 3f b8 52 6b 3f 20 ba 53 3f
       0.9191751 1.0288352 0.91923094 0.8270588
0003c0 4b 64 c4 3f 78 4e 52 3f 89 c9 af 3f 98 de 1f 3f
       1.5343107 0.82150984 1.3733379 0.62449026
0003d0 b1 35 8c 3f ea af aa 3f 0d f4 99 3f b2 3e 9a 3f
       1.0953885 1.3334935 1.2027603 1.2050383
0003e0 bf fd 84 3f 1e 85 4f 3f b6 c0 2a 3f 6e 54 f9 3f
       1.0389937 0.81062496 0.66700304 1.9478891
0003f0 fc 09 a8 3f cd ee 69 3f c5 42 54 3f 6e 9b 80 3f
       1.3128047 0.91380006 0.8291438 1.0047433

model.3.bias f4 [256]
000000 db e8 5d be 92 5f 4b be 9a 57 6c 3c a3 e1 ea be
       -0.21670859 -0.19860676 0.014425183 -0.45875272
000010 4f 96 08 3f 0c b9 34 bf b6 93 a9 be 01 50 fb 3e
       0.5335435 -0.7059486 -0.33120507 0.49084476
000020 06 a1 7f bd cd ee d1 3e 41 63 26 3f 81 39 32 3d
       -0.062409423 0.41002503 0.649952 0.04351187
000030 b3 be 6e be 9c bb 90 3e 4b ab 37 be 45 be 36 be
       -0.23314933 0.28268135 -0.17936437 -0.1784602
000040 1e 07 12 3e 86 ba e8 3e 66 44 d3 3c 9a 8c 16 3f
       0.14260527 0.45454806 0.02578945 0.5880829
000050 52 fe 9a 3e 65 1e 18 be d2 2f 02 bd 1e d3 2e 3e
       0.30272156 -0.14855345 -0.031783886 0.17072722
000060 1b 69 86 be 9e 36 4c 3d 0b 49 b6 bd fc 35 d5 be
       -0.26252064 0.049856775 -0.089006506 -0.4164275
000070 71 ed e3 be 2b 68 40 3e f7 fb d7 3e ea 95 d4 bc
       -0.4451709 0.18789737 0.4218442 -0.02595039
000080 bf 3e ff 3d 61 e9 c5 be fc d8 9f be 64 f0 94 be
       0.1246314 -0.38654616 -0.31220233 -0.29089653
000090 02 0c 4f 3e ad 40 2e 3d 61 4e 88 be 92 27 01 be
       0.20219424 0.04254215 -0.26622298 -0.12612751
0000a0 28 46 92 3d 12 bb e4 3e c7 e7 20 bf 15 6c 51 be
       0.071422875 0.44673973 -0.62853664 -0.20451386
0000b0 e9 e7 f6 be 02 93 68 3e a2 e8 a9 3e 38 a8 57 3e
       -0.48223808 0.22712329 0.33185297 0.21060264
0000c0 62 88 48 3e 8a be 99 3d df 22 0c 3e 43 bb 06 bf
       0.19583276 0.075070456 0.13685177 -0.5262949
0000d0 45 34 40 3d 74 8f 91 3d 3c 5a 6f be 08 36 7e 3e
       0.046924848 0.0710744 -0.23374265 0.24825299
0000e0 5f ef d5 be 3b 28 ef bc fa d4 ed be 51 85 16 be
       -0.41784188 -0.029193988 -0.4645155 -0.14699294
0000f0 7d a1 80 3e 7c 91 a5 be 3a f6 2c be ea 3a 8b bc
       0.25123206 -0.32337558 -0.16890803 -0.016995866
000100 95 04 7a 3e 71 07 1c 3d ab e7 1f be 13 07 17 be
       0.2441581 0.038093034 -0.15615718 -0.14748792
000110 b6 76 06 3e c0 60 e8 3e ea 19 1b bd 28 5a 22 3f
       0.13131222 0.45386314 -0.03786651 0.6341882
000120 a7 60 37 3e ee 31 6d 3e dc a7 e0 3d f3 7e 02 3f
       0.17907964 0.23163578 0.10969517 0.5097496
000130 29 86 bf be 61 91 91 3e 48 98 ef be 95 97 d6 bc
       -0.37407044 0.28431228 -0.4679587 -0.026195327
000140 62 da ab 3b 44 92 af bd af c2 99 be a1 74 9c 3d
       0.005244539 -0.0857282 -0.30031344 0.07639433
000150 51 e7 1d bf 1e 8e 9c 3e 13 5f de 3e 25 3b 9e be
       -0.61681086 0.30577177 0.4343191 -0.309045
000160 5f 57 30 3c 6e e9 ca be c8 66 10 be 2d 9e 9e 3e
       0.010763018 -0.39631218 -0.14101708 0.30980054
000170 2e cd 13 bd 86 71 ef 3e 73 07 1d 3e 77 58 48 bd
       -0.036084346 0.467663 0.15334873 -0.04891249
000180 3e 32 34 3d ad 2a 89 be a3 04 a8 bd a5 2a 24 3f
       0.043993227 -0.26790372 -0.082040094 0.6412757
000190 c5 24 9e 3e 38 e5 64 3e 03 7a a1 be 83 ec f4 be
       0.30887428 0.22353065 -0.315384 -0.47836694
0001a0 57 be 9b 3e 6e fc b5 be ad 38 7c be 83 f7 41 3d
       0.30418655 -0.3554415 -0.24630995 0.047355186
0001b0 dc 93 80 be 57 ce ba be 62 82 bc 3a a7 b3 28 bf
       -0.25112808 -0.3648555 0.0014382119 -0.6589913
0001c0 62 f1 81 be ba 07 91 3e 8c d8 de be e8 0c a8 be
       -0.25379473 0.28326207 -0.43524587 -0.32822347
0001d0 48 57 66 be ed d0 b8 3e 03 2e 52 3e 94 c3 07 be
       -0.22494233 0.36096898 0.20525365 -0.13258201
0001e0 77 e5 53 be 62 28 82 bd 57 ef 04 be a3 cb 49 bd
       -0.20693003 -0.06355359 -0.12981926 -0.04926647
0001f0 71 f1 ce 3e 8e a7 39 bd 84 45 84 be 2c df 86 3e
       0.4041858 -0.04532581 -0.25834286 0.26342142
000200 eb c3 37 3f f7 3a 8e 3e 02 38 f8 be 61 a0 b8 3b
       0.7178332 0.27779362 -0.4848023 0.005634353
000210 eb fd 0a 3e 0f 62 dc 3d b2 a1 b9 3e 2e 25 26 3f
       0.13573425 0.10760891 0.36256176 0.6490048
000220 0c dd 5c 3d fe 84 c8 3d 55 3a 19 be 55 b4 9d bb
       0.053921744 0.09790991 -0.14963658 -0.004812757
000230 80 8c 8e 3e b4 d5 df be 8f 94 76 bd 76 a3 31 3f
       0.27841568 -0.4371773 -0.06020027 0.69390047
000240 71 c0 c2 3d ee 82 5b be 82 61 40 3e 21 c3 c5 3e
       0.095093615 -0.21436664 0.18787196 0.38625434
000250 ec 7f 8c be 7b 80 0d bf f8 42 1e 3e 9e c3 e8 3e
       -0.27441347 -0.5527417 0.15455234 0.45461744
000260 55 45 16 3f 96 c8 44 be 38 34 42 3e bf 54 4b 3e
       0.5869954 -0.19217142 0.18965232 0.19856547
000270 0c 16 11 3d 11 87 da 3d 7a 90 3a 3e 1f 40 ac 3e
       0.035421416 0.10670293 0.18219176 0.3364267
000280 b4 1d be be 73 b7 ff 3d e1 fb aa 3e f6 55 e4 bd
       -0.37132037 0.12486162 0.33395293 -0.11149208
000290 19 75 12 3e c2 e4 41 3e 47 ab c2 bd 4c 59 2e 3e
       0.14302482 0.1893492 -0.09505325 0.17026252
0002a0 bd 3b 58 be e2 95 d1 3d ae 29 c8 be 39 83 84 3e
       -0.21116538 0.10233666 -0.390943 0.25881365
0002b0 c8 97 b3 be ef dc 2c 3f ac cd 2a bd 0a 70 16 3f
       -0.35076737 0.6752462 -0.04170005 0.5876471
0002c0 86 b4 98 3e c3 43 88 3e e7 50 ea 3d 05 68 84 be
       0.29825228 0.26614198 0.11441212 -0.2586061
0002d0 5c a2 b8 3b 78 a9 88 3e be 3b b0 3e 40 bc 3b 3e
       0.005634589 0.26691794 0.3442058 0.1833353
0002e0 79 85 a5 be 50 70 3f 3e af b6 96 be 84 5e 5c bc
       -0.32328394 0.18695188 -0.29436252 -0.013450269
0002f0 09 71 f4 3d 49 7c 96 3b f1 f7 e8 be 3a 93 81 3e
       0.11935622 0.0045924527 -0.45501664 0.25307637
000300 36 39 c5 bd 94 f1 33 3e 17 3a 0b 3f c9 75 3b 3f
       -0.09630053 0.17572623 0.54385513 0.732266
000310 5b 4a 1a 3f 64 2e ac bd 84 8b 9b 3e ce ea d1 3d
       0.6026971 -0.08407286 0.3037988 0.102498636
000320 01 51 49 3c f1 76 ba be 50 b2 26 bd 03 f0 d3 be
       0.012287379 -0.3641887 -0.040697396 -0.41394052
000330 ab 4f 99 be 1c 05 ef bd e3 7a e5 3e ce 57 10 3e
       -0.29943594 -0.116708964 0.44820318 0.14095995
000340 64 b2 e8 3e 29 63 6d bd 2e 50 f9 bd 0e cf ec be
       0.454486 -0.057955895 -0.12173496 -0.4625172
000350 77 e4 6e 3e d5 fc af bd 90 da b0 3e 7b cf 2d 3f
       0.2332934 -0.08593146 0.3454175 0.67894715
000360 4f d1 8f be e4 65 32 bd a7 34 fb bd a6 09 99 3e
       -0.28089377 -0.0435542 -0.12265902 0.29890174
000370 34 6d 9e bd a8 ff c9 3e 19 fd 13 3f 6b 9b c2 3e
       -0.077356726 0.39452863 0.5780807 0.380092
000380 3e 77 81 be 72 92 77 bf 59 90 04 be 80 3e 36 be
       -0.25286287 -0.9670783 -0.1294569 -0.1779728
000390 56 ed 90 3e 84 d7 96 be 9a 90 1e bd ca 10 5e be
       0.28306073 -0.294613 -0.03871212 -0.21686092
0003a0 af a4 ca 3e 9f 61 17 3d 2d c0 56 3e 2c 43 4e 3e
       0.3957877 0.036958333 0.20971747 0.20142812
0003b0 1c ac a0 3e 6d 30 40 3d b9 31 7e be a8 72 94 be
       0.3138131 0.046921182 -0.24823655 -0.28993726
0003c0 f3 2a ff bc 01 4c 86 be 1f 65 0c 3e e1 76 e4 3e
       -0.03114841 -0.2622986 0.1371045 0.44621947
0003d0 18 12 12 3f 37 35 9b 3d 65 69 86 3e 6c aa b5 3e
       0.5705886 0.07578509 0.26252285 0.35481584
0003e0 d1 a6 a6 3e 43 73 84 be f3 c3 ed bd 14 f2 35 be
       0.32549146 -0.25869188 -0.1160964 -0.17768127
0003f0 aa 8e 73 be f6 7b c0 3e c5 47 88 3e 0c 9a 60 be
       -0.23784891 0.37594575 0.26617256 -0.21933764

model.3.running_mean f4 [256]
000000 83 d8 61 3e 10 4d 0e 3f 03 bb b4 3e 15 f9 5d 3e
       0.22055249 0.5558634 0.3529893 0.21677049
000010 be 37 c7 3e 01 71 be 3e d3 23 fd 3e 13 a6 ec 3e
       0.38909715 0.3719559 0.49441394 0.46220455
000020 01 56 66 3e 1e 5c 14 3f 2e ba f5 3e 08 dd 64 3e
       0.22493745 0.5795306 0.47993606 0.22349942
000030 e3 66 65 3e 8a 4a 8e 3e 55 50 05 3f eb c2 6c 3d
       0.2240253 0.27791244 0.520757 0.057803076
000040 c9 52 d2 3e 90 e7 5b 3f 48 15 6f 3e 2b 34 15 3f
       0.41078785 0.8590021 0.23347962 0.58282727
000050 c1 e9 e3 3e 42 44 e9 3e 07 d9 e6 3e f3 2d 44 3e
       0.44514278 0.4555989 0.45087454 0.19158153
000060 b8 a5 cd 3e 50 a9 07 3e 70 b6 f1 3e ac 20 0e 3f
       0.40165496 0.13248181 0.472095 0.55518603
000070 ed 01 19 3e e1 59 92 3e 95 33 15 3d 35 e0 d5 3d
       0.14942141 0.28584197 0.036426146 0.10443155
000080 d6 c5 d2 3e 01 7b 05 3e e4 92 ae 3e 8f dd ba 3e
       0.41166562 0.13035204 0.34096444 0.3649716
000090 47 83 a4 3e 94 6d e7 3e 58 1e 1d 3e 1a 5a dd 3e
       0.32131407 0.4520079 0.15343606 0.43232805
0000a0 6c 19 bf 3e c3 83 68 3e 6a 1c 3e 3e a5 ea bc 3e
       0.37324083 0.22706513 0.18565527 0.3689777
0000b0 35 11 d0 3e 35 5c 11 3f 98 19 e4 3e 6a 31 e1 3d
       0.40638128 0.5678132 0.44550776 0.10995753
0000c0 b7 ee 29 3e da 84 38 3f 23 00 23 3f 57 bd 99 3e
       0.16594969 0.72077715 0.63672084 0.30027267
0000d0 82 52 32 3e cb 11 bf 3e 25 55 20 3f 2d 42 94 3e
       0.17414287 0.37318262 0.6262992 0.28956738
0000e0 96 32 3d 3f 76 f1 d3 3d a3 ef 15 3e 84 25 3d 3f
       0.73905313 0.103487894 0.14642195 0.7388537
0000f0 10 ba 78 3d d5 ec 7e 3f e4 d1 06 3f 1a 04 f7 3d
       0.060724318 0.99580127 0.5266402 0.12061329
000100 c5 f2 7b 3e ec 0f bf 3e 7b 3d 17 3e 0a 0f 2e 3e
       0.24604328 0.37316835 0.14769547 0.16997924
000110 4d 83 2d 3e 49 a2 1d 3f 43 66 b4 3e 13 46 00 3f
       0.16944619 0.6157575 0.3523427 0.50106925
000120 d4 16 84 3e c6 02 4e 3d b7 bb cf 3e 18 84 c8 3e
       0.25798666 0.050295614 0.40572903 0.3916328
000130 58 09 08 3e 07 78 72 3e 74 82 99 3e cb 0e 35 3e
       0.13284814 0.236786 0.2998234 0.17681424
000140 2a 51 10 3f 34 72 0a 3f 61 55 ae 3e eb a9 8e 3d
       0.56373847 0.5408051 0.34049514 0.06966003
000150 bb 84 02 3f 48 a7 ba 3e 41 fe e2 3e 29 c6 a4 3e
       0.5098378 0.3645575 0.44334605 0.32182434
000160 94 2b 39 3c 43 ba d7 3e af a4 92 3f 2e f8 1c 3e
       0.011301894 0.42134294 1.1456507 0.15329048
000170 38 42 e1 3d 22 13 a2 3e 5e d1 49 3e b8 5e 4d 3e
       0.10998958 0.31655222 0.19708773 0.20055664
000180 5b 8b 1e 3f 90 96 80 3e 5d 3e 96 3e cb 4e 19 3f
       0.6193139 0.2511487 0.29344454 0.59885854
000190 88 9a 58 3e c6 74 d7 3e 56 57 79 3c a3 b5 85 3e
       0.21152699 0.4208128 0.015218576 0.2611514
0001a0 f3 cc c6 3e bd 0b 07 3f 15 8b e0 3e 1c d7 95 3e
       0.3882824 0.52752286 0.4385611 0.29265678
0001b0 c6 05 2c 3e 5b cc 70 3f 7d 0a 59 3f b4 79 bc 3e
       0.16799077 0.9406182 0.8478163 0.36811602
0001c0 09 74 b1 3e be 07 2f 3e b9 3e dd 3e f8 ac 5c 3e
       0.3465884 0.17092797 0.43211916 0.21550357
0001d0 58 83 df 3e 21 a4 03 3f d5 2a 03 3f ba d3 5d 3e
       0.43654895 0.51422316 0.5123723 0.21662799
0001e0 43 66 49 3e 1f 7f e3 3e 4d b8 09 3e 6a e5 ff 3d
       0.19667916 0.44432923 0.13449211 0.12494929
0001f0 c2 48 17 3f 85 db 27 3f f5 b5 06 3e 7c 2e 08 3f
       0.59095395 0.65569335 0.13155349 0.5319593
000200 5f 7f b9 3e b7 d6 9f 3e 1f c0 85 3f 3f ae 03 3f
       0.3622999 0.31218502 1.0449256 0.51437753
000210 2a 25 2e 3f f4 f5 c7 3d b2 90 a3 3e 0a 54 e7 3e
       0.6802546 0.09763709 0.3194633 0.45181304
000220 42 0e d1 3e 8b 40 dd 3e 34 27 9b 3e d1 c1 33 3e
       0.4083119 0.43213305 0.30303347 0.17554404
000230 3e ef d3 3e 17 77 99 3e c2 de 02 3f d4 15 34 3e
       0.41393465 0.2997367 0.5112115 0.17586452
000240 10 b0 58 3f 3e e3 88 3f a8 e7 00 3e 74 fc 18 3f
       0.8464365 1.0694349 0.1258837 0.5976021
000250 26 26 9f 3d dd ad cc 3e 30 a3 bc 3d 6a d0 6c 3a
       0.07770948 0.39976397 0.09210813 0.00090337417
000260 95 8b c8 3e 5a bb 78 3e 44 a8 fd 3e 18 d6 ab 3e
       0.39168993 0.24290219 0.4954244 0.33561778
000270 27 b2 f1 3d 35 7d a3 3e 06 ec 29 3e e4 a0 f3 3d
       0.11801558 0.31931463 0.16593942 0.11895922
000280 56 0e 1f 3f dd 40 30 3d 74 7c a6 3e b5 e6 a2 3e
       0.6213125 0.04303061 0.32516825 0.3181664
000290 9b 53 05 3f b8 24 df 3e a7 22 7a 3e b3 e3 28 3e
       0.52080697 0.43582702 0.24427281 0.1649311
0002a0 d9 86 01 3f b5 89 11 3e 15 a6 92 3e 65 92 7d 3e
       0.50596386 0.14212687 0.28642336 0.24762876
0002b0 61 ff e9 3e 27 d0 5a 3e 0e 5e 45 3e 5b 23 82 3e
       0.4570265 0.21368466 0.1927416 0.254176
0002c0 c1 97 6e 3e b7 cf cd 3e a3 82 7c 3e 52 1e c9 3e
       0.23300077 0.40197536 0.24659209 0.39280945
0002d0 a4 71 36 3f 82 8f d9 3e 36 72 3a 3f e7 92 60 3f
       0.7126715 0.424923 0.7283052 0.87724155
0002e0 fd 54 22 3f 86 88 b3 3c 9d ee 3f 3e 42 20 ef 3e
       0.6341093 0.021915685 0.18743367 0.46704298
0002f0 af 48 e9 3e fd 0e 11 3e b9 e6 fa 3e c1 25 37 3e
       0.45563266 0.14165874 0.49004152 0.17885496
000300 84 32 51 3e b6 89 0e 3f 2f b6 64 3f 2b ba 10 3e
       0.20429426 0.5567888 0.8934049 0.14133517
000310 41 2b b7 3e f0 20 b5 3e 12 72 75 3e 74 e4 59 3f
       0.35775188 0.35376692 0.23969296 0.85114217
000320 27 43 e8 3d 52 f0 cd 3d 50 e3 3c 3e b0 75 5e 3e
       0.11340933 0.10055603 0.18446088 0.21724582
000330 b5 1b 02 3e ea 8d bf 3d 7e 8f 2d 3f 61 e7 c9 3d
       0.12705882 0.0935324 0.67797077 0.09858585
000340 aa ee d8 3e fb 41 26 3e 9c 77 6a 3e 67 8b 01 3f
       0.42369586 0.16236107 0.2289719 0.50603336
000350 3e f0 b2 3d 3d 02 ac 3e f2 90 0c 3e 1d 71 4a 3e
       0.08737229 0.33595458 0.13727167 0.19769712
000360 cb 4b a2 3e 9c 55 3b 3e 76 2b a3 3e ed 1a 09 3f
       0.3169845 0.18294376 0.31869096 0.5355671
000370 77 c2 ff 3d 93 6e 70 3e de 11 f7 3d 7e 6e 89 3e
       0.12488263 0.2347968 0.12063955 0.2684211
000380 29 ef 95 3e a7 ac 7c 3d 4d 04 fc 3e 21 23 18 3e
       0.29284027 0.06168809 0.4922203 0.1485715
000390 00 09 1c 3f e7 b4 2d 3e 45 64 41 3e 75 64 16 3f
       0.6095123 0.1696354 0.18885906 0.58747035
0003a0 5b 54 87 3d 7e 58 47 3f e4 bf b4 3e da ac 35 3f
       0.066078864 0.77869403 0.3530265 0.70966876
0003b0 d9 73 0c 3f 0a 13 ae 3d 8d 43 47 3e c9 70 29 3f
       0.5486427 0.08499725 0.19459362 0.6618772
0003c0 14 4f 02 3e 7f 90 a6 3e d1 72 12 3f b1 94 00 3f
       0.12725478 0.32532117 0.57206446 0.50226885
0003d0 e6 b1 b9 3e 01 03 b5 3e 8a 47 ae 3e 5b 7f 34 3e
       0.36268538 0.35353854 0.34038955 0.17626707
0003e0 53 80 2b 3f f1 af 3f 3f bc 5d 98 3e a5 8e e7 3e
       0.6699268 0.7487784 0.29759014 0.45226017
0003f0 48 42 41 3f 5b 0a 9d 3e 9d 42 4e 3e 55 9f be 3d
       0.7549176 0.30671963 0.20142598 0.09307734

model.3.running_var f4 [256]
000000 d0 38 46 3e d5 32 e9 3e 44 5e 1a 3f 72 de 49 3e
       0.1935761 0.45546594 0.6030009 0.19713762
000010 56 0c b0 3e d6 ce b4 3e 7e ac 00 3f a9 85 c9 3e
       0.34384412 0.35314053 0.502632 0.39359787
000020 2b 73 27 3e 95 98 18 3f 8d db b8 3e ad 2f 53 3e
       0.16352527 0.5960782 0.36105004 0.20623656
000030 ae 31 6b 3e 2b 5a 89 3e df 69 25 3f ea 18 92 3d
       0.2296817 0.26826605 0.6461467 0.07133658
000040 50 23 ae 3e be ce 7d 3f a6 aa 43 3e 1e 20 e8 3e
       0.34011316 0.9914359 0.19108066 0.45337003
000050 3c 0d f9 3e c2 2a 97 3e 90 2a 96 3e 88 a8 1a 3e
       0.4864291 0.2952481 0.29329348 0.15103352
000060 4b a8 10 3f 78 7d ef 3d e0 08 04 3f c0 96 4a 3f
       0.56506795 0.11693853 0.5157604 0.79136276
000070 a0 91 a5 3d 4e 51 77 3e df d6 e1 3c 8d 7e 9b 3d
       0.080844164 0.24152109 0.027568279 0.07592497
000080 4a e9 cb 3e ba 56 40 3e 3e 4c 29 3e 6c ba dc 3e
       0.39826423 0.18783084 0.1653299 0.4311098
000090 08 b3 b6 3e 65 d3 0a 3f 42 3b 0a 3e 31 0a d9 3e
       0.35683465 0.5422881 0.13499168 0.42390588
0000a0 0b 61 72 3e 7c a9 b4 3e 50 33 25 3e 62 5f 2f 3e
       0.23669831 0.35285556 0.16132855 0.1712623
0000b0 ef 31 bb 3e b4 2d 1d 3f f3 f1 89 3e 8a 00 dd 3d
       0.36561534 0.6139786 0.26942405 0.107911184
0000c0 8a ee 32 3e fb f7 a1 3e 71 f6 e6 3e 51 90 07 3e
       0.17473808 0.31634507 0.45109895 0.13238646
0000d0 47 71 2d 3e 22 3b cb 3e fe e1 30 3f 08 8e 71 3e
       0.16937743 0.39693552 0.69094837 0.23589337
0000e0 12 e0 79 3f c8 ed c7 3d 72 d9 0e 3e 8f 15 29 3f
       0.9760753 0.0976215 0.13950136 0.6604852
0000f0 aa 86 4b 3d 26 ab 87 3f a8 76 e7 3e ff d8 06 3e
       0.049688973 1.0599105 0.45207715 0.13168715
000100 62 f7 88 3e 0f 48 b7 3e f0 c1 1e 3e 47 4a 2a 3e
       0.26751238 0.35797164 0.15503669 0.16629897
000110 36 f0 29 3e 46 f5 4c 3f 77 1e dc 3e ed f6 fd 3e
       0.1659554 0.8006176 0.42991993 0.49602452
000120 f3 85 52 3e 22 ea bb 3d a8 34 05 3f dc 1a d2 3e
       0.2055891 0.09175517 0.5203347 0.41036117
000130 1d 20 03 3e 41 da 3e 3e d2 0e 0e 3e e8 0a 19 3e
       0.12805219 0.18637945 0.13872841 0.14945567
000140 00 71 26 3f 70 1c 21 3f 5a cc a4 3e 69 bb 88 3d
       0.65016174 0.6293402 0.32187158 0.06676371
000150 16 f2 13 3f 25 9c dd 3e c4 f6 07 3f 54 12 a4 3e
       0.5779127 0.4328319 0.5311091 0.32045233
000160 b0 47 d5 3b 7c 32 b2 3e 31 20 08 3f f7 4b f7 3d
       0.00650879 0.34804142 0.5317412 0.12075036
000170 bb 73 f9 3d 33 e3 b1 3e b0 cd 08 3e 06 ca 16 3e
       0.12180277 0.34743652 0.13359714 0.14725503
000180 24 46 c0 3e e1 9b 5f 3e f3 a6 9a 3e ab b1 cf 3e
       0.37553513 0.21836807 0.30205497 0.40565237
000190 2f a6 22 3e e4 41 e9 3e 5b b8 43 3c f4 97 47 3e
       0.15883707 0.45558083 0.011945809 0.1949156
0001a0 77 c7 68 3e cf 89 9d 3e ef e8 71 3e 49 34 a2 3e
       0.2273234 0.30769202 0.23624013 0.31680515
0001b0 c3 51 1d 3e 2e 47 92 3f 2b f3 d9 3e b8 16 aa 3e
       0.15363221 1.1427972 0.42568335 0.33220458
0001c0 ec df ee 3e 96 9e 29 3e 8d 6c e5 3e 1f c9 10 3e
       0.46655214 0.16564402 0.4480938 0.14139222
0001d0 c4 78 01 3f 07 56 84 3e 5b c8 15 3f 2a e1 27 3e
       0.505749 0.25846884 0.58508843 0.16394487
0001e0 6d 06 76 3e e5 99 00 3f 4f be de 3d 26 57 d6 3d
       0.24025889 0.50234824 0.10876142 0.10465841
0001f0 18 bb 02 3f a9 89 02 3f 26 01 ed 3d 72 97 13 3f
       0.5106673 0.509913 0.11572485 0.5765296
000200 d1 52 cd 3e 09 2b d4 3e 1e 01 fa 3f f6 38 c7 3e
       0.40102246 0.41439083 1.9531591 0.38910645
000210 67 6b 8c 3f 05 be ac 3d 3a b7 c6 3e ac 78 7b 3e
       1.0970277 0.08434681 0.38811666 0.24557751
000220 90 6b b0 3e 23 43 ad 3e 8e 7c 6a 3e dc 3f 2f 3e
       0.34457064 0.33840284 0.22899076 0.17114204
000230 06 d1 81 3e 93 57 b6 3e 31 cc 96 3e 22 1c 0d 3e
       0.25354785 0.3561369 0.2945266 0.13780263
000240 03 fc 48 3f fd 8d 9d 3f d5 a4 ea 3d 13 6d c1 3e
       0.7850954 1.2308956 0.114572205 0.3777853
000250 b2 34 bb 3d 84 89 ba 3e f6 cf c1 3d ca 98 d0 39
       0.0914091 0.3643304 0.094634935 0.00039786688
000260 04 d6 c6 3e a1 75 59 3e 25 53 07 3f 35 78 84 3e
       0.38835156 0.21236278 0.52861243 0.2587296
000270 19 2b a5 3d c2 3b 71 3e 11 96 40 3e d3 1b f2 3d
       0.08064861 0.23557952 0.18807246 0.11821713
000280 a9 b6 a0 3e df 93 2a 3d 55 b1 9b 3e bb 67 cc 3e
       0.3138936 0.041644927 0.3040873 0.3992289
000290 12 e9 1d 3f 62 aa f7 3e 11 d8 8a 3e 8c 93 09 3e
       0.6168376 0.4837218 0.2711797 0.13435191
0002a0 2f 1a c9 3e 82 28 fe 3d aa 39 84 3e f1 3e 7d 3e
       0.3927779 0.1241007 0.25825244 0.24731041
0002b0 89 33 ec 3e 3f f4 19 3e 5b 3a 45 3e c7 31 7c 3e
       0.46133068 0.15034579 0.19260542 0.24628364
0002c0 f2 51 3d 3e ca 82 62 3e 5e aa 79 3e de f7 84 3e
       0.18488291 0.22120205 0.24381396 0.25970358
0002d0 31 4d 87 3f af d8 17 3f 89 21 df 3e 6d 60 6e 3f
       1.0570432 0.5931501 0.43580273 0.93115884
0002e0 0e 7a 85 3e 3d 34 49 3c 47 c3 39 3e 6c 17 12 3f
       0.26069683 0.012280521 0.18140899 0.5706699
0002f0 3e e7 c9 3e 7b 49 38 3e 32 82 10 3f a9 ab 10 3e
       0.39434236 0.1799678 0.5644866 0.14127983
000300 b5 35 25 3e df 35 58 3f 15 22 b9 3f 9e 79 1c 3e
       0.16133769 0.844572 1.4463526 0.15280768
000310 02 9d ab 3e 85 f7 8b 3e 90 95 81 3e fa 4d 89 3f
       0.33518225 0.2733728 0.2530942 1.0726922
000320 69 ee c2 3d eb 12 90 3d bb d8 01 3e b4 41 07 3e
       0.095181294 0.07034858 0.12680332 0.13208658
000330 79 ac 52 3d 6c 0d 04 3e f2 bc 3b 3f 7e 3d bb 3d
       0.051434014 0.12895745 0.7333518 0.09142588
000340 b3 8e 9c 3e 6e e9 e0 3d 16 32 67 3e 6a 99 20 3f
       0.3057762 0.10982023 0.225777 0.6273409
000350 f7 2e d9 3d 46 b0 bc 3e 83 db d7 3d b8 2c 2a 3e
       0.10604661 0.36853236 0.105399154 0.16618621
000360 6b 6f a4 3e 3e 3b 47 3e 70 66 a4 3e 97 61 96 3e
       0.32116255 0.19456193 0.32109404 0.2937133
000370 ec a8 df 3d e0 6c 41 3e c5 43 09 3e ad 2e 9f 3e
       0.10920891 0.18889189 0.13404758 0.31090298
000380 bb d6 25 3e 40 92 3c 3d 9e a0 83 3e a4 98 b1 3d
       0.16195194 0.046037912 0.2570848 0.08671692
000390 b0 c7 41 3f eb 96 6d 3e d1 f8 2f 3e 3a f6 39 3f
       0.75695324 0.23202102 0.1718476 0.72641337
0003a0 9d 6a 18 3d d8 0d 00 3f 4e 7a b6 3e 84 cf 2e 3f
       0.03721105 0.50021124 0.35640186 0.68285394
0003b0 15 f6 04 3f 90 06 b7 3d 73 84 49 3e 1d 26 40 3f
       0.5193799 0.089367986 0.19679432 0.75058156
0003c0 44 e5 d5 3d 27 2d e8 3e d3 9d 29 3f d2 df 19 3f
       0.104441196 0.45346949 0.66256446 0.6010715
0003d0 06 36 9d 3e fc c7 94 3e df 72 ab 3e 1d 46 16 3e
       0.3070528 0.29058826 0.33486077 0.14675184
0003e0 86 4c 4b 3f a8 9a 12 3f db b4 8b 3e a6 26 38 3e
       0.7941364 0.57267237 0.2728642 0.17983493
0003f0 4e 95 87 3f 77 77 c7 3e 51 e5 72 3e f1 ac 85 3d
       1.0592439 0.38958332 0.2372029 0.065271266
