models/4/critic_n131.pt (torch, 215160 bytes, 13 tensors)

model_s.0.weight f4 [33]
0.8626119 0.5025996 0.89272386 0.04267889 -0.009360664 0.018974343 0.06803372 0.06840667
0.040207688 0.035354264 0.2289242 0.24569374 0.26053357 1.51972 0.85787946 1.5870268
0.052780382 0.04853087 0.053847995 0.045009278 0.12641013 0.14959471 0.12070838 0.6114475
0.45474574 0.5754406 1.4192132 1.0 1.3997263 1.0 1.0 1.0
0.8819746
00000000: 22d4 5c3f 5eaa 003f 8d89 643f 0fd0 2e3d
00000010: 785d 19bc 1570 9b3c 4355 8b3d cc18 8c3d
00000020: d1b0 243d a2cf 103d 1b6b 6a3e 2497 7b3e
00000030: a864 853e 2f86 c23f fd9d 5b3f b223 cb3f
00000040: 3e30 583d 4ec8 463d b78f 5c3d a65b 383d
00000050: a871 013e 5b2f 193e f535 f73d d387 1c3f
00000060: 6fd4 e83e 1350 133f c7a8 b53f 0000 803f
00000070: 3b2a b33f 0000 803f 0000 803f 0000 803f
00000080: 16c9 613f

model_s.0.bias f4 [33]
0.067968935 -0.3304537 -0.11479948 0.02566913 -0.009620376 0.01514024 0.0021212732 0.025545983
-0.005686295 0.00613905 0.055597395 -0.2004193 0.012680675 0.0514271 -0.15887168 -0.018876504
-0.00053559325 0.026247589 0.002058727 0.0072814366 0.0361011 -0.009150194 0.004838203 0.07608359
-0.07890042 0.038579695 -0.038210377 -0.20496275 -0.082480155 -0.59921116 0.51450706 0.5167491
0.110314205
00000000: 4c33 8b3d 3a31 a9be fd1b ebbd 1148 d23c
00000010: c89e 1dbc c50e 783c 0f05 0b3b cf45 d13c
00000020: 1a54 babb 152a c93b 18ba 633d b83a 4dbe
00000030: 9bc2 4f3c 39a5 523d 42af 22be e6a2 9abc
00000040: 0e67 0cba 2f05 d73c b5eb 063b 1e99 ee3b
00000050: bfde 133d b2ea 15bc ca89 9e3b b7d1 9b3d
00000060: 8b96 a1bd be05 1e3d 7c82 1cbd c1e1 51be
00000070: 5beb a8bd e765 19bf bcb6 033f ab49 043f
00000080: 6aec e13d

model_s.0.running_mean f4 [33]
0.3164982 -2.7124217 0.7897041 0.67816925 0.028603757 0.009065262 0.08842659 -0.033911776
-0.01794086 0.017031986 0.042940978 0.014801831 -0.0007212087 0.4031213 -3.1519604 0.92127573
0.016308587 -0.025788952 -0.005040068 -0.0014970341 -0.12307109 0.022596607 0.027502788 -0.11609675
0.049093395 -0.0045068176 -0.09613555 -0.99999976 0.01585416 0.0 0.99999976 0.0
0.012661941
00000000: 0d0c a23e 5198 2dc0 0c2a 4a3f 809c 2d3f
00000010: 6d52 ea3c 7786 143c 0019 b53d 13e7 0abd
00000020: b6f8 92bc aa86 8b3c e1e2 2f3d 6183 723c
00000030: 7f0f 3dba ea65 ce3e b8b9 49c0 bad8 6b3f
00000040: 9699 853c 5a43 d3bc 2827 a5bb 2138 c4ba
00000050: b20c fcbd 851c b93c 874d e13c 22c4 edbd
00000060: 2816 493d edad 93bb b7e2 c4bd fcff 7fbf
00000070: 95e0 813c 0000 0000 fcff 7f3f 0000 0000
00000080: 0874 4f3c

model_s.0.running_var f4 [33]
3.35316 0.75907636 3.8657544 0.30958033 0.059216116 0.07112538 0.09242448 0.5909538
0.07903914 0.17779326 3.322138 2.3749995 3.3825774 16.857998 2.6836674 18.126505
0.12061875 0.31348896 0.1127044 0.4472468 3.403669 1.0058635 0.85266805 10.988666
9.021069 10.836232 30.618124 6e-45 33.600887 6e-45 6e-45 6e-45
0.3430599
00000000: 2c9a 5640 d452 423f 8568 7740 5081 9e3e
00000010: 998c 723d 2faa 913d 0c49 bd3d c048 173f
00000020: 46df a13d 700f 363e e99d 5440 feff 1740
00000030: 267c 5840 2edd 8641 35c1 2b40 1503 9141
00000040: f706 f73d a081 a03e 91d1 e63d 88fd e43e
00000050: b7d5 5940 23c0 803f 7448 5a3f 93d1 2f41
00000060: 4c56 1041 3561 2d41 ebf1 f441 0400 0000
00000070: 4f67 0642 0400 0000 0400 0000 0400 0000
00000080: 8ca5 af3e

model_s.1.weight f4 [256, 33]
0.261152 0.23663089 -0.09892289 -0.12426576 -0.11631293 -0.15325977 -0.1814152 -0.49988496
0.4765052 0.49250463 0.56003696 0.02974385 0.9144858 -0.15370679 -0.010969881 0.26109016
0.3262197 -0.40921983 0.01408254 0.23972057 -0.61656183 0.510324 -0.2841083 -0.29280567
-0.13200252 -0.21602291 -0.18157262 0.17453212 -0.36537287 0.19875333 -0.27385014 -0.288598
-0.12456198 -0.0337633 0.19238791 0.14006634 -0.205646 -0.119184524 0.004673935 0.19754398
-0.3014053 -0.49430186 -0.48312214 -0.3454405 0.024788193 -0.20262474 0.22949207 -0.21195471
0.09998536 -0.1543153 -0.27470997 0.07432242 0.05567577 0.22619095 0.50195456 -0.97753936
-0.03395074 0.12677597 0.087388635 -0.036596768 0.4437462 -0.16808538 0.5356699 -0.5653641
-0.40790233 0.33411288 -0.21915165 0.17558856 0.9021187 0.050592136 0.49858245 -0.31635892
-0.041752104 0.14189316 0.11422512 0.052777138 -0.23667544 -0.07388262 -0.2572418 -0.003072523
-0.33753628 -0.05512396 -0.087917596 0.12208216 -0.2700865 0.16179286 0.08263226 -0.058386523
-0.07798915 -0.0906433 -0.34752902 -0.44598785 0.3204581 0.56617737 0.1129423 0.5676046
-0.42828974 -0.4747591 -0.28652954 -0.2641866 -0.04346594 0.23175126 -0.28511524 -0.20828782
0.37955323 0.16525878 0.29575157 0.012300853 -0.011925896 -0.4247605 0.19717161 -0.1563038
0.057070762 0.29881677 -0.39510986 0.08221162 0.13895926 0.28698415 0.34141785 -0.029713511
0.18432628 0.23948167 -0.30909437 0.30680233 -0.35729104 -0.15764488 0.17441916 0.6696465
0.37499636 -0.35742432 -0.13727121 0.22321478 -0.25632608 0.4323876 0.10840304 0.1494869
-0.3571693 0.12478183 -0.21100025 -0.04261723 -0.17228192 0.5070834 0.27392527 0.3606733
0.087723345 0.00059263076 -0.15494592 0.21005204 -0.34098867 -0.023976274 -0.27143577 -0.15058303
-0.122196846 0.3006271 -0.31331477 -0.43570238 -0.38882998 0.17003164 -0.2492404 0.32703662
0.19525675 0.56334066 -0.4890666 -0.5960293 -0.17061011 0.21390153 0.06918347 -0.16881084
-0.3881853 -0.11358912 -0.01946794 0.24797513 0.31227127 0.212476 0.0018535448 -0.23795897
0.2280253 0.5599592 0.011648972 0.19394216 0.037373077 0.35173178 -0.50554156 -0.00050743093
-0.13137472 0.104845054 0.42940697 -0.60727274 -0.17664555 0.047976498 0.20206185 0.011378369
0.4889512 0.19164535 0.52221775 -0.55106634 -0.44600403 0.17748412 0.11753963 0.08889165
0.39629057 -0.28384644 -0.15020531 -0.88745755 0.13577908 -0.06226868 0.48459437 -0.055906396
-0.32857993 0.029945357 -0.28224087 -0.029847283 -0.36985773 0.012468808 0.42128795 -0.122231856
0.45593083 -0.050042555 -0.20820333 -0.32775906 -0.43824857 -0.4897151 -0.124371186 -0.16176035
0.021898713 0.44694158 0.30980542 0.46454486 -0.48809057 -0.46138963 0.3322945 0.32383016
0.2248244 0.250107 -0.21271753 -0.1464592 -0.17633712 0.33472747 0.1509812 0.056994732
-0.120785676 0.1479613 -0.5496896 -0.112263955 -0.056927074 -0.17038313 0.03674319 -0.9272522
0.23436157 0.030147469 -0.246428 -0.057562787 -0.36247793 0.17006159 -0.124558665 0.30306906
00000000: b7b5 853e 5e4f 723e 1698 cabd 0c7f febd
00000010: 7935 eebd 21f0 1cbe e8c4 39be ecf0 ffbe
00000020: 7df8 f33e 9129 fc3e 955e 0f3f 60a9 f33c
00000030: be1b 6a3f 5065 1dbe 04bb 33bc 9cad 853e
00000040: 4506 a73e 4385 d1be 74ba 663c 4f79 753e
00000050: ffd6 1dbf 98a4 023f a576 91be a0ea 95be
00000060: ab2b 07be 1c35 5dbe 2cee 39be 8cb8 323e
00000070: 2712 bbbe fe85 4b3e 1636 8cbe 1ec3 93be
00000080: 5a1a ffbd 634b 0abd 5601 453e 8d6d 0f3e
00000090: dd94 52be 0417 f4bd cf27 993b f848 4a3e
000000a0: cc51 9abe 2215 fdbe c95b f7be 94dd b0be
000000b0: 9c10 cb3c dc7c 4fbe f8ff 6a3e a80a 59be
000000c0: 20c5 cc3d d404 1ebe c9a6 8cbe 5a36 983d
000000d0: 470c 643d 9a9e 673e 1880 003f 0540 7abf
000000e0: ee0f 0bbd 8fd1 013e d0f8 b23d 7ee6 15bd
000000f0: b432 e33e 931e 2cbe aa21 093f b4bb 10bf
00000100: 93d8 d0be d810 ab3e 4a69 60be 7dcd 333e
00000110: 40f1 663f b339 4f3d 3346 ff3e ccf9 a1be
00000120: 4104 2bbd 714c 113e dcee e93d d72c 583d
00000130: 0c5b 72be c54f 97bd 32b5 83be 625c 49bb
00000140: 8ed1 acbe a9c9 61bd 240e b4bd 3606 fa3d
00000150: c748 8abe 07ad 253e 1a3b a93d b526 6fbd
00000160: c7b8 9fbd 32a3 b9bd 53ef b1be 8558 e4be
00000170: 1613 a43e 00f1 103f 4b4e e73d 894e 113f
00000180: cb48 dbbe a013 f3be 00b4 92be 7743 87be
00000190: 5709 32bd 3450 6d3e a0fa 91be 6749 55be
000001a0: cd54 c23e 9939 293e c06c 973e 8489 493c
000001b0: d564 43bc 357a d9be 5be7 493e 1a0e 20be
000001c0: 08c3 693d 83fe 983e d74b cabe 915e a83d
000001d0: 564b 0e3e 96ef 923e 52ce ae3e c069 f3bc
000001e0: 07c0 3c3e af3a 753e 9e41 9ebe 3215 9d3e
000001f0: daee b6be a96d 21be f09a 323e f46d 2b3f
00000200: 86ff bf3e 5200 b7be d390 0cbe 6a92 643e
00000210: 2c3d 83be e861 dd3e 6a02 de3d 1813 193e
00000220: e5de b6be 9e8d ff3d 7310 58be 688f 2ebd
00000230: ac6a 30be 38d0 013f ef3f 8c3e 2caa b83e
00000240: 4ca8 b33d c75a 1b3a 25aa 1ebe e217 573e
00000250: 1196 aebe e469 c4bc a1f9 8abe 7032 1abe
00000260: 5742 fabd cceb 993e cb6a a0be 6214 dfbe
00000270: b914 c7be c61c 2e3e e038 7fbe 5871 a73e
00000280: 63f1 473e 1837 103f f066 fabe 6095 18bf
00000290: 6bb4 2ebe 0109 5b3e 10b0 8d3d c0dc 2cbe
000002a0: 39c0 c6be 6aa1 e8bd 3b7b 9fbc 31ed 7d3e
000002b0: 05e2 9f3e 4f93 593e a5f2 f23a 84ab 73be
000002c0: 777f 693e 7c59 0f3f 54db 3e3c c698 463e
000002d0: 8314 193d 3016 b43e 2c6b 01bf 1d05 05ba
000002e0: 1887 06be 01b9 d63d 3bdb db3e 3a76 1bbf
000002f0: 92e2 34be 0183 443d 4de9 4e3e 576c 3a3c
00000300: d057 fa3e ae3e 443e 10b0 053f af12 0dbf
00000310: a45a e4be 66be 353e 9eb8 f03d d30c b63d
00000320: 99e6 ca3e 5254 91be 6ccf 19be 6b30 63bf
00000330: ac09 0b3e 720d 7fbd c11c f83e 1bfe 64bd
00000340: a13b a8be f74f f53c e081 90be 4a82 f4bc
00000350: fe5d bdbe f949 4c3c 0eb3 d73e b254 fabd
00000360: c46f e93e 6cf9 4cbd 4133 55be 09d0 a7be
00000370: 1e62 e0be f0bb fabe 52b6 febd 81a4 25be
00000380: ee64 b33c 87d5 e43e d19e 9e3e d3d8 ed3e
00000390: 02e7 f9be 433b ecbe 8122 aa3e 11cd a53e
000003a0: 5e38 663e 060e 803e a0d2 59be 67f9 15be
000003b0: b891 34be 6661 ab3e d19a 1a3e 4f73 693d
000003c0: 7b5e f7bd 2b83 173e 75b8 0cbf a5ea e5bd
000003d0: 5d2c 69bd ea78 2ebe 0780 163d 6660 6dbf
000003e0: 7bfc 6f3e d3f7 f63c 9f57 7cbe f5c6 6bbd
000003f0: b596 b9be a024 2e3e 9d18 ffbd de2b 9b3e

model_s.1.bias f4 [256]
-0.16786303 -0.40280575 -0.48207667 -0.25717354 -0.38143405 -0.4973274 -0.40183333 -0.3760664
-0.31267628 -0.460437 -0.106746264 -0.35256672 -0.22770317 -0.3928387 -0.0910303 -0.07513736
0.16805857 -0.43605885 -0.37188143 -0.21285272 -0.35168374 -0.17463954 -0.3524897 -0.33125407
-0.57400095 0.037151016 -0.3326701 -0.034484435 -0.41640285 -0.30197972 -0.3891426 -0.4187432
-0.27821213 -0.28239036 -0.39839077 -0.1711699 -0.5766781 -0.2639541 -0.28412855 -0.09887362
-0.25077578 -0.28050062 -0.41663018 -0.2796482 -0.31781414 -0.21485242 -0.31529388 -0.38407773
-0.51716316 -0.42009035 -0.3604265 -0.39518008 -0.22940472 -0.15262046 -0.15123866 -0.35768813
-0.39913505 -0.53139687 -0.40652284 -0.32605186 -0.027304709 -0.10885319 -0.12418431 -0.018392034
-0.41341117 -0.3248216 -0.20269033 -0.021720089 -0.05251442 -0.42969608 -0.047719143 -0.117934264
-0.13785668 -0.3981217 -0.32087457 0.3507946 -0.27361616 -0.43363634 -0.2540183 -0.16932812
-0.4200362 -0.4498554 -0.37390894 -0.24699086 -0.31144938 -0.14591579 -0.32615727 -0.25749362
-0.28721386 -0.43064177 -0.3143285 -0.29533392 -0.24941455 -0.32132107 -0.36766416 -0.25341785
0.10064711 -0.0178331 -0.29247355 -0.30535594 -0.5481889 -0.3470166 -0.12275412 -0.12306374
-0.28820285 -0.15019311 -0.46558702 -0.4521943 -0.3136125 -0.043712158 -0.35852242 -0.25760832
-0.1288442 -0.11924837 -0.3899234 -0.009742593 -0.47462583 -0.22195195 -0.37900528 -0.044732314
-0.49222997 -0.14765404 -0.4011173 -0.22867869 -0.3587467 -0.123356625 -0.29055658 -0.17995512
-0.27860218 -0.5239221 -0.35696283 -0.30785978 -0.21654196 -0.33769763 -0.4191918 -0.20747752
-0.36133024 -0.33544418 -0.30183578 -0.43838978 -0.22523929 -0.061570928 -0.4938569 -0.14388807
-0.35961866 0.043119784 -0.19884129 -0.1684489 -0.15357387 -0.36674818 -0.14736709 -0.13625805
-0.12766695 -0.13318254 -0.07393954 -0.47970304 -0.1154677 -0.31279144 -0.40949365 -0.58816046
-0.35191527 -0.19070446 -0.32438204 -0.3907945 -0.20801465 -0.37755373 -0.3722692 -0.5292181
-0.4185313 -0.16260417 -0.47750965 -0.3557129 -0.23227227 -0.20463201 -0.36985114 -0.30296415
-0.236372 -0.34596795 -0.5167313 -0.26466385 -0.37182084 -0.5055374 -0.23554412 -0.22613396
-0.05826061 -0.41654176 -0.51335347 -0.248413 -0.3726754 -0.40779907 -0.27018532 -0.09415047
-0.48975185 -0.15551434 -0.32122174 -0.28511044 -0.52355945 -0.20137608 -0.4223896 -0.41580516
-0.47663456 -0.28605705 -0.4860582 -0.25506684 -0.3592433 -0.30293685 -0.44109145 -0.5006633
-0.30004796 -0.28097945 -0.53888035 -0.49726194 -0.06440912 -0.20196873 -0.34866816 -0.4884593
-0.028777294 -0.17884931 0.046287168 -0.4006106 -0.30408987 -0.28778756 -0.18454766 -0.39502504
-0.051748835 -0.3594869 -0.48443982 -0.20006749 -0.2349824 -0.2775995 -0.29264745 -0.2948783
-0.38956928 -0.07749397 -0.3137612 -0.35741428 -0.48517507 -0.5258168 -0.3555729 -0.081464626
-0.30607957 -0.30199242 -0.24301805 -0.27336383 -0.598246 -0.30491483 -0.24531956 -0.43730658
-0.23473984 -0.40087265 -0.35986683 -0.3231575 -0.47631904 -0.5054332 -0.19809845 -0.2583415
00000000: 49e4 2bbe 8e3c cebe c1d2 f6be 40ac 83be
00000010: 534b c3be b2a1 febe 19bd cdbe c68b c0be
00000020: 1b17 a0be 66be ebbe c99d dabd a083 b4be
00000030: 052b 69be 2722 c9be 186e babd 9ee1 99bd
00000040: 8c17 2c3e 1b43 dfbe 3e67 bebe 10f6 59be
00000050: e40f b4be b5d4 32be 8879 b4be 229a a9be
00000060: baf1 12bf aa2b 183d bc53 aabe 8d3f 0dbd
00000070: c132 d5be 169d 9abe b33d c7be 8265 d6be
00000080: d271 8ebe 7895 90be e0f9 cbbe 2a47 2fbe
00000090: 2da1 13bf fe24 87be 4c79 91be 417e cabd
000000a0: af65 80be c79d 8fbe 8d50 d5be 0d2e 8fbe
000000b0: 89b8 a2be 4602 5cbe 336e a1be d6a5 c4be
000000c0: ce64 04bf 1516 d7be d289 b8be 0b55 cabe
000000d0: 12e9 6abe 8a48 1cbe 4fde 1abe e622 b7be
000000e0: 6e5b ccbe a009 08bf c323 d0be 45f0 a6be
000000f0: 20ae dfbc 6cee debd 5854 febd e4aa 96bc
00000100: a1aa d3be 044f a6be 0e8e 4fbe 54ee b1bc
00000110: 5c19 57bd 2001 dcbe 2675 43bd 8587 f1bd
00000120: 4d2a 0dbe 9cd6 cbbe ac49 a4be 5a9b b33e
00000130: 6b17 8cbe 9505 debe b00e 82be 5a64 2dbe
00000140: fc0e d7be 7253 e6be fe70 bfbe 2ceb 7cbe
00000150: 4b76 9fbe f36a 15be 16fe a6be 34d6 83be
00000160: b20d 93be 147d dcbe aaef a0be 0236 97be
00000170: 8766 7fbe 3284 a4be 7a3e bcbe fcbf 81be
00000180: 1220 ce3d b916 92bc 18bf 95be 9d57 9cbe
00000190: 1c56 0cbf 29ac b1be 8366 fbbd d808 fcbd
000001a0: 538f 93be 39cc 19be 6c61 eebe 0386 e7be
000001b0: d191 a0be 850b 33bd 4090 b7be 3de5 83be
000001c0: bcef 03be 7d38 f4bd 0aa4 c7be 669f 1fbc
000001d0: 2802 f3be 5f47 63be fb0c c2be 3b39 37bd
000001e0: 9105 fcbe 9f32 17be 3f5f cdbe bf2a 6abe
000001f0: a6ad b7be 66a2 fcbd d5c3 94be 2846 38be
00000200: f2a4 8ebe c21f 06bf d5c3 b6be cc9f 9dbe
00000210: 2dbd 5dbe b4e6 acbe 4fa0 d6be fd74 54be
00000220: 4700 b9be 57bf abbe 388a 9abe a074 e0be
00000230: 21a5 66be cc31 7cbd d0da fcbe 6557 13be
00000240: f01f b8be 5f9e 303d 0d9d 4bbe de7d 2cbe
00000250: 7842 1dbe 6bc6 bbbe 66e7 16be 3b87 0bbe
00000260: 20bb 02be 0161 08be 9d6d 97bd a39b f5be
00000270: 547a ecbd 3326 a0be 27a9 d1be af91 16bf
00000280: 3d2e b4be 0848 43be 6715 a6be 3716 c8be
00000290: cb01 55be b94e c1be 129a bebe d67a 07bf
000002a0: bc49 d6be b581 26be 257c f4be 0020 b6be
000002b0: c8d8 6dbe 0e8b 51be 215d bdbe 1e1e 9bbe
000002c0: 800b 72be b622 b1be 8148 04bf 0582 87be
000002d0: 4d5f bebe e66a 01bf 7a32 71be a98f 67be
000002e0: ada2 6ebd f644 d5be 226b 03bf fa5f 7ebe
000002f0: 4fcf bebe 0acb d0be bb55 8abe f6d1 c0bd
00000300: c1c0 fabe 273f 1fbe 2d77 a4be fff9 91be
00000310: fe07 06bf 8835 4ebe 7343 d8be 6ae4 d4be
00000320: 7209 f4be 1276 92be 9fdc f8be 1f98 82be
00000330: bdee b7be 8a1a 9bbe bdd6 e1be 782b 00bf
00000340: e39f 99be 8adc 8fbe 10f4 09bf 1e99 febe
00000350: eee8 83bd e4d0 4ebe a284 b2be 5617 fabe
00000360: 5cbe ebbc 4624 37be 9d97 3d3d d51c cdbe
00000370: abb1 9bbe e458 93be 10fa 3cbe b940 cabe
00000380: 96f6 53bd ab0e b8be 7f08 f8be 7ede 4cbe
00000390: 3a9f 70be 8621 8ebe e3d5 95be 4afa 96be
000003a0: a075 c7be 29b5 9ebd 4fa5 a0be 01ff b6be
000003b0: de68 f8be ee9b 06bf a70d b6be edd6 a6bd
000003c0: 76b6 9cbe c09e 9abe b9d9 78be 58f6 8bbe
000003d0: a626 19bf cc1d 9cbe 0d35 7bbe a6e6 dfbe
000003e0: a45f 70be 2e3f cdbe 7740 b8be e674 a5be
000003f0: 17e0 f3be 1264 01bf 52da 4abe 5645 84be

model_sa.0.weight f4 [128, 260]
-0.19130637 0.0976641 0.10658014 0.044381183 0.24079637 0.059766572 0.107326955 -0.055729326
-0.1465649 -0.096322194 -0.6979625 0.12771967 -0.2795492 -0.18380071 0.07028166 0.23550911
0.031233778 -0.022126053 0.11609436 -0.17460169 -0.20565541 0.06922526 -0.011025649 -0.23295552
0.16697885 -0.1872704 -0.03529162 0.09101835 -0.30325723 -0.57684165 -0.2732073 0.19675213
0.31633005 -0.4468759 -0.17611206 -0.59695643 0.14423259 0.017718032 -0.43434447 -0.6557887
-0.35054532 -0.22347167 0.2527024 -0.48254764 -0.33012727 -0.21319138 0.062308364 0.12574397
0.1739669 -0.4726237 -0.33993098 -0.040821653 0.23499352 0.4537001 -0.09818805 0.021423904
-0.103109 -0.18657655 -0.1749502 -0.17582166 -0.115457594 -0.3635632 -0.1746044 -0.41068292
0.43135548 0.005784002 -0.1683246 0.29287213 0.1458612 0.052992664 -0.2514496 -0.10176061
-0.009458468 -0.064741544 0.32233733 -0.0013325359 0.21073052 -0.16187316 -0.56378126 -0.18585408
-0.33620682 0.32595745 -0.2449698 -0.09098795 -0.86147255 -0.06953472 0.39414576 -0.13630243
0.16722248 0.18167958 0.25368345 0.05204007 -0.3690327 -0.38012663 0.036638007 0.2641463
0.15047841 -0.019538382 -0.39714843 0.27446252 -0.23908289 -0.40683654 -0.055932324 -0.18548232
0.06949326 -1.1720524 -0.48263064 0.10340406 0.028735649 0.024768842 -0.12548125 0.12030309
0.24757184 0.5779744 -0.1995021 0.2916372 -0.19042076 -0.147251 0.2979401 -0.13541695
0.03915569 -0.35754085 0.01635054 0.023231946 0.124361984 0.21688242 -0.24000038 -0.027011096
0.22509567 0.15069865 -0.18776292 0.002693439 0.4425107 -0.13594149 -0.24657387 -0.08256127
-0.055120833 -0.14794903 -0.06789812 0.09658406 -0.13447487 -0.08885705 -0.29275712 0.08386697
0.048295237 0.17555422 -0.5085332 -0.055336054 -0.014947597 -0.28366327 0.405175 -0.5760061
0.09578739 -0.27557188 -0.13195142 -0.26636347 0.026469711 0.51929384 0.39483625 0.2883584
-0.30968994 -0.24846914 0.16160652 0.1608604 -0.4987926 -0.15503874 -0.08826314 -0.15171526
-0.046230715 -0.06936665 0.49774083 -0.37167224 0.26127297 -0.12160745 -0.762429 -0.43844405
0.192371 -0.76937187 -0.002417726 0.33475944 -0.0009379446 -0.1774278 -0.038971066 -0.6000943
-0.7152516 0.16086227 0.7004097 -0.01724812 0.1865899 -0.14970997 -0.81899416 0.23412396
-0.538325 -0.39992183 0.027357474 0.066371806 0.3574902 0.02735428 -0.02745908 -0.7022856
0.05484375 -0.7926461 -0.10813054 0.02837065 0.25466958 -0.039190814 -0.21949644 -0.3790457
-0.7822826 0.18604437 0.375398 0.22889462 0.11258994 0.29677632 0.04979498 -0.08376417
0.35672024 -0.40996403 -0.16774435 -0.023684897 -0.12275673 -0.34547788 -0.30186188 -0.23250939
-0.02425552 -0.5221647 0.092208825 -0.2469775 -0.2136011 -0.00849091 -0.28370965 0.17239144
-0.30858988 0.48178795 -0.31697112 -0.12950575 -0.1500284 -0.10774947 -0.29204032 -0.20128638
0.13887708 0.5529639 0.22758234 -0.42883748 -0.056516767 0.025207633 0.083508216 -0.6463031
-0.74050087 -0.5292072 -0.07266442 0.18501036 0.30927283 -0.10625258 0.031439632 0.09685183
00000000: d1e5 43be 1e04 c83d b046 da3d 0bc9 353d
00000010: 5393 763e cbcd 743d 3cce db3d 6f44 64bd
00000020: 1c15 16be 9244 c5bd acad 32bf f2c8 023e
00000030: 1321 8fbe 4136 3cbe d5ef 8f3d 4d29 713e
00000040: fbdd ff3c b241 b5bc e1c2 ed3d c9ca 32be
00000050: 5597 52be f9c5 8d3d eca4 34bc e48b 6ebe
00000060: 81fc 2a3e d0c3 3fbe f28d 10bd d467 ba3d
00000070: 8844 9bbe e5ab 13bf d4e1 8bbe 6479 493e
00000080: 03f6 a13e ebcc e4be b856 34be 23d2 18bf
00000090: b5b1 133e 6825 913c 6662 debe c5e1 27bf
000000a0: ad7a b3be c2d5 64be 3562 813e 7c10 f7be
000000b0: 7106 a9be d74e 5abe 0e37 7f3d 07c3 003e
000000c0: 6124 323e bcfb f1be 6f0b aebe 9b34 27bd
000000d0: 24a2 703e 614b e83e d116 c9bd 2f81 af3c
000000e0: d02a d3bd ec0d 3fbe 2526 33be 980a 34be
000000f0: 0875 ecbd f524 babe 7fcb 32be 0845 d2be
00000100: a0da dc3e ba87 bd3b 495d 2cbe 56f3 953e
00000110: a35c 153e d60e 593d 01be 80be de67 d0bd
00000120: b1f7 1abc 3797 84bd 6609 a53e 7ca8 aeba
00000130: bec9 573e 14c2 25be f853 10bf 8850 3ebe
00000140: 4d23 acbe e5e3 a63e 5dd9 7abe e457 babd
00000150: 7789 5cbf 3868 8ebd 79cd c93e dd92 0bbe
00000160: 5f3c 2b3e 360a 3a3e cce2 813e f827 553d
00000170: dbf1 bcbe f59f c2be bc11 163d 2f3e 873e
00000180: 0317 1a3e f50e a0bc 0a57 cbbe 5a86 8c3e
00000190: 25d2 74be e14c d0be 4b19 65bd 14ef 3dbe
000001a0: 7b52 8e3d d005 96bf 5d1b f7be 82c5 d33d
000001b0: 0667 eb3c 07e8 ca3c 287e 00be 7761 f63d
000001c0: 7983 7d3e 21f6 133f 474a 4cbe 7951 953e
000001d0: a9fd 42be f7c8 16be 9b8b 983e beaa 0abe
000001e0: b861 203d 980f b7be 91f1 853c ec50 be3c
000001f0: 7fb1 fe3d 6d16 5e3e a9c2 75be 6046 ddbc
00000200: 7b7f 663e bf50 1a3e ec44 40be 6884 303b
00000210: c390 e23e 3f34 0bbe dc7d 7cbe e215 a9bd
00000220: 62c6 61bd f37f 17be 2b0e 8bbd ddcd c53d
00000230: c8b3 09be affa b5bd 43e4 95be 72c2 ab3d
00000240: 3ad1 453d 7cc4 333e 3b2f 02bf 0fa8 62bd
00000250: c4e6 74bc 503c 91be 1973 cf3e 2375 13bf
00000260: 2e2c c43d c217 8dbe 461e 07be cb60 88be
00000270: 02d7 d83c 71f0 043f fa27 ca3e b6a3 933e
00000280: ae8f 9ebe b26e 7ebe 2e7c 253e 97b8 243e
00000290: be61 ffbe 7ac2 1ebe 4ec3 b4bd 3f5b 1bbe
000002a0: 6b5c 3dbd 1a10 8ebd e3d7 fe3e d34b bebe
000002b0: 92c5 853e 540d f9bd 8c2e 43bf bd7b e0be
000002c0: e7fc 443e 8ef5 44bf b672 1ebb 9765 ab3e
000002d0: 66e0 75ba a2af 35be 20a0 1fbd c89f 19bf
000002e0: bb1a 37bf 14b9 243e 0d4e 333f ee4b 8dbc
000002f0: 6c11 3f3e 924d 19be 9aa9 51bf 31be 6f3e
00000300: abcf 09bf 8ec2 ccbe c81c e03c f1ed 873d
00000310: f508 b73e 1516 e03c ddf1 e0bc fdc8 33bf
00000320: d7a3 603d dbea 4abf 8b73 ddbd 9169 e83c
00000330: 0d64 823e 8c86 20bd adc3 60be 4712 c2be
00000340: ac43 48bf 6a82 3e3e 2b34 c03e 5a63 6a3e
00000350: 8e95 e63d 11f3 973e d2f5 4b3d 8d8c abbd
00000360: 09a4 b63e cee6 d1be 2dc5 2bbe d406 c2bc
00000370: e167 fbbd 7ae2 b0be a48d 9abe f116 6ebe
00000380: 83b3 c6bc 96ac 05bf fbd7 bc3d abe7 7cbe
00000390: 3fba 5abe 751d 0bbc 6442 91be 6287 303e
000003a0: 7eff 9dbe e9ac f63e 0a4a a2be 289d 04be
000003b0: 0ba1 19be c1ab dcbd 4f86 95be 041e 4ebe
000003c0: cb35 0e3e 0b8f 0d3f 580b 693e 9690 dbbe
000003d0: 207e 67bd 3d80 ce3c 5b06 ab3d 1f74 25bf
000003e0: 7791 3dbf 207a 07bf 15d1 94bd 5b73 3d3e
000003f0: 0259 9e3e f49a d9bd d8c6 003d 415a c63d

model_sa.0.bias f4 [128]
-0.21945696 0.3856263 -0.6028107 0.49856755 -0.1106538 -0.3686574 -0.26121622 0.7605889
-0.41667473 -0.043782443 -0.48545778 -0.35688117 -0.48544696 0.47226554 0.27374783 -0.46732345
0.6644164 0.111264825 -0.20427753 -0.5551147 -0.257922 -0.100369975 -0.73510575 -0.48485154
0.19685364 0.23693322 0.31266147 0.58794445 -0.6240518 -0.43009886 -0.50643826 0.9687318
-0.2372102 -0.29068863 -0.038806833 -0.1787549 0.53072864 0.3804837 -0.4340446 0.011687636
-0.62376463 0.7415151 -0.5337718 0.5690054 0.7565428 -0.22013487 0.41797873 -0.64978343
-0.5409432 -0.1842368 0.6389715 -0.43045107 0.18559512 -0.3810237 -0.4151356 -0.39978275
0.4413214 0.6021487 0.4254253 -0.2506869 -0.33277416 -0.5725886 -0.4003706 -0.6987942
-0.35002154 -0.16927129 0.90693116 -0.3318343 0.51856935 0.52252424 -0.5164965 0.16383846
-0.047808338 -0.54001576 -0.055366047 -0.47464085 -0.0124424575 -0.58293283 -0.30874115 -0.332557
-0.6202337 -0.09591173 0.52319115 0.5228675 0.55788994 -0.61529464 -0.5452367 -0.39335102
-0.19877863 0.19220741 0.032030523 -0.117764406 0.29124942 -0.59720385 0.4931491 -0.6362544
0.1101835 0.7292116 -0.35095477 -0.40283096 -0.59604037 -0.29704732 -0.3736876 -0.11745527
-0.26048467 -0.6842332 -0.46205398 -0.33241025 -0.20675385 -0.21983953 -0.21846825 -0.08368543
-0.53418154 -0.31351072 -0.17840491 0.28811184 -0.2208745 -0.29921958 0.41040587 0.21865371
0.5354226 -0.35795483 -0.46127924 1.0033365 -0.3573058 0.8707499 -0.25684425 -0.08828285
00000000: 53b9 60be cf70 c53e cd51 1abf 3f44 ff3e
00000010: 769e e2bd aac0 bcbe 22be 85be f4b5 423f
00000020: 6456 d5be 3855 33bd ec8d f8be 21b9 b6be
00000030: 818c f8be cacc f13e ad28 8c3e 0545 efbe
00000040: 3117 2a3f d0de e33d 212e 51be ff1b 0ebf
00000050: 5a0e 84be c68e cdbd e42f 3cbf 763e f8be
00000060: 0094 493e 9f9e 723e 2a15 a03e 8783 163f
00000070: dcc1 1fbf eb35 dcbe f0a5 01bf cffe 773f
00000080: 3be7 72be 24d5 94be eaf3 1ebd 860b 37be
00000090: d5dd 073f c2ce c23e 183b debe 807d 3f3c
000000a0: 0aaf 1fbf efd3 3d3f 45a5 08bf 57aa 113f
000000b0: caac 413f 096b 61be 4f01 d63e 3558 26bf
000000c0: 417b 0abf 92a8 3cbe a393 233f 1564 dcbe
000000d0: a60c 3e3e 8a15 c3be a78c d4be 53b0 ccbe
000000e0: e1f4 e13e 6b26 1a3f 58d1 d93e 095a 80be
000000f0: 6061 aabe 2b95 12bf 60fd ccbe 2de4 32bf
00000100: 0636 b3be 7455 2dbe a42c 683f 2fe6 a9be
00000110: f6c0 043f 26c4 053f 1d39 04bf 45c5 273e
00000120: add2 43bd 793e 0abf 82c7 62bd 2004 f3be
00000130: 73db 4bbc 163b 15bf 5213 9ebe e944 aabe
00000140: a3c7 1ebf 5e6d c4bd dbef 053f a5da 053f
00000150: e0d1 0e3f f383 1dbf a294 0bbf 4e65 c9be
00000160: a08c 4bbe 05d2 443e 7032 033d 772e f1bd
00000170: a51e 953e 5ae2 18bf 0a7e fc3e 91e1 22bf
00000180: e3a7 e13d 9dad 3a3f 58b0 b3be dc3f cebe
00000190: 1a96 18bf 9616 98be fb53 bfbe 638c f0bd
000001a0: 3f5e 85be e829 2fbf 5792 ecbe ad31 aabe
000001b0: 48b7 53be 9d1d 61be 24b6 5fbe 4463 abbd
000001c0: 1fc0 08bf 7a84 a0be c7af 36be 6583 933e
000001d0: ed2c 62be 4f33 99be b820 d23e c2e6 5f3e
000001e0: 7511 093f db45 b7be cb2c ecbe 556d 803f
000001f0: c9f0 b6be 77e9 5e3f 1781 83be a4cd b4bd

model_sa.2.weight f4 [64, 128]
-0.48643318 0.13932669 -0.35261306 0.0677292 -0.24086295 -0.2634267 -0.25932142 0.04851728
-0.42881495 0.05683777 -0.19796811 -0.0017513551 -0.17473862 0.087739944 0.26860887 -0.27737036
0.40666324 -0.09923068 -0.26567414 -0.55566305 -0.49352103 -0.5531899 -0.13638051 -0.56906873
-0.24097662 -0.018094577 0.3462648 -0.03336468 -0.047258385 -0.172825 0.18293378 0.47738197
-0.11395988 -0.030800337 0.038544036 -0.5480145 -0.012494284 0.13509256 -0.51373404 0.057390038
-0.27741012 0.124308966 -0.09279363 -0.07887279 0.18420625 -0.61251855 0.24213126 -0.3441447
-0.0009876976 0.19932245 -0.13788645 0.18965736 0.056101535 -0.014003388 -0.034889184 0.18257348
0.2417695 0.07978942 0.07666592 0.015372244 -0.319852 -0.16512413 -0.22672069 -0.2686331
0.016348155 -0.03884628 0.15155682 0.06849195 0.2544645 0.15865207 -0.16493012 -0.19380073
0.052344177 -0.24516323 -0.47198057 -0.37249 -0.49054998 0.08953899 -0.39976746 -0.32863668
-0.20722383 -0.33164325 0.05783132 0.17329876 0.34339416 -0.09900481 0.1634416 -0.33278546
-0.2648772 -0.12309869 -0.07923313 -0.18064083 0.5540744 -0.14394484 0.15790474 -0.059357908
-0.08930687 0.3540607 -0.5588091 -0.6428423 0.26663944 -0.25342286 -0.2695631 -0.2164705
-0.03753013 -0.059658326 -0.18031806 -0.08003927 -0.17113541 -0.1415376 -0.25323978 -0.09400516
-0.17074925 -0.10865819 0.060633253 -0.054738108 -0.36560917 0.033054154 -0.051125254 0.0046918583
0.33027828 -0.20325677 -0.15709066 0.42706898 -0.31989574 0.19099534 -0.20933726 -0.15378949
-0.05761237 0.22261056 -0.05504553 -0.21903378 0.00048321838 -0.115552224 0.02688173 0.3099067
-0.09441217 0.14925657 -0.08313743 -0.2122657 -0.10404831 0.03005722 0.31903154 0.025318101
0.06412568 0.07373872 0.06789775 -0.05418205 -0.1973478 0.13852288 -0.10857592 -0.05726401
0.060065687 0.219455 0.16410051 0.15973768 -0.10659727 -0.09871765 0.35890412 0.43420514
-0.3345014 0.10516446 -0.16239457 0.13223812 0.11079441 0.0893039 -0.052573614 0.25091967
0.053610805 0.3750685 -0.13577762 0.019267302 0.33329144 -0.026580183 0.3096676 -0.087485336
-0.12581195 0.20826758 0.07940432 -0.09537955 0.11770784 -0.09069157 -0.08847629 -0.18487354
-0.0028658167 -0.01653294 0.06905523 -0.020414488 -0.21866238 -0.034722093 0.23260142 -0.26503837
-0.13029358 0.2843805 0.15169004 0.13095881 0.21271308 -0.038907025 -0.122881085 -0.010827452
0.090011 -0.12270272 -0.23520325 -0.12527145 0.076838806 -0.24646698 0.1940703 -0.11852199
-0.1430619 -0.001944393 0.3358049 0.09320987 0.3964531 -0.0699165 0.045186788 -0.15258823
-0.16712956 -0.09700507 0.39023012 0.3456059 0.22745204 -0.12626258 0.06469362 -0.19306281
0.010226516 0.19892025 -0.34627914 -0.1390835 -0.11309638 -0.15865256 -0.143583 -0.10815458
-0.31580457 -0.07715437 -0.08750039 -0.11988472 -0.26366 0.056608506 -0.0940183 0.056764524
-0.2642148 -0.11999461 -0.12885927 0.18258254 0.15389077 0.231236 0.1635492 -0.27579612
0.4151515 -0.1560745 0.15192108 0.5690615 0.04096007 0.36559924 -0.27368557 -0.109545134
00000000: c50d f9be a8ab 0e3e b389 b4be 9bb5 8a3d
00000010: c7a4 76be dddf 86be c7c5 84be 0eba 463d
00000020: a28d dbbe b9ce 683d 27b8 4abe ba8d e5ba
00000030: aeee 32be 00b1 b33d 1a87 893e 7d03 8ebe
00000040: 2a36 d03e 7439 cbbd 7106 88be ef3f 0ebf
00000050: caae fcbe da9d 0dbf 55a7 0bbe 7dae 11bf
00000060: 93c2 76be 143b 94bc 9f49 b13e 67a9 08bd
00000070: 0292 41bd 09f9 30be fe52 3b3e 696b f43e
00000080: cc63 e9bd fd50 fcbc 5ae0 1d3d ae4a 0cbf
00000090: d3b4 4cbc b455 0a3e 1384 03bf d111 6b3d
000000a0: b308 8ebe b395 fe3d 960a bebd 0f88 a1bd
000000b0: 90a0 3c3e 04ce 1cbf 42f1 773e bc33 b0be
000000c0: a275 81ba 2f1b 4c3e 1b32 0dbe 8a35 423e
000000d0: b9ca 653d 776e 65bc f6e7 0ebd 8bf4 3a3e
000000e0: 6c92 773e a368 a33d 0603 9d3d dddb 7b3c
000000f0: a4c3 a3be 4d16 29be 7829 68be 478a 89be
00000100: 91ec 853c 471d 1fbd b631 1b3e 8245 8c3d
00000110: 2c49 823e b075 223e 71e3 28be b373 46be
00000120: d966 563d 120c 7bbe 70a7 f1be 02b7 bebe
00000130: 5e29 fbbe 3860 b73d 52ae ccbe 1143 a8be
00000140: 7c32 54be 25cd a9be 89e0 6c3d 3b75 313e
00000150: 5cd1 af3e 09c3 cabd 3c5d 273e db62 aabe
00000160: fc9d 87be 2a1b fcbd fb44 a2bd e9f9 38be
00000170: d2d7 0d3f 4766 13be c8b1 213e 4721 73bd
00000180: 85e6 b6bd 7247 b53e 1d0e 0fbf 5091 24bf
00000190: f784 883e a4c0 81be 2d04 8abe 71aa 5dbe
000001a0: 32b9 19bd 4a5c 74bd 4ca5 38be a1eb a3bd
000001b0: 1f3e 2fbe 3cef 10be a5a8 81be c785 c0bd
000001c0: e4d8 2ebe 2f88 debd 935a 783d 1135 60bd
000001d0: 2031 bbbe cb63 073d b768 51bd 29be 993b
000001e0: 3c1a a93e 8b22 50be 60dc 20be c9a8 da3e
000001f0: 60c9 a3be 4894 433e 825c 56be fe7a 1dbe
00000200: f3fa 6bbd 06f4 633e 6c77 61bd 644a 60be
00000210: 7958 fd39 a5a6 ecbd 1337 dc3c 17ac 9e3e
00000220: 2b5b c1bd b7d6 183e f543 aabd 2e5c 59be
00000230: 4817 d5bd 8f3a f63c 1a58 a33e e867 cf3c
00000240: 5354 833d 5304 973d fa0d 8b3d ffed 5dbd
00000250: 8b15 4abe f1d8 0d3e 0d5d debd ab8d 6abd
00000260: 7007 763d d0b8 603e f709 283e 4692 233e
00000270: ab4f dabd 7b2c cabd 48c2 b73e 2350 de3e
00000280: c443 abbe 7760 d73d c34a 26be 6e69 073e
00000290: 2ee8 e23d f7e4 b63d 6e57 57bd 8b78 803e
000002a0: 0197 5b3d fa08 c03e 4a09 0bbe 76d6 9d3c
000002b0: 2da5 aa3e afbe d9bc c08c 9e3e 832b b3bd
000002c0: d9d4 00be 1944 553e bb9e a23d 5a56 c3bd
000002d0: cf10 f13d 80bc b9bd 0f33 b5bd 7d4f 3dbe
000002e0: 6dd0 3bbb 1770 87bc d46c 8d3d 493c a7bc
000002f0: 08e9 5fbe c138 0ebd 112f 6e3e 1cb3 87be
00000300: ae6b 05be 529a 913e a254 1b3e 111a 063e
00000310: 75d1 593e f95c 1fbd 14a9 fbbd a065 31bc
00000320: b057 b83d 904b fbbd 1fd9 70be 2947 00be
00000330: aa5d 9d3d d761 7cbe 5dba 463e a8bb f2bd
00000340: d27e 12be 01db feba 9fee ab3e d1e4 be3d
00000350: e7fb ca3e 6230 8fbd c815 393d 1740 1cbe
00000360: 0324 2bbe 98aa c6bd 3ecc c73e 42f3 b03e
00000370: 30e9 683e fa4a 01be 177e 843d 42b2 45be
00000380: 1e8d 273c c0b1 4b3e 804b b1be e86b 0ebe
00000390: 139f e7bd d175 22be 6c07 13be 2680 ddbd
000003a0: 23b1 a1be 1c03 9ebd 6833 b3bd 1f86 f5bd
000003b0: 72fe 86be 52de 673d ab8c c0bd eb81 683d
000003c0: 2a47 87be bcbf f5bd aff3 03be ebf6 3a3e
000003d0: 8b95 1d3e 21c9 6c3e 7179 273e 2635 8dbe
000003e0: bd8e d43e fed1 1fbe 3391 1b3e 04ae 113f
000003f0: bfc5 273d d32f bb3e 8420 8cbe 3359 e0bd

model_sa.2.bias f4 [64]
0.82317626 1.2165047 -0.4094815 -0.13981128 0.39360452 -0.5607323 -0.91550267 0.67844856
0.3798118 -0.6090984 -0.29920492 1.0220063 0.69035214 0.8732424 -0.47537732 0.35291523
-0.48632103 0.9541195 -0.10587628 0.66156316 0.14059246 0.56776315 -0.03283681 -0.14894365
-0.58039457 -0.3532251 0.016699657 -0.59499407 1.0642437 1.0072399 -0.4624752 -0.32392564
0.28554714 -0.7043715 0.45839474 1.2611572 -0.12503465 0.072156556 1.115969 -0.533804
-0.51713276 0.1663301 0.9997259 -0.4456309 -0.3887553 0.4506451 0.34811565 1.2085218
1.1217893 -0.53684443 -0.21945226 0.9778496 -0.7005689 0.66250587 -0.12676506 -0.12898977
-0.81278235 -0.25453553 -0.2101525 -0.2045425 -0.4656877 -0.4927285 1.088341 0.6659352
00000000: aebb 523f 6db6 9b3f 8fa7 d1be b02a 0fbe
00000010: 8886 c93e 278c 0fbf 625e 6abf ceae 2d3f
00000020: b176 c23e dfed 1bbf 6331 99be 1ad1 823f
00000030: ebba 303f d08c 5f3f a864 f3be 4eb1 b43e
00000040: 12ff f8be 2d41 743f aad5 d8bd 345c 293f
00000050: 78f7 0f3e ed58 113f e47f 06bd af84 18be
00000060: bd94 14bf ecd9 b4be b8cd 883c 8851 18bf
00000070: 2339 883f 3ded 803f 8dc9 ecbe 95d9 a5be
00000080: 3c33 923e b151 34bf b7b2 ea3e 996d a13f
00000090: 1509 00be d1c6 933d 12d8 8e3f 61a7 08bf
000000a0: d062 04bf 7052 2a3e 09ee 7f3f bc29 e4be
000000b0: ef0a c7be f4ba e63e 373c b23e d8b0 9a3f
000000c0: cb96 8f3f a36e 09bf 18b8 60be 5a54 7a3f
000000d0: 7c58 33bf fc99 293f b3ce 01be e515 04be
000000e0: 8112 50bf 7b52 82be 3832 57be 9773 51be
000000f0: 9e6e eebe e946 fcbe c24e 8b3f bb7a 2a3f

model_sa.4.weight f4 [32, 64]
0.029774902 -0.26680803 -0.23897545 0.44687214 0.40849757 0.24674335 -0.22688326 -0.3637711
-0.5067614 -0.5997119 -0.47444174 0.17881666 -0.37038696 0.121072955 -0.3739222 0.2858311
-0.3735199 0.08924473 -0.5707141 -0.5388773 0.6005731 0.27045697 -0.68301857 0.21052922
0.007943708 0.037879225 -0.32890385 -0.6364515 -0.14687486 0.11634579 -0.2914676 -0.13470124
0.5845465 -0.26798677 0.264491 -0.22389902 0.4406267 -0.4873494 0.042954613 0.15188396
-0.28974643 0.011383799 0.100005485 -0.23262522 -0.20366375 0.24263196 0.28927466 -0.27259654
-0.080212116 -0.9755179 -0.54226154 0.35961542 -1.0237112 -0.04718316 -0.57171106 1.3852876
-0.41762534 -0.4840586 -0.49367648 -0.40930074 0.0042068926 -0.627455 -0.02108497 0.035757177
0.21365497 0.19903201 0.056110613 0.02089542 0.09505481 0.043328375 -0.0861647 0.19854379
0.078827485 -0.036213297 -0.08727586 0.12798342 0.17656712 0.15576577 0.07251007 0.20487556
-0.069285005 0.26969188 -0.19396414 0.09069503 -0.01957197 0.1143953 0.058650307 0.041472893
-0.11365326 -0.10372676 0.15701221 -0.15650134 0.1536723 0.20347004 -0.15624978 -0.07138689
0.19178455 -0.15523922 0.23884492 0.1579182 0.121679366 0.15296549 0.04688355 -0.0025773873
-0.06589946 0.19969091 0.0041482514 -0.10316891 0.08069625 0.10884458 0.22001915 0.10133896
-0.059483934 0.0013052888 0.09763276 0.26248175 -0.1606614 0.11903834 -0.17394882 -0.00782923
-0.11277402 -0.07453076 0.053035676 -0.11017345 -0.10905368 -0.14493744 0.27516896 0.031616725
-0.06406873 0.2797748 -0.1284511 0.09885721 0.021897258 -0.10736941 -0.306555 0.35860154
-0.3864557 -0.11427096 -0.0009689484 -0.2734373 -0.46825892 0.12578316 0.12068399 -0.0015565607
-0.077857226 -0.13065654 -0.31197777 -0.2438563 0.17128353 0.013436069 -0.55004776 -0.13196102
0.096456975 -0.20489904 -0.08974177 -0.3812852 -0.0872863 0.26358366 -0.7021298 -0.33031747
-0.10142902 -0.47164518 -0.29529774 -0.29258773 -0.21613462 -0.07050213 0.045564324 -0.45772678
0.1534335 0.02293169 -0.016144237 -0.5680279 -0.054035667 -0.4386865 0.0002269407 -0.21606642
-0.3032349 -0.46523333 -0.48981696 -0.10956273 -0.55646914 0.19537309 -0.05324968 0.18702647
-0.30903104 -0.019365754 -0.21216711 0.14098932 -0.3847034 -0.4575472 -0.051572237 0.052559752
0.15984797 -0.31485048 -0.27712473 0.12163817 -0.011622401 -0.2556518 -0.33835 -0.003275515
-0.15214957 -0.12276115 -0.35321042 -0.30561644 -0.14518021 -0.042458773 -0.07390807 -0.10595948
-0.18089262 0.053130202 -0.12275169 -0.077006124 0.061659005 0.06688149 -0.18161492 0.10858336
-0.109213516 -0.34884602 0.031792246 -0.0385527 -0.2479085 0.05845809 -0.09359691 0.1545573
0.1369405 -0.3436347 -0.040637944 -0.105965376 -0.007261278 -0.1149549 -0.15284124 -0.14244924
0.23434408 -0.14663829 -0.07276273 -0.23340501 0.08064516 -0.17438652 0.1900501 -0.18681256
-0.13950202 -0.11224452 -0.015978966 0.34682843 0.059778705 -0.10603489 -0.13257179 0.3345448
0.029321106 -0.12362825 0.12809466 -0.16192886 -0.34036335 -0.38501546 -0.110867 -0.16990535
00000000: 7fea f33c 109b 88be fbb5 74be 6dcc e43e
00000010: 9826 d13e 4aaa 7c3e 1654 68be 3540 babe
00000020: 1dbb 01bf b886 19bf 07ea f2be b71b 373e
00000030: 5ca3 bdbe 19f5 f73d bb72 bfbe 7458 923e
00000040: 003e bfbe f1c5 b63d 521a 12bf ddf3 09bf
00000050: 29bf 193f 5679 8a3e 4eda 2ebf f994 573e
00000060: 5426 023c 3f27 1b3d 1666 a8be 7cee 22bf
00000070: 5d66 16be b446 ee3d 3e3b 95be 1fef 09be
00000080: d7a4 153f 9035 89be 5d6b 873e c945 65be
00000090: d399 e13e dc85 f9be 2df1 2f3d 7887 1b3e
000000a0: a559 94be 1d83 3a3c adcf cc3d 4e35 6ebe
000000b0: 3b8d 50be 8374 783e cf1b 943e c691 8bbe
000000c0: 4046 a4bd 8bbb 79bf a7d1 0abf 831f b83e
000000d0: f808 83bf 2143 41bd a85b 12bf 1b51 b13f
000000e0: fdd2 d5be 87d6 f7be 2ac3 fcbe de8f d1be
000000f0: f9d9 893b e4a0 20bf 63ba acbc 1e76 123d
00000100: 5ec8 5a3e 0ccf 4b3e 3ed4 653d df2c ab3c
00000110: 19ac c23d 1879 313d 1e77 b0bd 104f 4b3e
00000120: 4e70 a13d 6554 14bd b0bd b2bd 160e 033e
00000130: 03ce 343e 1081 1f3e 2980 943d e6ca 513e
00000140: 4ce5 8dbd 0e15 8a3e 899e 46be 51be b93d
00000150: 6555 a0bc 1548 ea3d 4e3b 703d 7bdf 293d
00000160: 0ac3 e8bd b26e d4bd cfc7 203e e341 20be
00000170: 455c 1d3e 735a 503e f1ff 1fbe 4a33 92bd
00000180: 2b63 443e 08f7 1ebe c393 743e 4fb5 213e
00000190: 0833 f93d fca2 1c3e f708 403d 62e9 28bb
000001a0: 4cf6 86bd c67b 4c3e 0eee 873b 394a d3bd
000001b0: 1344 a53d e8e9 de3d b34c 613e cd8a cf3d
000001c0: 6da5 73bd 3916 ab3a aff3 c73d 0264 863e
000001d0: 6c84 24be 60ca f33d a41f 32be 2c46 00bc
000001e0: 11f6 e6bd 95a3 98bd f03b 593d 9ea2 e1bd
000001f0: 8957 dfbd 7b6a 14be f2e2 8c3e 8a80 013d
00000200: 7736 83bd a53e 8f3e af88 03be a675 ca3d
00000210: e161 b33c 7ee4 dbbd c7f4 9cbe 9f9a b73e
00000220: 86dd c5be e506 eabd 0701 7eba f9ff 8bbe
00000230: a2bf efbe 4dcd 003e 2b29 f73d 8305 ccba
00000240: 9c73 9fbd d4ca 05be 8dbb 9fbe 77b5 79be
00000250: f364 2f3e f522 5c3c eecf 0cbf ca20 07be
00000260: 3c8b c53d 0ed1 51be 88ca b7bd d037 c3be
00000270: 29c3 b2bd 70f4 863e c7be 33bf 5f1f a9be
00000280: 05ba cfbd 7a7b f1be 4431 97be 0fce 95be
00000290: 6552 5dbe 6c63 90bd a8a1 3a3d 2a5b eabe
000002a0: ac1d 1d3e 3ddb bb3c eb40 84bc 476a 11bf
000002b0: 8154 5dbd 849b e0be eef6 6d39 8440 5dbe
000002c0: 9b41 9bbe 1033 eebe 4ac9 fabe 6d62 e0bd
000002d0: c374 0ebf e20f 483e 561c 5abd de83 3f3e
000002e0: 5139 9ebe eea4 9ebc 5642 59be 815f 103e
000002f0: d8f7 c4be a043 eabe 693d 53bd e548 573d
00000300: 30af 233e 1534 a1be 4be3 8dbe 6f1d f93d
00000310: e26b 3ebc cbe4 82be 363c adbe 06aa 56bb
00000320: 19cd 1bbe 336a fbbd ffd7 b4be c279 9cbe
00000330: 1faa 14be 40e9 2dbd 1d5d 97bd 4901 d9bd
00000340: ea3b 39be 0e9f 593d 3d65 fbbd 63b5 9dbd
00000350: 278e 7c3d 2af9 883d 43f9 39be f460 de3d
00000360: 56ab dfbd f29b b2be 9638 023d 70e9 1dbd
00000370: badb 7dbe c071 6f3d bdaf bfbd 4544 1e3e
00000380: 213a 0c3e e3f0 afbe f973 26bd 6004 d9bd
00000390: 04f0 edbb 7a6d ebbd 6a82 1cbe 37de 11be
000003a0: e5f7 6f3e 5928 16be a004 95bd b901 6fbe
000003b0: 4a29 a53d 6192 32be 7e9c 423e cb4b 3fbe
000003c0: 9ed9 0ebe 74e0 e5bd 52e6 82bc 7f93 b13e
000003d0: 84da 743d d228 d9bd e6c0 07be 7549 ab3e
000003e0: d132 f03c cf30 fdbd 3f2b 033e aed0 25be
000003f0: 1b44 aebe bf20 c5be 3d0e e3bd abfb 2dbe

model_sa.4.bias f4 [32]
-0.6439292 0.95699 0.34112504 0.45601088 0.23307872 -0.51789635 -1.1095595 -0.46321696
0.13402392 -0.29099366 -0.26323417 -0.19770698 -0.39437538 -0.6911787 -1.0719353 -0.5558528
-0.1963892 -0.4378428 -0.33929524 0.7966395 -0.5429839 -0.13323502 -0.64992255 0.61245257
-0.28941533 0.58858734 0.087856255 -0.21196814 0.5515142 -0.5264893 -0.24802226 -0.593025
00000000: 8bd8 24bf 4cfd 743f f1a7 ae3e 427a e93e
00000010: 30ac 6e3e db94 04bf 0c06 8ebf c62a edbe
00000020: 913d 093e 1ffd 94be a1c6 86be b373 4abe
00000030: 92eb c9be 16f1 30bf 2d35 89bf 5e4c 0ebf
00000040: 401a 49be ee2c e0be 1bb8 adbe 91f0 4b3f
00000050: fe00 0bbf c36e 08be 5361 26bf b1c9 1c3f
00000060: 3f2e 94be a9ad 163f fbed b33d 2d0e 59be
00000070: 0930 0d3f 01c8 06bf 8cf9 7dbe 7dd0 17bf

model_sa.6.weight f4 [1, 32]
0.20461258 0.22116412 -0.03320341 -0.078235775 -0.055145156 -0.007264465 -0.07005266 0.033435162
0.090273745 0.010220762 -0.0745022 0.04241557 0.05894228 -0.0008427735 2.5748055 0.009418733
0.01053137 0.0031531113 0.0050480193 0.17885122 -0.0044204546 -0.046624046 -0.053325024 -0.08130087
-0.0499358 -0.069730535 0.0024193837 0.08501633 -0.05930121 0.0092898365 0.09349809 0.026852626
00000000: f685 513e d978 623e 4d00 08bd 143a a0bd
00000010: e3df 61bd c00a eebb c577 8fbd 4ff3 083d
00000020: 71e1 b83d fc74 273c 9c94 98bd f3bb 2d3d
00000030: 766d 713d 92ed 5cba 9dc9 2440 0851 1a3c
00000040: c48b 2c3c 6ea4 4e3b db69 a53b c624 373e
00000050: 76d9 90bb dbf8 3ebd 576b 5abd 1281 a6bd
00000060: 7b89 4cbd e2ce 8ebd 868e 1e3b 0b1d ae3d
00000070: d3e5 72bd 6634 183c ed7b bf3d 0afa db3c
