models/2/actor_n139.pt (torch, 226876 bytes, 30 tensors)

model.0.weight f4 [33]
1.1041127 0.7433393 1.1329113 0.007307368 0.0292262 -0.0049364907 -0.010601022 0.089544296
0.1168273 0.07872002 0.46946713 0.45324942 0.42207932 1.6657392 1.1116033 1.7068384
0.031942733 0.05541759 0.02757008 0.07527806 0.36766464 0.1946677 0.17765087 0.9369287
0.76647687 0.852577 1.8088292 1.0 1.9128349 1.0 1.0 1.0
1.3718407
00000000: 9153 8d3f 7c4b 3e3f 3d03 913f a572 ef3b
00000010: c96b ef3c 49c2 a1bb e9af 2dbc 0063 b73d
00000020: 2743 ef3d f637 a13d ff5d f03e 4f10 e83e
00000030: c81a d83e f136 d53f 0449 8e3f ae79 da3f
00000040: 62d6 023d 8efd 623d a6da e13c 622b 9a3d
00000050: 8a3e bc3e f856 473e 1cea 353e 8fda 6f3f
00000060: d437 443f 7c42 5a3f b787 e73f 0000 803f
00000070: c6d7 f43f 0000 803f 0000 803f 0000 803f
00000080: 7a98 af3f

model.0.bias f4 [33]
-0.22756268 -0.24444786 0.15400797 -0.030876946 0.07239102 -0.067253344 0.09731354 0.04074108
0.005277066 0.026867812 0.040685114 -0.3136971 -0.19055562 -0.08454718 -0.46527618 -0.12604721
-0.011121276 0.04898883 -0.09646685 0.08980963 0.053368 0.068651065 0.033334184 -0.0716013
0.001629222 0.027610676 -0.16782601 -0.0761349 -0.072150305 0.44543856 -0.2912438 -0.153534
-0.028968472
00000000: 3106 69be 8a50 7abe 44b4 1d3e a6f1 fcbc
00000010: be41 943d 1fbc 89bd 524c c73d 1ee0 263d
00000020: 3deb ac3b e319 dc3c 6fa5 263d e89c a0be
00000030: 0321 43be 1227 adbd ae38 eebe 8512 01be
00000040: 0336 36bc 83a8 483d 6990 c5bd 1cee b73d
00000050: 6798 5a3d ee98 8c3d 6d89 083d b4a3 92bd
00000060: 9e8b d53a c92f e23c 95da 2bbe 9dec 9bbd
00000070: 8ac3 93bd 8610 e43e e81d 95be 0438 1dbe
00000080: 4a4f edbc

model.0.running_mean f4 [33]
-0.06161484 -2.7584572 0.33411682 0.7089143 -0.0015766888 0.0009158246 0.051040143 -0.016551597
0.0021892944 0.010222155 0.022602357 -0.02555631 0.032676022 0.20335849 -3.1028152 0.38672492
0.012914483 -0.006370379 0.0005623571 0.014648183 -0.09377832 -0.032809444 0.012085731 0.05715341
0.10300601 0.036078177 -0.14379403 -0.99999976 -0.10299925 0.0 0.99999976 0.0
0.02174342
00000000: d85f 7cbd 908a 30c0 5c11 ab3e 687b 353f
00000010: e6a8 ceba f313 703a 780f 513d 3797 87bc
00000020: 447a 0f3b d37a 273c 9428 b93c 775b d1bc
00000030: 4bd7 053d 353d 503e 8694 46c0 cf00 c63e
00000040: 4597 533c 9dbe d0bb 256b 133a effe 6f3c
00000050: d90e c0bd 3263 06bd 3b03 463c b219 6a3d
00000060: d1f4 d23d b6c6 133d be3e 13be fcff 7fbf
00000070: 45f1 d2bd 0000 0000 fcff 7f3f 0000 0000
00000080: 421f b23c

model.0.running_var f4 [33]
3.770147 0.7589337 3.8055775 0.28302807 0.063455045 0.058723174 0.088450715 0.4777188
0.07094477 0.18044159 3.2488883 2.0866299 3.2626212 18.155348 2.4361732 17.151472
0.11368003 0.33697695 0.098267905 0.45135242 3.8232331 0.89923763 0.9601084 9.789679
8.554109 10.448106 31.972868 6e-45 31.97462 6e-45 6e-45 6e-45
0.3392122
00000000: 174a 7140 7b49 423f 958e 7340 0ee9 903e
00000010: b8f4 813d b687 703d a625 b53d 8f97 f43e
00000020: 7e4b 913d aec5 383e c9ed 4f40 588b 0540
00000030: c9ce 5040 273e 9141 43ea 1b40 3736 8941
00000040: 13d1 e83d 3e88 ac3e af40 c93d aa17 e73e
00000050: daaf 7440 7034 663f aac9 753f 86a2 1c41
00000060: a1dd 0841 712b 2741 6fc8 ff41 0400 0000
00000070: 06cc ff41 0400 0000 0400 0000 0400 0000
00000080: 39ad ad3e

model.1.weight f4 [256, 33]
-0.45404637 0.025652008 0.32801002 0.06804981 -0.21959466 -0.16769567 0.21573958 -0.033579644
-0.22135602 -0.05777682 0.039279457 0.6096425 0.27078766 0.34032595 0.29014495 -0.017831739
-0.2840214 -0.30561897 0.06629154 0.40495 -0.20614141 0.49203277 0.16107148 0.28337383
-0.36240768 -0.118334085 -0.68241245 0.387636 0.26489827 -0.29808587 0.40029463 0.32011455
-0.36463046 0.021609137 0.12636547 -0.21608754 -0.096999004 -0.40781856 0.54302526 0.018191166
0.014876566 -0.10106087 -0.065789975 -0.39919874 -0.06576299 -0.037851457 -0.48025572 -0.41744792
0.35380837 -0.32023588 -0.061044525 -0.023453511 -0.3877559 -0.45381558 0.93971956 -0.049644276
0.3357454 -0.3724725 0.14641275 0.022886127 0.6775188 0.30508652 -0.71192646 0.6171502
0.6560043 0.06422362 0.2698367 0.26631692 -0.164957 0.056693103 0.21225356 -0.2529062
-0.1366881 0.2806629 -0.26001805 0.43606356 0.1528269 0.43772334 -0.17705227 -0.4661724
-0.047408137 0.8879178 -0.17670837 0.027177097 -0.06832828 0.17943116 -0.086043805 -0.4304605
0.012133089 -0.16386333 0.13483106 -0.012328277 -0.0061173225 -0.48298606 -0.5490887 0.3114785
-0.5244075 -0.4139399 0.1846018 0.19333667 -0.16221179 -0.29923055 0.5446328 0.42251506
0.46604612 0.14191611 -0.31124985 0.7223445 0.64820445 0.49191567 -1.015317 0.041277163
-0.65023315 0.033990126 -0.23487914 -0.72326416 0.09515576 -0.006322464 -0.14525521 -0.059794012
0.29183012 -0.069097824 0.06686648 -0.019754523 0.086557955 -0.08453407 0.04764096 -0.21466728
-0.08039982 0.19026273 0.28922096 0.3060607 -0.42038712 0.3401665 0.5044838 0.27503455
0.08897809 0.19623709 -0.060899425 0.39551708 -0.25718093 -0.010805904 -0.176851 0.07848823
-0.1946649 0.5864061 -0.12039738 -0.7841117 0.115191765 -0.22889957 -0.3509789 0.054065578
-0.022762204 0.09602703 0.059040323 -0.01565834 -0.0034948108 -0.044198904 -0.21583809 -0.04502875
0.37067515 0.07810802 0.10299372 -0.05529156 0.08977129 0.7200331 -0.3037086 0.08859351
0.071658164 0.28654543 -0.051738422 0.4794113 -0.21534005 0.3471952 0.22165039 0.5653741
-0.30100918 0.17951196 -0.44576925 -0.3811611 0.14839412 -0.07421387 0.5181454 -0.01590356
0.16137367 0.2063943 0.28327605 0.18253772 -0.48986384 0.18510014 -0.42760682 -0.25927964
0.05754404 0.06954538 -0.0061343797 0.1708487 0.07823339 -0.11900952 0.1277003 0.7631358
0.3765808 0.40335995 0.28659022 -0.046640247 0.037543453 0.54292357 -0.8620153 0.22613427
0.48082957 -0.25375375 -0.01683816 0.17973532 -0.24564388 0.10000608 0.124109104 0.42648908
0.0516916 0.06133837 0.057050597 -0.045654222 0.4158068 0.17235558 -0.5521176 -0.0897951
-0.45630988 -0.011475764 -0.36852202 -0.07092471 0.052575525 -0.012119704 0.45060953 0.38810915
-0.22604217 0.017741732 -0.07615755 0.025402779 0.25370768 -0.11383864 -0.022227542 0.05309489
0.44055322 0.5359912 -0.020823307 0.61163825 0.34941632 0.3775632 0.031068735 0.11741207
0.10970876 0.09941755 -0.017252117 -0.014198286 -0.0110666 -0.0008484278 0.1490793 0.70409787
00000000: c478 e8be 2924 d23c eef0 a73e b35d 8b3d
00000010: 6cdd 60be 6ab8 2bbe d6ea 5c3e cf8a 09bd
00000020: 27ab 62be 63a7 6cbd 7fe3 203d 8811 1c3f
00000030: aea4 8a3e 343f ae3e e18d 943e de13 92bc
00000040: 416b 91be 177a 9cbe dcc3 873d 9b55 cf3e
00000050: bc16 53be b8eb fb3e ecef 243e 6016 913e
00000060: 808d b9be 2459 f2bd 95b2 2ebf 3a78 c63e
00000070: bfa0 873e b69e 98be 6bf3 cc3e 0ee6 a33e
00000080: d8b0 babe a505 b13c f365 013e 0d46 5dbe
00000090: 6aa7 c6bd 98cd d0be b403 0b3f a405 953c
000000a0: d7bc 733c 00f9 cebd e5bc 86bd c763 ccbe
000000b0: bfae 86bd 210a 1bbd 14e4 f5be bcbb d5be
000000c0: 5f26 b53e f5f5 a3be d309 7abd 9421 c0bc
000000d0: f187 c6be 845a e8be 7691 703f cc57 4bbd
000000e0: d2e6 ab3e b7b4 bebe 39ed 153e b07b bb3c
000000f0: df71 2d3f 4d34 9c3e d040 36bf 8efd 1d3f
00000100: e6ef 273f ac87 833d 0928 8a3e b15a 883e
00000110: 7dea 28be 0737 683d ff58 593e ec7c 81be
00000120: f7f7 0bbe 0cb3 8f3e 1621 85be b943 df3e
00000130: a87e 1c3e 461d e03e 314d 35be 26ae eebe
00000140: 092f 42bd 954e 633f 0af3 34be 81a2 de3c
00000150: b2ef 8bbd cdbc 373e bc37 b0bd 5265 dcbe
00000160: ddc9 463c cacb 27be 2711 0a3e 8bfc 49bc
00000170: d273 c8bb f349 f7be 1491 0cbf 1c7a 9f3e
00000180: 923f 06bf eeef d3be 4108 3d3e 0cfa 453e
00000190: d91a 26be bf34 99be 0e6d 0b3f e553 d83e
000001a0: 999d ee3e 7552 113e 245c 9fbe 92eb 383f
000001b0: baf0 253f 5fdc fb3e e8f5 81bf 3e12 293d
000001c0: ae75 26bf 3b39 0b3d 2884 70be d727 39bf
000001d0: 06e1 c23d ac2c cfbb c8bd 14be 91ea 74bd
000001e0: c26a 953e 2983 8dbd 4bf1 883d 3dd4 a1bc
000001f0: 4c45 b13d 3320 adbd 2b23 433d bdd1 5bbe
00000200: a9a8 a4bd 3cd4 423e c514 943e fdb3 9c3e
00000210: fb3c d7be 4e2a ae3e da25 013f 54d1 8c3e
00000220: 253a b63d 60f2 483e ad71 79bd 3781 ca3e
00000230: 38ad 83be 3f0b 31bc 6e18 35be 70be a03d
00000240: 3c56 47be b61e 163f e792 f6bd 8bbb 48bf
00000250: a9e9 eb3d a664 6abe 82b3 b3be de73 5d3d
00000260: cd77 babc d2a9 c43d 44d4 713d eb45 80bc
00000270: 3209 65bb e909 35bd a904 5dbe 1170 38bd
00000280: 22c9 bd3e 19f7 9f3d 5fee d23d 6779 62bd
00000290: 03da b73d 1754 383f b27f 9bbe 8470 b53d
000002a0: 84c1 923d 15b6 923e abeb 53bd 6675 f53e
000002b0: 1a82 5cbe 92c3 b13e 52f8 623e 5bbc 103f
000002c0: e01d 9abe fcd1 373e de3b e4be 8c27 c3be
000002d0: a1f4 173e 71fd 97bd 2da5 043f 2f48 82bc
000002e0: 243f 253e 0759 533e 8f09 913e 2beb 3a3e
000002f0: 6fcf fabe e48a 3d3e 48ef dabe 4dc0 84be
00000300: 4db3 6b3d cf6d 8e3d e802 c9bb f6f2 2e3e
00000310: d438 a03d 43bb f3bd dec3 023e de5c 433f
00000320: 33cf c03e 3285 ce3e f4bb 923e d809 3fbd
00000330: 2ac7 193d 0afd 0a3f 09ad 5cbf be8f 673e
00000340: 4b2f f63e 03ec 81be 2ef0 89bc 890c 383e
00000350: 128a 7bbe fdcf cc3d ea2c fe3d c75c da3e
00000360: 92ba 533d f13d 7b3d e3ad 693d ecff 3abd
00000370: a1e4 d43e fb7d 303e 9457 0dbf 7ee6 b7bd
00000380: 73a1 e9be d804 3cbc ebae bcbe f940 91bd
00000390: 6f59 573d b991 46bc 4bb6 e63e 3eb6 c63e
000003a0: 9977 67be 1c57 913c 7df8 9bbd 7d19 d03c
000003b0: f9e5 813e 3c24 e9bd 8916 b6bc 077a 593d
000003c0: 3190 e13e b836 093f a495 aabc 5394 1c3f
000003d0: b2e6 b23e f74f c13e dc83 fe3c bd75 f03d
000003e0: fdae e03d 6e9b cb3d 5054 8dbc ee9f 68bc
000003f0: af50 35bc 0769 5eba 3ea8 183e c23f 343f

model.1.bias f4 [256]
-0.37509662 -0.66580266 0.39242366 -0.19781926 0.044584002 -0.033840913 -0.052040953 -0.35210052
-0.11461413 0.43582162 -0.44881904 -0.18856156 0.02729507 -0.19818069 0.026998643 -0.3532099
-0.5085098 -0.31999302 -0.2963358 -0.81469417 -0.25399327 -0.34269905 -0.070138566 -0.3592211
-0.6773258 0.09270464 -0.22959565 -0.14159432 -0.29628834 -0.10341647 -0.27467498 -0.15933406
-0.59444064 -0.55899143 -0.34747213 -0.3479985 -0.5705365 -0.43415937 0.16461274 -0.49884376
-0.115753084 -0.32182693 -0.33571875 -0.13527192 -0.20943457 -0.14268288 -0.15444283 -0.2574234
-0.20922653 -0.42936134 -0.71753186 -0.24126346 -0.023921305 -0.45944592 -0.014434403 -0.47540286
-0.0021412459 -0.26564333 0.013782364 -0.33096936 -0.45178673 -0.06842601 -0.50065 0.21460783
-0.7669178 -0.37727934 -0.17052099 -0.14932036 0.08837199 -0.02701173 -0.5988757 0.19125022
-0.03131343 -0.49230158 -0.078672715 -0.565787 -0.34291282 0.060226277 0.5605721 -0.84641385
-0.6044208 -0.4387744 -0.37273195 -0.8842129 -0.4946531 0.15717453 -0.4279302 -0.40201548
-0.20750976 -0.040651873 -0.31345502 -0.3358585 -0.1346382 -0.13242589 0.04999519 -0.01170773
-0.1306055 -0.2161163 -0.6664755 -0.20018868 -0.29652077 -0.44104746 -0.5737426 -0.07343203
-0.53921777 0.002755483 -0.57500225 -0.45344156 -0.0022948326 0.07200519 -0.759072 -0.6993686
-0.105008386 -0.36847883 -0.08735972 -0.47569966 -0.4258542 -0.20537701 -0.21934752 -0.09482834
-0.012594634 -0.5501574 -0.449261 -0.077887245 0.06136718 -0.64649224 -0.5554929 -0.13549551
-0.22408304 -0.36086416 -0.55622935 -0.5586592 -0.10111152 -0.4166805 -0.30478027 -0.22021681
-0.13777821 -0.058254678 -0.43031463 -0.39958552 -0.22716063 -0.2827737 -0.12144961 -0.5694482
-0.75134605 -0.16821381 -0.4911811 0.027503794 -0.3046261 -0.3659335 -0.4926384 -0.16296548
-0.49540415 0.06683011 0.013931286 -0.2104809 -0.3724994 -0.25669757 -0.66496295 -0.07143197
-0.34167543 0.089191176 -0.28017578 -0.49596572 -0.25868967 -0.15810825 -0.43518132 -0.4359374
-0.29076397 -0.5300671 -0.27939132 -0.68179 -0.19557339 -0.60497254 -0.5486945 0.19449095
0.16929671 -0.4747043 0.07627302 -0.4624701 -0.27988264 0.08275889 -0.5374927 -0.21447589
-0.26844656 -0.73138016 -0.21592565 -0.3215707 -0.7008895 -0.19833453 -0.40201074 -0.04397694
0.15265438 -0.55639994 0.23135623 -0.4338483 0.11720957 -0.1973826 -0.6864038 -0.62971133
-0.2569259 -0.117434695 -0.0066544535 0.31456336 0.22831084 -0.49059087 0.11087038 -0.50973916
-0.04156339 -0.17051947 -0.57225424 0.037119288 -0.34025848 -0.43103996 -0.46924976 -0.34498405
-0.27757967 0.0950992 0.18623355 0.1035583 -0.63251907 -0.6238353 0.16072083 -0.3049432
-0.18517856 0.19604146 -0.76586527 0.26689768 -0.49028164 0.2412866 -0.53456026 -0.15404175
-0.35314402 -0.087105565 0.20353188 0.03382825 -0.0036387632 -0.10059562 0.5093295 -0.56803226
-0.04412891 -0.73225415 -0.27620307 -0.21290341 -0.50102496 -0.064283475 0.20374408 -0.3215784
-0.23042895 0.6627819 0.20061648 -0.63277906 -0.24598007 0.20797117 0.04407794 -0.50961363
00000000: aa0c c0be 0b72 2abf c1eb c83e 2291 4abe
00000010: b79d 363d c59c 0abd e528 55bd 8546 b4be
00000020: d0ba eabd 0324 df3e 9ccb e5be 4816 41be
00000030: e999 df3c e1ef 4abe 422c dd3c eed7 b4be
00000040: b32d 02bf 20d6 a3be 53b9 97be cc8f 50bf
00000050: 680b 82be 4076 afbe cfa4 8fbd d4eb b7be
00000060: 3965 2dbf eedb bd3d 1f1b 6bbe 1afe 10be
00000070: 1bb3 97be 04cc d3bd 33a2 8cbe 7828 23be
00000080: 432d 18bf 101a 0fbf dee7 b1be dc2c b2be
00000090: ae0e 12bf 234a debe 3e90 283e 7368 ffbe
000000a0: f40f edbd 80c6 a4be 54e3 abbe b984 0abe
000000b0: 0476 56be 761b 12be 4326 1ebe 00cd 83be
000000c0: 7b3f 56be 40d5 dbbe 2bb0 37bf c50d 77be
000000d0: 9df6 c3bc 7f3c ebbe 467e 6cbc 0168 f3be
000000e0: 2554 0cbb 6702 88be 6dcf 613c d174 a9be
000000f0: 9750 e7be f022 8cbd 992a 00bf 28c2 5b3e
00000100: ba54 44bf c22a c1be 0e9d 2ebe 70e7 18be
00000110: 60fc b43d b447 ddbc eb4f 19bf 19d7 433e
00000120: 8342 00bd f40e fcbe 291f a1bd 6bd7 10bf
00000130: 4592 afbe d4af 763d a781 0f3f 94ae 58bf
00000140: 52bb 1abf 0aa7 e0be b9d6 bebe c75b 62bf
00000150: 2c43 fdbe 5cf2 203e ab19 dbbe f9d4 cdbe
00000160: 707d 54be 9482 26bd 2d7d a0be a5f5 abbe
00000170: 99de 09be a79a 07be c2c7 4c3d c7d1 3fbc
00000180: 73bd 05be 974d 5dbe 239e 2abf 43fe 4cbe
00000190: 92d1 97be f9d0 e1be cce0 12bf 8863 96bd
000001a0: 2d0a 0abf 5595 343b 5933 13bf 7e29 e8be
000001b0: e764 16bb 7577 933d 8b52 42bf d209 33bf
000001c0: a30e d7bd 42a9 bcbe a7e9 b2bd e88e f3be
000001d0: 9009 dabe 5a4e 52be a39c 60be 5c35 c2bd
000001e0: b959 4ebc 1ed7 0cbf 8a05 e6be 5983 9fbd
000001f0: 275c 7b3d 8480 25bf c834 0ebf 56bf 0abe
00000200: 0676 65be 30c3 b8be 0c65 0ebf 4a04 0fbf
00000210: 8e13 cfbd 2657 d5be 290c 9cbe 8480 61be
00000220: bb15 0dbe 759c 6ebd 3352 dcbe 7996 ccbe
00000230: cc9c 68be b7c7 90be 93ba f8bd 5bc7 11bf
00000240: 3758 40bf 3e40 2cbe 177c fbbe a34f e13c
00000250: f4f7 9bbe a35b bbbe 1a3b fcbe 6ce0 26be
00000260: 9da5 fdbe 3ade 883d 0c40 643c 4e88 57be
00000270: 3eb8 bebe dd6d 83be 033b 2abf ed4a 92bd
00000280: 15f0 aebe dda9 b63d 3373 8fbe 38ef fdbe
00000290: f972 84be 21e7 21be 16d0 debe 3033 dfbe
000002a0: 04df 94be 7ab2 07bf 610c 8fbe ca89 2ebf
000002b0: 6444 48be 7bdf 1abf 3e77 0cbf a328 473e
000002c0: 1e5c 2d3e 710c f3be 0735 9c3d e2c8 ecbe
000002d0: c74c 8fbe 7e7d a93d 1f99 09bf 919f 5bbe
000002e0: d471 89be bb3b 3bbf 9d1b 5dbe eaa4 a4be
000002f0: 7f6d 33bf 3518 4bbe 5ad4 cdbe 2a21 34bd
00000300: 6e51 1c3e 3a70 0ebf a6e8 6c3e 5d21 debe
00000310: 920b f03d aa1e 4abe 29b8 2fbf c334 21bf
00000320: cb8b 83be 9a81 f0bd 9a0d dabb 730e a13e
00000330: 51ca 693e ba2e fbbe 0310 e33d 447e 02bf
00000340: 603e 2abd a89c 2ebe 417f 12bf 650a 183d
00000350: 5c36 aebe 45b1 dcbe 8141 f0be c0a1 b0be
00000360: ec1e 8ebe 5fc3 c23d 02b4 3e3e 6016 d43d
00000370: c5ec 21bf acb3 1fbf 0094 243e 8421 9cbe
00000380: 739f 3dbe 18bf 483e bf0f 44bf d0a6 883e
00000390: 3206 fbbe d613 773e f1d8 08bf 1fbd 1dbe
000003a0: 4bcf b4be 6764 b2bd a96a 503e 7e8f 0a3d
000003b0: 5178 6ebb 1405 cebd 6b63 023f 906a 11bf
000003c0: 84c0 34bd 0275 3bbf 7d6a 8dbe 5a03 5abe
000003d0: 2c43 00bf 0ea7 83bd 4aa2 503e eda5 a4be
000003e0: 91f5 6bbe 13ac 293f 686e 4d3e cffd 21bf
000003f0: 33e2 7bbe 65f6 543e 128b 343d 0a76 02bf

model.3.weight f4 [256]
1.3581926 1.1113563 1.3461047 0.54546297 1.4803714 1.3647883 0.76588655 1.0276212
1.1264697 1.2338477 1.144979 1.4906135 1.1588291 1.1401033 0.5480002 0.9925196
1.0210685 0.9933215 1.0028839 1.2339613 0.7184462 1.0745219 1.2585399 0.92375225
0.89367086 0.9360033 0.77613634 1.2452542 1.04198 1.3595867 0.65173006 1.3252089
0.7481246 1.073598 1.0967535 1.6260043 1.4152875 1.0396012 1.7921667 1.3826702
1.1010033 1.424637 1.7472218 0.8346546 1.2202293 1.0153493 0.88974404 0.956216
0.30763575 1.2063818 0.5539385 0.5875183 1.1382717 1.1128505 1.3056161 0.8818516
1.4658173 0.9295684 1.2444577 0.7749792 0.9460787 0.7816268 1.1120131 1.0243284
0.806373 1.1149199 0.7967092 1.631651 0.53863317 0.66568667 0.9732387 1.2654552
0.89787537 0.8572569 1.0450094 1.2601988 1.0528562 1.3660469 1.2652204 0.7978661
0.7500631 0.6316805 1.6833858 0.7715203 0.7937173 0.9455956 0.89405835 1.0006274
0.77136743 1.6023158 1.0366266 1.0305703 0.86906904 1.1372064 1.1417768 1.2067374
1.1945453 0.7709628 1.0163261 0.8510795 1.0020138 1.0739518 0.9616243 1.0606205
0.66212225 0.8332674 1.1768638 0.6566951 0.8970679 1.1832603 1.1090728 1.2093396
1.4852691 0.9023781 1.0438837 1.2973586 1.0397617 1.1162105 0.6911874 1.3219275
1.264379 0.7415164 0.9240269 1.3324865 1.6122938 1.0417103 0.5758158 1.0104803
1.0847936 0.65051883 1.0397289 0.88816315 1.4735458 0.7895915 0.6694472 0.9295719
0.88875496 0.96860033 0.9031427 1.2839236 0.9907661 0.97179323 0.67504483 1.2707332
0.98851466 0.8807013 0.95678216 0.8575471 1.1516911 1.116482 1.2782978 1.0632098
1.0863208 1.4977052 0.805686 0.41994464 1.0556138 1.0432343 0.6506937 1.3461217
0.66846323 1.0180974 0.7997454 0.75260496 0.7513572 0.9375414 1.0878884 0.80791795
0.66054463 1.3200282 0.8108783 1.013917 1.288785 0.98959625 1.1102923 1.010029
1.3209305 1.2636966 0.6623842 0.94478387 0.85449743 1.1937819 0.7663769 1.1054827
0.97172034 0.8945711 1.1678883 0.85957736 0.8189224 1.4008859 1.0485717 1.0387335
1.0357391 0.810175 1.4092479 1.0958725 0.82739085 1.13141 0.7577219 0.7089284
1.2156975 0.939307 0.77788746 0.75376 1.3811885 0.67294365 1.3314075 1.3003407
1.5949435 0.9602298 0.97649443 1.4371114 0.75225675 1.1106564 0.77971774 1.4275813
0.92379755 0.6545738 1.0619593 0.7668165 1.1105046 1.2676488 1.1746507 0.7008138
1.2802024 1.8899405 0.91447055 1.9558794 0.85235345 0.63661647 0.8169402 0.9458772
1.348481 1.1799682 1.0392932 1.0638419 0.98629415 1.0344682 0.69703686 0.8650603
0.4390888 0.7320922 1.0923269 1.0011503 0.90773565 0.89961296 1.278472 1.2988899
1.0040096 0.9941427 1.1594346 1.5465231 0.81559604 2.2894523 0.76119465 1.2570624
00000000: 41d9 ad3f ec40 8e3f 294d ac3f 76a3 0b3f
00000010: cf7c bd3f 62b1 ae3f 2411 443f 1789 833f
00000020: 2930 903f b9ee 9d3f ac8e 923f 6ccc be3f
00000030: 8354 943f e8ee 913f be49 0c3f c415 7e3f
00000040: 5fb2 823f 514a 7e3f 805e 803f 72f2 9d3f
00000050: 17ec 373f ef89 893f d617 a13f 077b 6c3f
00000060: 9dc7 643f ea9d 6f3f dfb0 463f 7d64 9f3f
00000070: 9a5f 853f f006 ae3f c8d7 263f 72a0 a93f
00000080: 1885 3f3f a96b 893f 6b62 8c3f e920 d03f
00000090: 2428 b53f a711 853f b865 e53f 56fb b03f
000000a0: aded 8c3f 815a b63f f7a4 df3f edab 553f
000000b0: 7930 9c3f f7f6 813f 44c6 633f 92ca 743f
000000c0: 6f82 9d3e b86a 9a3f eace 0d3f 9967 163f
000000d0: e3b2 913f e371 8e3f 6e1e a73f 07c1 613f
000000e0: e79f bb3f 32f8 6d3f 644a 9f3f 0965 463f
000000f0: 3732 723f b218 483f 7256 8e3f 311d 833f
00000100: 766e 4e3f b2b5 8e3f 22f5 4b3f f1d9 d03f
00000110: dde3 093f 716a 2a3f 2c26 793f 70fa a13f
00000120: 29db 653f 3075 5b3f dec2 853f 324e a13f
00000130: fec3 863f a0da ae3f bef2 a13f f440 4c3f
00000140: 2304 403f d0b5 213f 3079 d73f 5b82 453f
00000150: 0f31 4b3f 8e12 723f 02e1 643f 8f14 803f
00000160: 5678 453f af18 cd3f 2eb0 843f bae9 833f
00000170: 4f7b 5e3f fb8f 913f be25 923f 5f76 9a3f
00000180: dce6 983f d15d 453f f916 823f 59e0 593f
00000190: fd41 803f 4177 893f 032d 763f 6ac2 873f
000001a0: d880 293f 0351 553f 79a3 963f 2c1d 283f
000001b0: 3ea6 653f 1375 973f 19f6 8d3f a4cb 9a3f
000001c0: 4c1d be3f 4002 673f fb9d 853f d90f a63f
000001d0: e916 853f fcdf 8e3f a8f1 303f ec34 a93f
000001e0: 2cd7 a13f 05d4 3d3f 078d 6c3f eb8e aa3f
000001f0: a55f ce3f c356 853f aa68 133f 6b57 813f
00000200: 84da 8a3f 6788 263f d615 853f a95e 633f
00000210: 269d bc3f ab22 4a3f e460 2b3f 6df8 6d3f
00000220: 7285 633f 31f6 773f 5c34 673f 9c57 a43f
00000230: d9a2 7d3f 71c7 783f bdcf 2c3f 63a7 a23f
00000240: 4c0f 7d3f a475 613f adef 743f 3588 5b3f
00000250: 9d6a 933f e2e8 8e3f 439f a33f 4217 883f
00000260: 8f0c 8b3f ceb4 bf3f 7041 4e3f fc02 d73e
00000270: 5a1e 873f b488 853f dd93 263f b74d ac3f
00000280: 6820 2b3f 0451 823f 1dbc 4c3f b8aa 403f
00000290: f258 403f b702 703f ed3f 8b3f b6d3 4e3f
000002a0: 7419 293f aff6 a83f b895 4f3f 08c8 813f
000002b0: e8f6 a43f 2e56 7d3f 0f1e 8e3f a148 813f
000002c0: 4014 a93f cfc0 a13f 0392 293f 5bdd 713f
000002d0: 58c0 5a3f d8cd 983f 4731 443f 7580 8d3f
000002e0: aac2 783f 9d02 653f 5d7d 953f 430d 5c3f
000002f0: e6a4 513f 3b50 b33f 9937 863f 38f5 843f
00000300: 1993 843f a167 4f3f 3c62 b43f 8d45 8c3f
00000310: e3cf 533f 0bd2 903f 10fa 413f 557c 353f
00000320: fa9b 9b3f 6c76 703f a223 473f 6af6 403f
00000330: c9ca b03f 0946 2c3f 906b aa3f 9071 a63f
00000340: 1c27 cc3f 9fd1 753f 8afb 793f 44f3 b73f
00000350: e693 403f fd29 8e3f 959b 473f fcba b63f
00000360: ff7d 6c3f 2692 273f 48ee 873f 164e 443f
00000370: 0425 8e3f 5142 a23f f45a 963f 8868 333f
00000380: acdd a33f 92e9 f13f be1a 6a3f 425a fa3f
00000390: d633 5a3f 4cf9 223f fe22 513f 0225 723f
000003a0: 079b ac3f 3309 973f 8f07 853f f92b 883f
000003b0: c67d 7c3f 7469 843f 0271 323f 9874 5d3f
000003c0: 3fd0 e03e 656a 3b3f 5ed1 8b3f b125 803f
000003d0: 5d61 683f 094d 663f f8a4 a33f 0642 a63f
000003e0: 6383 803f 2380 7e3f 5a68 943f 78f4 c53f
000003f0: e7ca 503f 6386 1240 a7dd 423f 6ce7 a03f

model.3.bias f4 [256]
0.3475304 0.08244007 -0.0047405255 0.10390551 0.19019063 0.511434 0.087137245 0.8020567
0.4710099 -0.16393644 0.039159045 -0.022876367 -0.22454156 0.39091983 -0.1159968 -0.06628
0.41059488 0.28967306 -0.026717689 -0.024732998 -0.29878134 0.32399902 0.0017008965 0.32018754
0.015496261 -0.061195977 0.1752049 0.11445481 -0.14298354 0.24775334 -0.117922425 0.2725385
0.093047865 0.25629336 0.2521949 0.17387755 0.66310513 0.12284517 0.08594854 0.08654208
0.5087055 0.29973534 0.31105307 -0.05210681 0.23611954 -0.024507763 0.25801983 0.27389768
-0.22412463 0.30363286 -0.2861674 -0.05570957 0.015800951 0.21776038 0.106872134 0.16764322
0.29990938 0.042850565 0.16511716 -0.33083 0.4360783 -0.13676211 0.40839726 -0.14448605
-0.11851899 0.3050694 0.42935488 0.044542916 -0.13787442 0.34348944 0.0702842 0.011253126
-0.03404088 0.13891235 -0.17402646 0.27960598 0.33831453 -0.103677414 0.31212717 0.11936013
-0.43920934 -0.4135918 0.5577895 0.017149597 0.07061988 0.24745779 -0.1897743 -0.23818305
0.32682157 0.2206677 0.41920674 0.043272424 0.53373355 0.0066972673 0.21982174 0.10297708
0.054911032 0.43212506 0.16346964 0.5447998 0.75934285 -0.22125946 -0.3475175 0.1813214
-0.41652808 -0.6412928 -0.48667225 -0.34293115 -0.24008027 -0.0924523 -0.10094959 -0.03631849
-0.14275876 -0.045310237 -0.037766445 -0.20150986 -0.15210542 -0.51333696 -0.009750876 -0.051282063
-0.33612704 0.03637756 -0.26163647 0.3372619 0.3618347 0.37891442 0.03467606 0.21580127
0.15695834 -0.05272633 0.041797463 -0.17550004 0.32352793 0.28501663 -0.0337744 -0.2859601
-0.21445797 -0.17123654 0.1310237 0.257129 -0.14266032 0.20410885 -0.038285553 0.13972014
-0.16256319 -0.090541884 -0.33926955 -0.29934958 -0.22703531 -0.19711396 0.6397027 0.29606843
0.15668467 0.25045872 -0.09415744 -0.33533728 -0.06782334 0.019782925 0.020610634 -0.061800107
0.16024026 0.051838193 -0.06821908 0.036343332 -0.47748157 0.32627913 0.29149646 -0.23226154
-0.55994713 0.12531169 -0.19749813 -0.3877194 0.6068303 0.4716896 0.260004 0.19331703
0.34363014 -0.12009338 -0.27050826 -0.32821727 0.2102348 -0.30806082 0.28373623 -0.24420558
0.23383588 0.044186253 0.12048826 0.47994938 0.3013345 0.018969158 0.042901482 -0.5807065
0.16863129 0.11052793 0.3970207 0.0019624787 -0.33296934 -0.17710201 0.3529811 -0.29676348
0.32817388 0.4837306 0.4126298 -0.33021247 -0.57063293 -0.22753564 0.07902233 0.13663904
-0.33706963 0.28166628 -0.27312657 0.52093697 -0.14415273 -0.22805539 0.028946262 0.15906958
0.09754308 -0.10617999 0.23722425 0.032450017 0.17349593 -0.32627082 -0.27701145 0.32183492
0.17780468 0.39463043 0.22172539 0.047783684 0.31048036 0.37908766 -0.0020194063 0.41452625
0.17292164 0.09855371 -0.34685978 -0.56490254 0.2681184 0.16162904 0.25589523 -0.113181286
-0.2180983 -0.03870776 -0.49281615 0.021843337 -0.093623295 0.22656652 0.086377375 0.28102946
0.055861056 0.28512755 0.3456399 -0.02823338 0.1379785 -0.47959074 -0.13908073 0.23698466
00000000: 81ef b13e 57d6 a83d 6956 9bbb 69cc d43d
00000010: 55c1 423e 57ed 023f 0375 b23d 9753 4d3f
00000020: 3628 f13e f4de 27be 3c65 203d 3867 bbbc
00000030: 39ee 65be a526 c83e bb8f edbd cfbd 87bd
00000040: 7e39 d23e 0750 943e 0edf dabc db9c cabc
00000050: def9 98be 33e3 a53e 9ef0 de3a 9fef a33e
00000060: 08e4 7d3c a2a8 7abd ea68 333e 4967 ea3d
00000070: 476a 12be 0db3 7d3e 5081 f1bd 2b8a 8b3e
00000080: e18f be3d e238 833e b11f 813e f50c 323e
00000090: 42c1 293f 4096 fb3d ca05 b03d f93c b13d
000000a0: 863a 023f e976 993e 5942 9f3e f36d 55bd
000000b0: 52c9 713e 81c4 c8bc 2d1b 843e 513c 8c3e
000000c0: ed80 65be c475 9b3e 8984 92be b82f 64bd
000000d0: ff70 813c 94fc 5e3e c7df da3d aaaa 2b3e
000000e0: b98d 993e 1384 2f3d 7914 293e 8d62 a9be
000000f0: a845 df3e 5e0b 0cbe 7219 d13e 27f4 13be
00000100: 16ba f2bd 0e32 9c3e 67d4 db3e a272 363d
00000110: f42e 0dbe d9dd af3e 2af1 8f3d 085f 383c
00000120: 736e 0bbd 0a3f 0e3e fe33 32be 8428 8f3e
00000130: 9037 ad3e d354 d4bd 22cf 9f3e 1573 f43d
00000140: 0ce0 e0be 4ec2 d3be 4bcb 0e3f 507d 8c3c
00000150: 28a1 903d 9365 7d3e 3254 42be 42e6 73be
00000160: 2855 a73e b7f6 613e 44a2 d63e 6d3e 313d
00000170: c3a2 083f c074 db3b f318 613e a6e5 d23d
00000180: 64ea 603d 7f3f dd3e 9664 273e 0078 0b3f
00000190: 4b64 423f d791 62be d0ed b1be 51ac 393e
000001a0: 2b43 d5be c42b 24bf 1b2d f9be ac94 afbe
000001b0: 9ad7 75be a257 bdbd a9be cebd b2c2 14bd
000001c0: 5a2f 12be 3a97 39bd fdb0 1abd 9a58 4ebe
000001d0: 86c1 1bbe 0d6a 03bf 23c2 1fbc 240d 52bd
000001e0: d818 acbe a300 153d 37f5 85be 97ad ac3e
000001f0: 6642 b93e 1201 c23e 7c08 0e3d 02fb 5c3e
00000200: b0b9 203e 90f7 57bd d133 2b3d 48b6 33be
00000210: 74a5 a53e b3ed 913e 0657 0abd 5d69 92be
00000220: df9a 5bbe a258 2fbe 142b 063e 6aa6 833e
00000230: 8c15 12be e901 513e 50d1 1cbd cc12 0f3e
00000240: f776 26be 066e b9bd bdb4 adbe 5944 99be
00000250: f27b 68be 3ed8 49be 8ec3 233f 4896 973e
00000260: f271 203e 203c 803e 9ed5 c0bd 54b1 abbe
00000270: f7e6 8abd cd0f a23c a2d7 a83c 1c22 7dbd
00000280: 0616 243e 4954 543d 72b6 8bbd bfdc 143d
00000290: 7778 f4be 0f0e a73e 063f 953e f8d5 6dbe
000002a0: b258 0fbf b551 003e f33c 4abe 2883 c6be
000002b0: 3b59 1b3f 4d81 f13e 3f1f 853e e6f4 453e
000002c0: 4af0 af3e 85f3 f5bd 0f80 8abe 180c a8be
000002d0: cb47 573e 26ba 9dbe e045 913e 0711 7abe
000002e0: ac72 6f3e a5fc 343d 8dc2 f63d edbb f53e
000002f0: 8448 9a3e 3565 9b3c 77b9 2f3d 2ea9 14bf
00000300: aead 2c3e 785c e23d 4c46 cb3e ee9c 003b
00000310: f57a aabe 3b5a 35be f0b9 b43e 62f1 97be
00000320: 6806 a83e 8aab f73e 3744 d33e 9c11 a9be
00000330: 0015 12bf 1aff 68be 76d6 a13d 1beb 0b3e
00000340: 6494 acbe 9036 903e 3fd7 8bbe 205c 053f
00000350: c69c 13be 5a87 69be b620 ed3c 23e3 223e
00000360: abc4 c73d e574 d9bd eaea 723e 4fea 043d
00000370: eba8 313e f80c a7be 72d4 8dbe 8cc7 a43e
00000380: 6e12 363e 000d ca3e fb0b 633e d3b8 433d
00000390: 48f7 9e3e c717 c23e 0458 04bb c93c d43e
000003a0: 5f12 313e 87d6 c93d 9b97 b1be 749d 10bf
000003b0: d146 893e 1582 253e b304 833e 97cb e7bd
000003c0: 2955 5fbe 078c 1ebd 6652 fcbe ccf0 b23c
000003d0: 92bd bfbd 0e01 683e 9fe6 b03d 18e3 8f3e
000003e0: 90ce 643d 3dfc 913e b7f7 b03e b049 e7bc
000003f0: 3c4a 0d3e eb8c f5be 2e6b 0ebe 1bac 723e

model.3.running_mean f4 [256]
0.2936221 0.13461983 0.66801775 0.7627656 0.34932372 0.54959935 0.45451918 0.0745516
0.41001827 0.94571376 0.33444196 0.08982041 0.6756892 0.4057592 0.4914044 0.1134471
0.13250549 0.18308929 0.120465405 0.10780848 0.72130996 0.23274551 0.5142715 0.37686536
0.063637935 0.75089306 0.38645962 0.1653099 0.28505072 0.53642905 0.23262137 0.46618223
0.07243449 0.17732374 0.37195307 0.40926433 0.04206973 0.23013885 0.4187033 0.3221471
0.31714183 0.2350365 0.3516138 0.3408211 0.35616913 0.16489223 0.70827657 0.32364565
0.5320361 0.12272218 0.063351646 0.8498257 0.23984334 0.15995081 0.56935436 0.29252523
0.5414125 0.10208615 0.5875406 0.23199956 0.21522008 0.4667907 0.33942902 0.68349755
0.082517125 0.27081084 0.56151897 0.7775932 0.48168278 0.7245191 0.09817097 0.7035572
0.83871996 0.25300226 0.39758664 0.26836437 0.48261377 0.40305617 1.2109133 0.0018174199
0.064060494 0.18126573 0.12722166 0.10335931 0.097545035 0.69200236 0.21949634 0.39925352
0.5129633 0.33595476 0.20041458 0.21403714 0.5106822 0.19816157 0.9584227 0.5259297
0.35747084 0.5364538 0.35582027 0.44890025 0.23192546 0.22983065 0.19990423 0.91856885
0.04349219 0.27637404 0.08604696 0.1081773 0.7965076 0.46988568 0.050631147 0.14685091
0.46181288 0.2251402 1.1463767 0.45224705 0.5655808 0.19412522 0.10232942 0.29067266
0.937482 0.29973212 0.11952979 0.49867213 0.4555899 0.1798458 0.042578105 0.23748267
0.36547235 0.101203255 0.30470338 0.16184859 0.62028563 0.26970172 0.15350023 0.38655296
0.2064129 0.398727 0.25270554 0.49698555 0.10308523 0.36000144 0.35958347 0.3593769
0.10223856 0.11350333 0.5347665 0.9775915 0.26731566 0.1829138 0.30728278 0.9957682
0.19972895 0.42709184 0.71218115 0.5570036 0.30083534 0.33682737 0.035085548 0.27821755
0.19928263 0.828366 0.73794997 0.034714878 0.15162238 0.24112232 0.24575818 0.11859331
0.09555453 0.24599972 0.34508738 0.101895764 0.14651044 0.059426278 0.06182907 0.72051424
0.46380645 0.22190283 0.607749 0.21078955 0.32497087 0.6447121 0.15749495 0.41195458
0.30456543 0.02381846 0.35142356 0.17985053 0.09229116 0.23252831 0.31126866 0.39638153
0.48910898 0.27594584 0.6594914 0.073761396 0.26837975 0.21085125 0.02646737 0.03761556
0.3560339 0.64234203 0.21283282 0.65079904 0.5967484 0.038420096 0.62662 0.19293585
0.42044365 0.122146085 0.110943064 0.63479745 0.24669002 0.26749292 0.12855704 0.15099744
0.34711242 1.0302427 0.53361225 0.52951545 0.07430053 0.08665744 0.82766706 0.1711053
0.4176351 0.64814895 0.12236011 0.8086835 0.15104213 0.5361004 0.2551236 0.52478844
0.36777204 0.4917568 0.8049943 0.3608935 1.0501409 0.28765282 1.1457167 0.23231734
0.7956301 0.15789774 0.23472013 0.39169917 0.16577046 0.63012165 0.6158291 0.42686132
0.2685804 1.2837194 0.49871716 0.113850474 0.22710674 0.5667478 0.749916 0.029685482
00000000: a355 963e c8d9 093e 3603 2b3f 9b44 433f
00000010: 8fda b23e 8bb2 0c3f bdb6 e83e 82ae 983d
00000020: eaed d13e 4c1a 723f fa3b ab3e c3f3 b73d
00000030: f8f9 2c3f abbf cf3e 5c99 fb3e f456 e83d
00000040: 85af 073e c27b 3b3e 91b6 f63d b1ca dc3d
00000050: c5a7 383f d754 6e3e 4ca7 033f 7ff4 c03e
00000060: 9b54 823d 873a 403f 09de c53e 0047 293e
00000070: 2bf2 913e 6a53 093f 4c34 6e3e 70af ee3e
00000080: 8958 943d 5b94 353e a270 be3e 188b d13e
00000090: 4f51 2c3d 85a9 6b3e 4760 d63e 77f0 a43e
000000a0: 6a60 a23e 69ad 703e b906 b43e 1a80 ae3e
000000b0: cd5b b63e 82d9 283e 9d51 353f e2b4 a53e
000000c0: 8533 083f c455 fb3d 82be 813d 2d8e 593f
000000d0: 7e99 753e 25ca 233e 35c1 113f dec5 953e
000000e0: 029a 0a3f 8b12 d13d 1069 163f 4b91 6d3e
000000f0: a762 5c3e 31ff ee3e a4c9 ad3e b2f9 2e3f
00000100: bdfe a83d b8a7 8a3e b5bf 0f3f 5910 473f
00000110: 209f f63e 157a 393f dd0d c93d 531c 343f
00000120: 5ab6 563f 8389 813e 7a90 cb3e 0e67 893e
00000130: 2719 f73e 615d ce3e 35ff 9a3f 7e36 ee3a
00000140: 2632 833d b99d 393e 6546 023e 0cae d33d
00000150: b1c5 c73d 1127 313f a6c3 603e f56a cc3e
00000160: 9051 033f 4302 ac3e 7b39 4d3e 8d2c 5b3e
00000170: 12bc 023f deea 4a3e 315b 753f 54a3 063f
00000180: 6b06 b73e 0955 093f 132e b63e 41d6 e53e
00000190: de7d 6d3e ba58 6b3e b2b3 4c3e 5427 6b3f
000001a0: de24 323d e680 8d3e 6339 b03d 0f8c dd3d
000001b0: ece7 4b3f db94 f03e 9b62 4f3d 1660 163e
000001c0: bd72 ec3e 278b 663e 79bc 923f ed8c e73e
000001d0: e7c9 103f c3c8 463e 1692 d13d 0cd3 943e
000001e0: d2fe 6f3f 7d76 993e 09cc f43d f451 ff3e
000001f0: 1443 e93e 7f29 383e 6166 2e3d a82e 733e
00000200: 311f bb3e a743 cf3d 1502 9c3e a3bb 253e
00000210: 0acb 1e3f 5816 8a3e 2a2f 1d3e 45ea c53e
00000220: e75d 533e f225 cc3e 9f62 813e e474 fe3e
00000230: 591e d33d 1c52 b83e 531b b83e 4000 b83e
00000240: 7362 d13d 6f74 e83d 75e6 083f 7043 7a3f
00000250: 99dd 883e c14d 3b3e 2b54 9d3e aaea 7e3f
00000260: bf85 4c3e c8ab da3e 8151 363f ca97 0e3f
00000270: 1707 9a3e a374 ac3e ddb5 0f3d 8872 8e3e
00000280: bf10 4c3e cb0f 543f 4aea 3c3f 3031 0e3d
00000290: e642 1b3e c5e8 763e 08a8 7b3e 0de1 f23d
000002a0: 18b2 c33d 5ae7 7b3e 4baf b03e baae d03d
000002b0: d506 163e f868 733d 7b40 7d3d 9f73 383f
000002c0: 0a78 ed3e 7f3a 633e 7095 1b3f 37d9 573e
000002d0: 9562 a63e da0b 253f 5b46 213e b6eb d23e
000002e0: 00f0 9b3e ee1e c33c caed b33e bd2a 383e
000002f0: 2603 bd3d e71b 6e3e 9b5e 9f3e 85f2 ca3e
00000300: 7e6c fa3e c648 8d3e 6ed4 283f 3710 973d
00000310: 1269 893e 64e9 573e 19d2 d83c c612 1a3d
00000320: 134a b63e 8770 243f d9f0 593e c49a 263f
00000330: 81c4 183f 645e 1d3d 2b6a 203f fa90 453e
00000340: 6444 d73e ba27 fa3d 1e36 e33d 1682 223f
00000350: 4f9c 7c3e d5f4 883e 75a4 033e 139f 1a3e
00000360: b8b8 b13e fede 833f d09a 083f 538e 073f
00000370: e02a 983d 7579 b13d fde1 533f 3a36 2f3e
00000380: 45d4 d53e 17ed 253f f097 fa3d e205 4f3f
00000390: caaa 1a3e e03d 093f 8f9f 823e 8958 063f
000003a0: 9e4c bc3e 8cc7 fb3e 1b14 4e3f 08c7 b83e
000003b0: 046b 863f 3b47 933e d8a6 923f 99e4 6d3e
000003c0: 6aae 4b3f f2af 213e 795a 703e cb8c c83e
000003d0: bbbf 293e a74f 213f faa6 1d3f 918d da3e
000003e0: 5f83 893e eb50 a43f db57 ff3e 702a e93d
000003f0: ab8e 683e 6216 113f 7ffa 3f3f f82e f33c

model.3.running_var f4 [256]
0.2905572 0.12053934 0.3930159 0.91331786 0.13646282 0.54461974 0.450004 0.07319242
0.33048898 0.48228586 0.41250366 0.03776076 0.6894602 0.40116143 0.5463028 0.12711419
0.15065256 0.1213003 0.11495733 0.091727175 1.0793842 0.23438755 0.49755937 0.4279519
0.051957466 0.6386337 0.5391308 0.11905955 0.24895504 0.5827876 0.27317697 0.38247225
0.08552882 0.16526811 0.52593905 0.48727635 0.029515713 0.2294623 0.20118989 0.36355892
0.30047745 0.29985467 0.40975142 0.39631748 0.34292603 0.103089236 0.88754857 0.40382007
0.5947213 0.11295199 0.04930603 1.3481901 0.16571662 0.16438468 0.5345043 0.33206624
0.5452735 0.12363461 0.36154824 0.32047296 0.1697512 0.34101003 0.465797 0.38643637
0.07549713 0.27386978 0.68591267 1.1621506 0.294481 1.0540313 0.07679509 0.5889479
0.74605125 0.24291895 0.30662072 0.3603802 0.5930661 0.26031795 0.58132356 0.003272963
0.07107347 0.20367533 0.091665365 0.09763015 0.07396305 0.70552754 0.2109586 0.3797203
0.5770174 0.24952208 0.16156325 0.19147594 0.5926303 0.18257225 1.1637036 0.37863675
0.31142083 0.6738683 0.4104267 0.5350628 0.24775624 0.19504997 0.22820438 1.3078194
0.032343015 0.2192853 0.08723835 0.10332463 0.9678863 0.47067666 0.058720548 0.1607234
0.43036503 0.20405453 2.2174037 0.7407368 0.7522555 0.1361642 0.11883169 0.15602508
1.5764465 0.31382054 0.09160482 0.49593812 0.17345326 0.22262174 0.07526578 0.17091964
0.3670943 0.10497116 0.3562165 0.18670474 0.60414875 0.30382478 0.14274378 0.35534483
0.16568539 0.45984018 0.26199853 0.79194933 0.10665763 0.27685985 0.36996856 0.36832857
0.08785473 0.08691865 0.775055 1.3069469 0.3009486 0.14385149 0.40086806 1.9277192
0.17163514 0.2925287 1.0366501 0.9418733 0.36001715 0.29757953 0.0368127 0.17288521
0.17458469 0.8070842 1.0096676 0.029016716 0.12005299 0.1972117 0.2775049 0.10811002
0.104920775 0.3206981 0.3129647 0.08534635 0.12022834 0.09642211 0.06657917 0.65695685
0.32254642 0.20678793 0.67798346 0.22118847 0.41510132 0.61387265 0.17930432 0.36150977
0.28347456 0.018606 0.40025774 0.21659394 0.06753069 0.18604492 0.31687742 0.46202213
0.39694372 0.32641473 0.30191982 0.08583462 0.18362069 0.12792626 0.042829186 0.037794713
0.32430014 1.0307486 0.17969726 0.27297822 0.2739294 0.03699047 0.13547792 0.1980588
0.4607888 0.12708986 0.11069127 0.6392495 0.27660376 0.2930173 0.1291015 0.1188759
0.310756 0.948221 0.29525375 0.6072858 0.07232231 0.077934094 0.70834637 0.17513622
0.40946192 0.23109432 0.104411796 0.16622764 0.18495351 0.37097245 0.32516947 0.70054734
0.44268084 0.51994574 0.74147123 0.25541157 1.714428 0.18832403 1.1038631 0.3177748
0.97013617 0.13612047 0.2151563 0.4103177 0.15759179 0.71036386 0.40741974 0.39246592
0.21073663 0.35883304 0.36684105 0.08804123 0.2627803 0.18449879 0.88102406 0.020966163
00000000: eac3 943e 54dd f63d 6139 c93e 33cf 693f
00000010: e9bc 0b3e 336c 0b3f ed66 e63e e8e5 953d
00000020: da35 a93e 2cee f63e ae33 d33e 07ab 1a3d
00000030: 7780 303f 0865 cd3e 80da 0b3f 392a 023e
00000040: aa44 1a3e 4b6c f83d c06e eb3d 75db bb3d
00000050: 4329 8a3f 4a03 703e 1ac0 fe3e 831c db3e
00000060: 5ad1 543d 807d 233f 7a04 0a3f 7ed5 f33d
00000070: 12ee 7e3e 9131 153f dadd 8b3e 67d3 c33e
00000080: bc29 af3d 0b3c 293e f1a3 063f 497c f93e
00000090: f0ca f13c 2af8 6a3e b904 4e3e 6524 ba3e
000000a0: 2ed8 993e 8d86 993e f0ca d13e 20ea ca3e
000000b0: 0094 af3e 7320 d33d 6236 633f 81c1 ce3e
000000c0: a83f 183f 5f53 e73d 1ff5 493d 7e91 ac3f
000000d0: 9eb1 293e 7554 283e 46d5 083f 9604 aa3e
000000e0: 0b97 0b3f 2434 fd3d da1c b93e 0815 a43e
000000f0: 42d3 2d3e de98 ae3e f27c ee3e fdda c53e
00000100: 3d9e 9a3d a938 8c3e f997 2f3f 5ac1 943f
00000110: 37c6 963e 7fea 863f bf46 9d3d 4ac5 163f
00000120: 37fd 3e3f bfbf 783e 64fd 9c3e c183 b83e
00000130: 2ed3 173f 6548 853e 9fd1 143f 357f 563b
00000140: f88e 913d 4490 503e 0dbb bb3d 51f2 c73d
00000150: f179 973d 749d 343f 8805 583e b36a c23e
00000160: 6ab7 133f b782 7f3e d670 253e 4512 443e
00000170: 9fb6 173f 38f4 3a3e 3df4 943f addc c13e
00000180: 8d72 9f3e a282 2c3f 7323 d23e e0f9 083f
00000190: d0b3 7d3e 2ebb 473e 69ae 693e a066 a73f
000001a0: 1c7a 043d 538c 603e 05aa b23d dd9b d33d
000001b0: 66c7 773f 88fc f03e f584 703d ad94 243e
000001c0: ce58 dc3e acf3 503e f1e9 0d40 eda0 3d3f
000001d0: d193 403f a16e 0b3e 075e f33d 0ac5 1f3e
000001e0: 00c9 c93f 16ad a03e 4f9b bb3d 9aeb fd3e
000001f0: bb9d 313e f4f6 633e f224 9a3d 8f05 2f3e
00000200: c9f3 bb3e 1ffb d63d 0262 b63e 872f 3f3e
00000210: 7ea9 1a3f ec8e 9b3e 6d2b 123e c2ef b53e
00000220: 6ea9 293e 2c70 eb3e ac24 863e 31bd 4a3f
00000230: 516f da3d 93c0 8d3e 856c bd3e 9095 bc3e
00000240: 2eed b33d 6802 b23d 016a 463f 094a a73f
00000250: ef15 9a3e ce4d 133e 943e cd3e 81bf f63f
00000260: 1fc1 2f3e 52c6 953e f3b0 843f 9c1e 713f
00000270: 2b54 b83e 585c 983e eac8 163d d208 313e
00000280: 54c6 323e 129d 4e3f ca3c 813f 77b4 ed3c
00000290: 58de f53d ddf1 493e 1f15 8e3e c968 dd3d
000002a0: b4e0 d63d 8b32 a43e e93c a03e 11ca ae3d
000002b0: 473a f63d f578 c53d a95a 883d 532e 283f
000002c0: ce24 a53e 37c0 533e 5390 2d3f 3b7f 623e
000002d0: 2988 d43e c226 1d3f 8d9b 373e cf17 b93e
000002e0: 9423 913e 9c6b 983c 95ee cc3e cdca 5d3e
000002f0: 884d 8a3d 8f82 3e3e c23d a23e 2a8e ec3e
00000300: 353c cb3e d51f a73e 3c95 9a3e 10ca af3d
00000310: 1007 3c3e 1aff 023e a86d 2f3d a1ce 1a3d
00000320: ab0a a63e 92ef 833f 8f02 383e cdc3 8b3e
00000330: 7940 8c3e 5283 173d b9ba 0a3e edcf 4a3e
00000340: 82ec eb3e d823 023e 1bb2 e23d dba5 233f
00000350: 029f 8d3e 5d06 963e 2f33 043e 3575 f33d
00000360: 691b 9f3e 9dbe 723f 802b 973e 1577 1b3f
00000370: b81d 943d e99b 9f3d 3056 353f e956 333e
00000380: fea4 d13e fda3 6c3e dad5 d53d 9437 2a3e
00000390: 7464 3d3e 1af0 bd3e 9d7c a63e 1257 333f
000003a0: 10a7 e23e 2a1b 053f 0fd1 3d3f 4ec5 823e
000003b0: 6072 db3f 04d8 403e 634b 8d3f 61b3 a23e
000003c0: d85a 783f 2a63 0b3e ef51 5c3e 2915 d23e
000003d0: be5f 213e 68da 353f 5299 d03e 4bf1 c83e
000003e0: 58cb 573e f7b8 b73e 97d2 bb3e f64e b43d
000003f0: 248b 863e 40ed 3c3e cb8a 613f 3bc1 ab3c

model.4.weight f4 [128, 256]
0.055209775 0.76966447 -0.034999568 0.5031366 -0.13471544 0.48499912 0.42795393 -0.18160722
0.14073536 0.24853268 0.25044256 -0.501352 0.5225795 0.0042564156 -0.17287588 -0.12607093
0.017285956 0.0036677644 -0.34383693 -0.09652064 -0.04605535 0.050249774 -0.045683097 -0.28506687
0.04664053 0.0034621903 0.27574736 -0.36950573 0.055290017 -0.22794662 -0.44643992 0.15122311
-0.28489745 0.37294337 -0.1647691 0.55675036 -0.09229656 -0.12071145 0.42173663 -0.20207885
-0.5332027 0.050320547 0.07470592 -0.1303592 -0.17408195 0.24207388 0.13175583 0.28727776
-0.08817048 -0.05069556 -0.066198975 -0.46082342 0.24287352 -0.45249864 -0.13380927 -0.4230813
-0.3012726 0.35540274 0.122681074 0.280913 -0.3209774 0.29140538 -0.089845344 -0.24489589
0.08436926 -0.19924322 -0.2220745 -0.15476964 0.4272919 -0.28974387 -0.11658302 -0.5287468
-0.021477515 0.24119191 -0.42086333 0.16543719 -0.30847818 -0.79370713 0.6970518 -0.0075752283
-0.20393184 0.14464223 0.27215204 0.3040246 -0.29449493 0.0027161231 -0.08524756 -0.0144220535
0.26928267 0.01707146 -0.5006077 0.19780308 -0.550973 0.27448294 -0.2923814 0.012140863
0.5042792 0.07769246 0.39818257 0.12060005 -0.00021533521 -0.3411195 -0.05458207 -0.09220645
-0.32702798 -0.21661165 -0.20650414 0.40309674 -0.41395742 0.13342491 0.0401514 0.2794791
-0.47106165 0.040110298 -0.24457762 0.088467754 0.08778886 0.02302056 0.08817838 -0.32358003
0.048497885 0.27963066 0.3161804 0.19413307 -0.0961616 0.2664103 -0.032622237 -0.35906893
-0.5190566 -0.051073864 0.17315948 -0.4884972 0.22743094 0.700711 -0.14085652 -0.4480401
0.20005235 -0.4615469 -0.44658095 -0.29576632 -0.41581547 -0.16263089 0.48477805 0.01828962
0.61337936 -0.3962119 -0.2949863 0.1212147 0.11312121 -0.5640973 -0.41863856 0.22301075
0.08618177 0.62458324 0.19682689 0.044857513 -0.09845529 0.26802182 -0.07275191 0.2961421
-0.056733806 0.140598 0.069757216 -0.3349126 -0.90508395 0.14564897 -0.28699267 -0.3257372
0.2196996 -0.5570513 0.3127872 -0.38982093 0.021787079 -0.3419823 -0.11766076 -0.18977971
0.15239203 -0.4546601 0.23850965 -0.34346834 0.049172457 0.24052098 0.41235372 -0.5757372
-0.45306438 -0.62357867 0.1590339 -0.036524378 -0.0018363773 -0.24293993 -0.5372661 0.37255457
-0.10228802 -0.0802287 -0.02576543 -0.3180519 -0.49332294 0.25175768 -0.09200333 0.43564025
0.37485072 0.025630888 -0.045249306 -0.047442976 -0.61596006 -0.7018735 -0.6359788 -0.32935432
-0.152977 -0.46927068 -0.18091929 0.118071645 -0.119842015 0.15280603 -0.12264868 0.26318175
0.17733897 -0.07241004 -0.31507036 -0.16839571 0.121635765 -0.054004915 -0.28182605 -0.5630315
0.23521563 0.05965315 0.106742196 -1.1146948 0.13863878 -0.21578416 -0.5843482 -0.14683647
0.21368346 0.58541745 -0.105960526 -1.1175234 0.11606565 0.26917356 -0.14736785 0.06356329
-0.23603563 0.11600355 -0.20476657 -0.10907176 0.4942178 -0.607232 0.46228135 0.27645695
0.21572542 -0.08049017 0.46502912 -0.1371152 -0.44761956 -0.5660368 -0.6793286 0.1911283
00000000: a523 623d bb08 453f b55b 0fbd 8fcd 003f
00000010: d8f2 09be ce51 f83e c71c db3e 3ef7 39be
00000020: ee1c 103e 5a7f 7e3e 023a 803e 9b58 00bf
00000030: c5c7 053f 6779 8b3b 6006 31be bd18 01be
00000040: 479b 8d3c e05e 703b 650b b0be 9dac c5bd
00000050: 89a4 3cbd b5d2 4d3d 331e 3bbd 49f4 91be
00000060: 240a 3f3d eae5 623b c22e 8d3e db2f bdbe
00000070: c977 623d d76a 69be c693 e4be 3bda 1a3e
00000080: 14de 91be 6ff2 be3e 3bb9 28be 3187 0e3f
00000090: fb05 bdbd 9137 f7bd dded d73e c2ed 4ebe
000000a0: f97f 08bf eb1c 4e3d 6bff 983d e27c 05be
000000b0: 8a42 32be 37e2 773e 00eb 063e 1216 933e
000000c0: ba92 b4bd 26a6 4fbd 5493 87bd 0cf1 ebbe
000000d0: d6b3 783e e7ad e7be 4c05 09be 1d9e d8be
000000e0: 6740 9abe 59f7 b53e 3740 fb3d d4d3 8f3e
000000f0: 2657 a4be 1633 953e d600 b8bd fdc5 7abe
00000100: cac9 ac3d 6a06 4cbe 7f67 63be ef7b 1ebe
00000110: 01c6 da3e 4f59 94be 14c3 eebd f35b 07bf
00000120: 9df1 afbc 03fb 763e 667b d7be 5e68 293e
00000130: daf0 9dbe 6430 4bbf fd71 323f 9f39 f8bb
00000140: 82d3 50be 181d 143e 8357 8b3e 1da9 9b3e
00000150: 0ac8 96be fc00 323b 4696 aebd 7a4a 6cbc
00000160: 6bdf 893e 72d9 8b3c d427 00bf e48c 4a3e
00000170: 910c 0dbf 0789 8c3e 04b3 95be 78ea 463c
00000180: 7118 013f 391d 9f3d 96de cb3e 29fd f63d
00000190: 9bcb 61b9 37a7 aebe 7391 5fbd bcd6 bcbd
000001a0: 3670 a7be 72cf 5dbe d275 53be b262 ce3e
000001b0: 3af2 d3be 8aa0 083e cb75 243d e217 8f3e
000001c0: fe2e f1be b24a 243d 8e72 7abe 952e b53d
000001d0: a5ca b33d 9d95 bc3c de96 b43d 48ac a5be
000001e0: b8a5 463d c02b 8f3e 66e2 a13e d2ca 463e
000001f0: 5ff0 c4bd ee66 883e e59e 05bd e2d7 b7be
00000200: e5e0 04bf d432 51bd b850 313e 4e1c fabe
00000210: a8e3 683e cc61 333f b13c 10be 8365 e5be
00000220: 86da 4c3e e04f ecbe 42a6 e4be af6e 97be
00000230: c4e5 d4be b688 26be d434 f83e 1dd4 953c
00000240: 6e06 1d3f 49dc cabe 7208 97be 6a3f f83d
00000250: 18ac e73d ae68 10bf cb57 d6be ee5c 643e
00000260: 1180 b03d b0e4 1f3f fd8c 493e 83bc 373d
00000270: eda2 c9bd 283a 893e f4fe 94bd f09f 973e
00000280: b561 68bd ecf8 0f3e dfdc 8e3d aa79 abbe
00000290: 95b3 67bf 0125 153e b4f0 92be 07c7 a6be
000002a0: eff8 603e ea9a 0ebf a525 a03e 9c96 c7be
000002b0: d17a b23c 4e18 afbe 20f8 f0bd 9d55 42be
000002c0: a80c 1c3e 35c9 e8be e03b 743e 15db afbe
000002d0: 0f69 493d 224b 763e 0720 d33e 8363 13bf
000002e0: 0ef8 e7be daa2 1fbf c8d9 223e 969a 15bd
000002f0: 99b2 f0ba 3fc5 78be 458a 09bf 79bf be3e
00000300: 627c d1bd f24e a4bd 0612 d3bc b3d7 a2be
00000310: d394 fcbe 62e6 803e 3e6c bcbd 3d0c df3e
00000320: 6fec bf3e def7 d13c 5657 39bd 9153 42bd
00000330: 8faf 1dbf fbad 33bf 82cf 22bf 21a1 a8be
00000340: 01a6 1cbe 3f44 f0be e842 39be 8ccf f13d
00000350: bb6f f5bd 2f79 1c3e 3b2f fbbd c2bf 863e
00000360: 5998 353e b74b 94bd e750 a1be ed6f 2cbe
00000370: 2c1c f93d 4234 5dbd 814b 90be d522 10bf
00000380: 5edc 703e dd56 743d a79b da3d 52ae 8ebf
00000390: 53f7 0d3e 86f6 5cbe d897 15bf 4d5c 16be
000003a0: d6cf 5a3e ebdd 153f d501 d9bd 020b 8fbf
000003b0: d4b3 ed3d 1ed1 893e 99e7 16be 782d 823d
000003c0: 53b3 71be 4593 ed3d 54ae 51be 0461 dfbd
000003d0: 1e0a fd3e 8e73 1bbf 24b0 ec3e c48b 8d3e
000003e0: 20e7 5c3e 08d8 a4bd 4c18 ee3e ed67 0cbe
000003f0: 642e e5be cae7 10bf 7be8 2dbf 23b7 433e

model.4.bias f4 [128]
-0.11558743 -0.023390168 -0.7082128 -0.49770486 -0.039639976 -0.34275874 -0.82335335 -0.55589736
-0.40086898 -0.41424376 -0.19896169 -0.49349636 0.019943222 -0.47851595 0.14705949 -0.07837682
0.05890579 -0.5450359 -0.18967876 0.13601634 -0.2228477 -0.21881814 -0.49715102 -0.42377186
-0.38255376 -0.6610563 -0.19040504 0.23286769 0.2514862 0.4340841 -0.5477696 -0.021900954
-0.28549558 0.028723195 -0.57833236 -0.14633839 -0.70827997 -0.4410152 -0.0361412 -0.25272283
0.11784333 -0.2642659 0.2588816 -0.41481727 -0.43911523 -0.38283747 -0.3645075 0.03268365
0.43364328 -0.5178319 -0.09369902 -0.64321274 -0.30060452 -0.4940594 -0.6779272 -0.30546218
-0.30085453 -0.35624975 -0.35857385 -0.08890498 0.28541142 -0.036815297 -0.8582078 -0.19481432
-0.54485637 -0.44549185 -0.56320804 -0.4481608 -0.027051354 -0.101732895 -0.23918633 -0.4640995
-0.2808328 -0.2709414 -0.6201662 -0.25634632 -0.55571526 0.052476328 -0.13609815 -0.15916981
-0.40603164 -0.7098818 -0.29685 -0.46313828 -0.4708929 -0.18848786 -0.5708618 -0.5347224
0.096744716 0.198212 -0.24922185 -0.423171 -0.029426541 -0.48532876 -0.683294 -0.5429377
-0.32157472 -1.0639683 -0.36164168 0.00030382816 -0.29217628 0.32167926 -0.33736858 -0.29005873
-0.6205479 0.32998174 -0.28533918 -0.06491226 -0.22197601 -0.37980992 -0.118779756 -0.04439976
-0.05610424 -0.010461765 -0.61142695 0.02417724 -0.15348725 0.094897546 0.17162873 -0.07913577
-0.8681483 0.30839965 -0.19907492 -0.21113929 -0.06500994 -0.0987602 0.04307543 -0.1629277
00000000: 1ab9 ecbd bd9c bfbc 6f4d 35bf 2cd3 febe
00000010: 875d 22bd 137e afbe 49c7 52bf 4a4f 0ebf
00000020: b33e cdbe c217 d4be 9dbc 4bbe 8eab fcbe
00000030: f85f a33c 0b00 f5be c396 163e 0784 a0bd
00000040: 3347 713d 7987 0bbf 263b 42be de47 0b3e
00000050: 3032 64be dd11 60be 948a febe a0f8 d8be
00000060: 16de c3be fc3a 29bf 8af9 42be de74 6e3e
00000070: cdc2 803e 4540 de3e a13a 0cbf a169 b3bc
00000080: 7a2c 92be e84c eb3c 970d 14bf bbd9 15be
00000090: d651 35bf bfcc e1be cc08 14bd e364 81be
000000a0: d857 f13d dc4d 87be 218c 843e ee62 d4be
000000b0: b6d3 e0be 4603 c4be baa0 babe 4adf 053d
000000c0: 7e06 de3e a290 04bf 46e5 bfbd 97a9 24bf
000000d0: d6e8 99be 5bf5 fcbe a38c 2dbf 8a65 9cbe
000000e0: 9b09 9abe 5e66 b6be fe96 b7be d013 b6bd
000000f0: 7221 923e a3cb 16bd 82b3 5bbf 687d 47be
00000100: b57b 0bbf 8217 e4be 672e 10bf 5575 e5be
00000110: cd9a ddbc 5659 d0bd 43ed 74be 739e edbe
00000120: 51c9 8fbe d5b8 8abe 36c3 1ebf d33f 83be
00000130: 5b43 0ebf 6bf1 563d 505d 0bbe 69fd 22be
00000140: 61e3 cfbe d0ba 35bf b9fc 97be 7620 edbe
00000150: e018 f1be f602 41be 0024 12bf 91e3 08bf
00000160: 1822 c63d 16f8 4a3e 0334 7fbe dfa9 d8be
00000170: ee0f f1bc 037d f8be 5bec 2ebf f7fd 0abf
00000180: 71a5 a4be 1d30 88bf 1929 b9be 204b 9f39
00000190: 2198 95be 25b3 a43e 93bb acbe 9482 94be
000001a0: 3adc 1ebf 5ef3 a83e fa17 92be b8f0 84bd
000001b0: ae4d 63be 7276 c2be cd42 f3bd 86dc 35bd
000001c0: 8fcd 65bd d367 2bbc 7a86 1cbf 590f c63c
000001d0: c32b 1dbe a559 c23d 71bf 2f3e ef11 a2bd
000001e0: f83e 5ebf 8fe6 9d3e 4cda 4bbe e634 58be
000001f0: ee23 85bd ca42 cabd dd6f 303d 85d6 26be
