models/2/critic_n139.pt (torch, 215160 bytes, 13 tensors)

model_s.0.weight f4 [33]
00000000: d5e9 5c3f 8286 ee3e a730 633f 60fc 2f3d
00000010: 1119 433b d621 263d d96f 343d ce75 9c3d
00000020: 6c3f 803d e458 133d fbdd 833e d2bd 8c3e
00000030: b5b3 703e 80e3 c13f 5513 563f 3309 bf3f
00000040: 2202 8f3d c57f 673c 6f3f ab3c d0fa f13c
00000050: 087f 5d3e d049 103e ce23 df3d 7d77 1b3f
00000060: 9e53 073f f8ec 163f d580 b63f 0000 803f
00000070: 68f1 b03f 0000 803f 0000 803f 0000 803f
00000080: 0c6f 503f
0.862943 0.46586996 0.8874611 0.042965293 0.002976958 0.040559612 0.04405198 0.07639657
0.06262097 0.035973445 0.25755295 0.2748857 0.23506053 1.5147552 0.8362325 1.4924682
0.06982829 0.014129584 0.020904271 0.029538542 0.2163049 0.14090657 0.10895501 0.607292
0.52861965 0.58955336 1.4258066 1.0 1.3823671 1.0 1.0 1.0
0.81419444

model_s.0.bias f4 [33]
00000000: 26c0 8bbd 3a8c a9be 6c02 e7bd a330 073c
00000010: 3b50 0bbc 901a 35bc f3ac 7b3c c81e 7dbb
00000020: 41e3 c93c 594a 2a3c 546d 54bc 669a 4abe
00000030: 35a5 99bb 217f 1cbd 20a9 85be ae08 9cbd
00000040: 90e9 81bc 3f98 a7bb 14ea 89bb b336 7c3b
00000050: 8c14 1a3c 8718 5a3b 98e7 d2bc 81bb 543c
00000060: a826 04be 9b82 b63d 60d2 4abd 1f98 30bf
00000070: 83f3 01bd 05a7 0bbc 0478 e7be 4675 1fbf
00000080: 9024 db3d
-0.06823759 -0.33114797 -0.11279759 0.008251342 -0.008503015 -0.011053696 0.0153610585 -0.0038623083
0.024644496 0.010393702 -0.012965519 -0.19785461 -0.0046888837 -0.038207177 -0.26105595 -0.07618843
-0.015858442 -0.0051145847 -0.0042088125 0.0038484752 0.009404313 0.003327878 -0.025745198 0.012984158
-0.12905371 0.0891163 -0.049517035 -0.6898212 -0.03172637 -0.008523707 -0.45208752 -0.6228832
0.10700333

model_s.0.running_mean f4 [33]
00000000: ad04 aabd 85a4 30c0 4335 bd3e 66c0 333f
00000010: 0bd1 a0ba 4862 6b3b 857b 633d 687a 33bc
00000020: 9f18 46bb 9fab db3b a99f b33b 08df e2bc
00000030: 6f2e eb3c 0e31 4c3e 4cc6 45c0 62e7 e33e
00000040: a572 a73c c41f 69bc f10e 30bb 7adc b13a
00000050: 3a6d 8fbd ab53 27bd 8118 e23c 2b61 ba3b
00000060: 64f4 b93d af40 7f3c d7cc d6bd fcff 7fbf
00000070: 137a 99bd 0000 0000 fcff 7f3f 0000 0000
00000080: a020 993c
-0.08301673 -2.7600415 0.36954698 0.7021545 -0.0012269331 0.0035916734 0.05553772 -0.010954477
-0.0030227078 0.0067038084 0.0054816795 -0.02769424 0.028708665 0.19940588 -3.090228 0.4451247
0.020440409 -0.014228765 -0.0026864375 0.0013569735 -0.07003255 -0.040851276 0.027599575 0.005687853
0.09079817 0.015579387 -0.10488289 -0.99999976 -0.07493987 0.0 0.99999976 0.0
0.018692315

model_s.0.running_var f4 [33]
00000000: 731a 6f40 f1e8 403f 7aee 7340 bb4b 953e
00000010: b998 803d bebb 743d 3443 b53d dd04 dc3e
00000020: 0530 8f3d f520 353e 95d0 4d40 2e89 fa3f
00000030: 2829 4940 5840 9041 1c5a 1b40 52aa 8941
00000040: 697f e63d a61d b03e a3f3 c53d 493b e53e
00000050: 06da 7340 dba6 5d3f ef72 673f 4abc 1d41
00000060: 18ee 0c41 49df 1f41 3387 ff41 0400 0000
00000070: 8d05 0042 0400 0000 0400 0000 0400 0000
00000080: aa2f aa3e
3.7359893 0.7535544 3.8114305 0.2915934 0.062791295 0.059749357 0.088507086 0.4297246
0.06991581 0.17688353 3.2158558 1.9573114 3.143137 18.031418 2.4273748 17.208164
0.1125477 0.3439762 0.09665611 0.44771793 3.810182 0.86582726 0.9040975 9.858469
8.808128 9.992013 31.941015 6e-45 32.00542 6e-45 6e-45 6e-45
0.3323949

model_s.1.weight f4 [256, 33]
00000000: d759 b33e 0162 f63d 7456 6bbe ac8b 14bf
00000010: 97de 45bd f353 c73c fa70 54be 4b0c 883e
00000020: 498e ff3e ae3f 8abc db4e 8a3d 7fb2 823e
00000030: 3fff 263d fc34 91be 3b60 803d 985d 063f
00000040: 5bcb 493e 7f7f 51be ceff 25bd 5bde 9bbd
00000050: 6cdb 1d3d 9598 db3e 5078 dc3d 8138 f2be
00000060: 76d5 923e 7a8f 113f 9ff6 043f 0129 ec3e
00000070: de4b 91be 844a 203c dfbb 9a3e 322c 7c3e
00000080: 3fcf 90bb 006f 2bbd 0133 183e e2a9 84be
00000090: d47d 03bf b515 fc3c efa3 163f 7776 d53e
000000a0: 3c1e 293e 4149 a5bc c743 49be b459 61be
000000b0: c4da 813e c818 37be daed 4a3c 1d8d 083f
000000c0: 1b77 aaba 8f2d 8e3d 84df 993d f1b4 793d
000000d0: 0e94 3a3d a737 213e aa51 993d 70d2 52be
000000e0: 005d a2be 5c62 b8be 5221 babc 2e92 613e
000000f0: ad35 323f 32a0 b93e ad98 15be 6683 1c3f
00000100: ea36 243f 5f8b 523d 6876 223e dc39 38bf
00000110: 6611 363c 348a 283b 9978 13bc e50c 303e
00000120: e8fc 453c c7a0 cebd d78a b13e eda2 1b3e
00000130: 2221 0d3d 838c d8be 8ebe 4c3e a3e2 793d
00000140: c531 553e 2abe 403e 3de4 cb3d 0676 3d3e
00000150: 2382 a6bd f351 34be d941 8d3e 5112 24be
00000160: e64f d9be ffb7 0d3f de7d b73e adce a23e
00000170: 11d8 94be fa4d 8d3e cc8f 8fbe 2254 fa3d
00000180: 6d0f edbb b28f 483e 8802 0bbe f2ce c6bd
00000190: d5fd 843e e24d e33d 6a5b 2cbe 7b74 1dbe
000001a0: c1e2 53bf a66d d23d 5b66 10be d9f2 8f3d
000001b0: bbe0 6bbd 4bcb 1bbf 8d87 933e 1d3b 753c
000001c0: 81ac aa3d 21d1 8f3d 77e5 45be 5779 80be
000001d0: 5233 b23e 5c30 0fbf f2ed a73e 45cc b6bc
000001e0: 0487 183c 7e08 de3e eb85 82be a079 cb3e
000001f0: 036a fabe d7d8 da3e 0012 023f 0999 913e
00000200: aa35 83be d698 003f 9580 f93e a1dc 8abe
00000210: 6446 823d b5e3 073e 1831 263e 204f 313f
00000220: 37aa 2a3e 53f0 4ebe f1bf 9abd dff3 463f
00000230: 082a d9be 24c1 dcbe 11de 653e ecfb 343e
00000240: f517 693f 8ab7 91bc d856 9b3e 0987 a53d
00000250: ade4 fc3c d229 13be 8cf0 9ebe c8b2 543e
00000260: d36e 7e3e aa7d 81be a3a9 7dbd 39f8 593e
00000270: d8eb 413e e60e 373f d77b 943e 73d2 d03e
00000280: d9be b2bd a585 aabc 5b4c ce3e 276e cb3e
00000290: 9b7f 4f3e 0aa6 a83e 30c1 393e b261 0cbe
000002a0: 7000 843e 7891 debd aa02 9cbe 992c 713e
000002b0: 5bde 3fbd d097 083f fc44 09bf 401b 22bf
000002c0: 0638 4f3e d7b0 83be d141 8ebe cc8b 4dbe
000002d0: c7d9 ecbd f8b1 d2bd b648 31bf c78f debd
000002e0: aaa4 97be dc48 0dbf 811e 8dbe 9d59 913e
000002f0: b61d 6fbe 0390 e2be 3be5 e73d c383 8c3d
00000300: d018 073f ccdd c3bd aefb 25be c62d af3e
00000310: 6d18 be3e 3cc1 b1be 4cfd 2d3e 8b6c 083f
00000320: ebf3 8d3e 0040 a9be 10ee 273e 48a5 1abe
00000330: dca6 de3e 98fc 0b3f 9139 923d 4f0d 813e
00000340: 7d99 f33e 9b6f 20be d9e3 f9bc cdf7 b4bd
00000350: 1c0b 99bc 6626 3dbc e91f 243e 49e5 b93e
00000360: dfb0 583e 8d74 b6bd 8112 923e 95ec e73d
00000370: 8c39 8bbe ce19 f33e 31af 89bd b133 85be
00000380: 91fb a2bd 17b1 9c3e b4e5 d73e ca07 033e
00000390: 24c5 fb3e 602b f63e 2e85 41be 31c8 a03e
000003a0: bfcf 85bc 2b41 9f3d 3fd0 32bf cb3a 7f3e
000003b0: 9cbd 28bd 2724 93bd f9b8 fa3d fa4b 9f3e
000003c0: f3db 0dbf 3cc6 fd3d c3bf 1fbe 49bc 553e
000003d0: 9d86 12be 27e4 043e fb9c f13e 60a4 50be
000003e0: a8f8 a53c de69 3a3e 7db8 a3bc c207 613e
000003f0: 5410 323e 6a5c 0ebf b0d2 9f3e ef2e 1b3f
0.3502948 0.120304115 -0.22982198 -0.5802562 -0.04830798 0.024332022 -0.20746222 0.2657188
0.49913242 -0.016876068 0.06753322 0.25526807 0.040770765 -0.28360736 0.062683545 0.5248656
0.1970648 -0.20458792 -0.040527157 -0.0761077 0.038539335 0.42889848 0.10765135 -0.47308734
0.28678483 0.5685955 0.51938814 0.46125033 -0.28378195 0.009783391 0.3022146 0.24626234
-0.004419237 -0.041853905 0.14863206 -0.2591086 -0.51363873 0.03077207 0.5884389 0.41691944
0.1651544 -0.020176532 -0.19654761 -0.22006875 0.25362217 -0.17880547 0.01238581 0.5334032
-0.0013005467 0.06942283 0.07513335 0.060963575 0.045551352 0.15743886 0.07486279 -0.20588088
-0.31711578 -0.36012542 -0.022720966 0.2202842 0.6961315 0.36255032 -0.14609022 0.61138
0.6414629 0.051402446 0.15865481 -0.71963286 0.011112547 0.002571714 -0.009000921 0.17192419
0.012084223 -0.100892596 0.3467624 0.1519887 0.034455426 -0.42294702 0.19994566 0.061007153
0.20819767 0.18822542 0.09955642 0.18502054 -0.0813029 -0.17609386 0.275893 -0.16022612
-0.4244377 0.5535888 0.35838217 0.31798306 -0.29071096 0.27598554 -0.28039396 0.12223078
-0.007234505 0.19586065 -0.13575184 -0.097074404 0.25974908 0.11098839 -0.16831747 -0.15376465
-0.82767874 0.1027482 -0.14101546 0.070287414 -0.057587367 -0.60857075 0.28814355 0.014967707
0.08333684 0.0702231 -0.19325815 -0.25092575 0.3480478 -0.55933166 0.32798725 -0.0223142
0.009309534 0.43365854 -0.25492796 0.3974123 -0.48909006 0.4274356 0.50808716 0.2843707
-0.2562688 0.5023321 0.48730913 -0.27121451 0.06361082 0.13270457 0.16229665 0.6926136
0.16666494 -0.20208864 -0.07556141 0.7771587 -0.4241488 -0.43116105 0.22447993 0.17674226
0.9105218 -0.017787714 0.30339694 0.080823965 0.03087076 -0.14371422 -0.31042898 0.20771325
0.24846964 -0.25291187 -0.061929356 0.21286096 0.18937624 0.7150711 0.29000732 0.4078556
-0.087278076 -0.02081568 0.4029263 0.39732477 0.20263521 0.32939178 0.18140101 -0.13709143
0.25781584 -0.1086759 -0.30470783 0.23552169 -0.046842914 0.5335665 -0.53620887 -0.6332283
0.20236215 -0.25720856 -0.2778459 -0.2007286 -0.11564975 -0.10287851 -0.69251573 -0.10867267
-0.29617816 -0.551893 -0.27562335 0.28388682 -0.23351178 -0.44250497 0.11323019 0.06861069
0.52772236 -0.09563789 -0.1620929 0.3421461 0.3712801 -0.3471774 0.16991156 0.53290623
0.27725157 -0.3305664 0.16399407 -0.15102112 0.4348668 0.546823 0.07139886 0.25205466
0.4757804 -0.15667574 -0.030504154 -0.08836327 -0.018682055 -0.011544799 0.16027798 0.36307743
0.21161221 -0.08908949 0.28529742 0.11324421 -0.27192342 0.47480625 -0.06722868 -0.26016
-0.07958139 0.3060386 0.42167437 0.1279594 0.49173844 0.48079967 -0.1889846 0.31402734
-0.016334413 0.07776102 -0.6984901 0.24924771 -0.04119645 -0.0718463 0.12242312 0.31112653
-0.5541374 0.12391326 -0.15600495 0.20872606 -0.14309163 0.12977658 0.4719008 -0.20375204
0.02026017 0.18204448 -0.019985432 0.21975616 0.17389041 -0.5560976 0.3121543 0.6061849

model_s.1.bias f4 [256]
00000000: ef31 b4be cab1 10bf d450 02be 8eb2 d6be
00000010: 760d afbe a96f b8be 7480 c4be 300f e2be
00000020: f404 5abe 28a5 abbe 3f2e c9be 15d3 9dbe
00000030: 1db8 e8be bb02 a8bd f0be c1be 940a 42be
00000040: 4907 c1be 178b cbbe a722 d5bd 044a 09be
00000050: ee6d 0abf 2141 e6bd 9f4f aebe 7466 2ebe
00000060: 22c1 e8be 70d3 7cbe dc53 a0be 933a 363c
00000070: 54c4 a5be 65b4 95be 6482 cfbe 258c 0ebf
00000080: 5517 6abe 6a23 83be 43f1 c0be 0dcb 48be
00000090: 0389 85be 0a2d a6bd 2cdc e3be 4811 67be
000000a0: 962b 92be 0be8 7dbc 61ef a3be e692 8dbc
000000b0: f821 d7be e9fb dbbe aaa5 1bbe ef8e a3be
000000c0: 4fe2 9bbe 9d5d 33be 8bb3 97be cde1 dfbe
000000d0: 7976 e8be 0dd8 d6be 24bb 1bbe 88ea 0ebf
000000e0: 449d a9be 1daf b43d 672e 9abe 19a1 b4be
000000f0: d891 b2be 69a3 aa3c 26a5 02be 5a73 afbe
00000100: fd76 8ebd 9c5f 31be 83dc 50be 653e f6be
00000110: bbfc cebe c166 b0bd 7bba e1be 3d3c c0be
00000120: 31f4 8ebe 6e7a 97be 0bae 9bbe 324d a2be
00000130: ccb5 07bf e2eb d2be 4b26 31be 7b30 97be
00000140: 06f4 c8be 8f57 20bf 62c0 b5be 7149 b1be
00000150: 29ea cbbe 2807 f9be 37ad 3cbe 1a91 b9bd
00000160: 4f71 8cbd 6427 e5be a59f eebe ebdc 81bd
00000170: 354d d3be 7331 e8be fb8c bbbe 4a00 76be
00000180: 8396 90be c509 07bf 39b6 29be e2f3 11bf
00000190: b75d 07bf ec6a 12bf 7c6f c8be dd39 8cbd
000001a0: f3f9 29bf c80e b4bd 24f8 b2bd e8d9 5ebe
000001b0: c7a7 efbe 316b a6be 5408 b8be 6610 f7be
000001c0: 7d93 e5be e4d1 04bf 64d3 d6be bd85 89be
000001d0: d750 b0be e1a5 6dbe 0bb5 b5be 193f 37be
000001e0: 3f0d c9be 3e1b 803d b6e7 02bf 60e9 cebe
000001f0: d95e cfbe 4fd9 91be 118c f0be 83c2 d9bc
00000200: 7357 2fbe d708 18bf ecca a2bd a881 abbe
00000210: a2d9 9ebe dde7 a0be 21b5 cabe 0102 fabe
00000220: e5f1 c9be 0742 763e 60a0 dbbd ab0f 9dbe
00000230: e505 b2be f013 debe 905f 80bd b389 a4bd
00000240: 89b6 babe 02ee 3abe 8c71 f7be 9907 43be
00000250: 870f b9be 088b 20be 10e8 59be 7358 6b3c
00000260: f8cd 8fbe 0f30 babe c786 0abe 5f84 82be
00000270: 4d0f 81bd 4b02 09bf b8f1 bcbe 602f 7fbe
00000280: a222 bdbe 40ae afbe 1dff 25be 01a7 a0be
00000290: 3d9f 4fbe 4f6a f5bd b502 60be 1cdc 73be
000002a0: e61d afbe a561 7cbe 3b88 62be 4d59 cfbe
000002b0: 0518 febe c36c 1bbe 009c 43be 232b cdbe
000002c0: d351 19bb ce5a 99be 45ca a4be 3747 97be
000002d0: b0d7 09bf 2198 7cbe 4c80 9fbe 4349 71be
000002e0: d31e aebe c68d 08be 4da6 4fbe faa4 9bbe
000002f0: 588d 92be f545 80be 02fe c1be 09eb 54be
00000300: 4ee0 bbbe b498 14bf 58b1 39be 17c2 ebbe
00000310: feb9 83be 8234 8dbe 15aa a8be 4d62 4abd
00000320: 888d 7fbe 727c 31be 6500 ecbe 6d50 d1be
00000330: 6cd4 0abd d6d9 ebbe 60c6 a0be ad8b 8d3c
00000340: 3610 a9be 10dd 6cbe 41a9 80be 54fe 8dbe
00000350: eb32 90be f125 f3be 9caa 99be 94c9 b9be
00000360: 336e c7be fffa 90be 5d66 bebe 68d2 e6be
00000370: e300 d9be 40db 68bd 9041 d8be 5288 9abe
00000380: fd13 efbe b53a 3ebe 62e2 99be 9772 82bd
00000390: fee3 e2be f684 ad3e 01f4 49be 529a d6be
000003a0: 20d9 cabe bdfc b9be 15e1 a2be 8688 1cbe
000003b0: 140b 02be 74c2 39be ee29 04bf edb7 7dbe
000003c0: 282f 5bbe 6ded ebbe 9b84 f5be 5d75 2abe
000003d0: 60ac 54be 9a44 d9be 13a2 89bd 7d1b a5bc
000003e0: 8102 84bc 49f2 c4be e856 60be 83ea e7be
000003f0: a8f4 d5be 4cb3 28be a7fd 9dbe 3c9e e8be
-0.35194346 -0.56521285 -0.12726146 -0.419331 -0.34189957 -0.3602269 -0.38379252 -0.44152212
-0.21290952 -0.33524442 -0.39293095 -0.30825105 -0.45452967 -0.08203646 -0.37840986 -0.18949348
-0.3770087 -0.39754555 -0.10407 -0.13407141 -0.5407399 -0.11242891 -0.3404512 -0.1703127
-0.4545985 -0.24690032 -0.3131398 0.011122364 -0.3237635 -0.29239193 -0.40529168 -0.55682594
-0.22860463 -0.25612956 -0.37684068 -0.19608708 -0.26081094 -0.08114059 -0.44503915 -0.22565186
-0.28548878 -0.015497218 -0.3201857 -0.01728196 -0.42018104 -0.4296563 -0.15199915 -0.31944987
-0.30446097 -0.1751618 -0.29629168 -0.4372696 -0.45402887 -0.4196171 -0.15208107 -0.55826616
-0.33127797 0.08822463 -0.30113527 -0.35279158 -0.34876895 0.020829873 -0.12758312 -0.34267694
-0.06956289 -0.17321628 -0.20396619 -0.48094478 -0.40427193 -0.08613349 -0.44087586 -0.37545958
-0.27920678 -0.29585594 -0.30406222 -0.3169952 -0.53011775 -0.4119559 -0.17299764 -0.29529175
-0.39248675 -0.62633604 -0.3549834 -0.34626344 -0.39827088 -0.48638272 -0.18425451 -0.09060879
-0.068575494 -0.44756615 -0.46606174 -0.06340965 -0.41269842 -0.45350227 -0.36630997 -0.24023548
-0.2823983 -0.5274928 -0.16573419 -0.5701276 -0.5287737 -0.571944 -0.39147556 -0.06846974
-0.6639702 -0.08791882 -0.08738735 -0.21762812 -0.4680769 -0.32503656 -0.35943854 -0.482547
-0.44839087 -0.5188277 -0.41958153 -0.26859847 -0.34436676 -0.23207809 -0.35489687 -0.17895164
-0.39267918 0.06255196 -0.5113481 -0.40412426 -0.4050205 -0.28486106 -0.46981862 -0.026582008
-0.17123203 -0.5938849 -0.079488605 -0.33497357 -0.31025416 -0.31426898 -0.39591315 -0.48829654
-0.39442363 0.24048625 -0.107239485 -0.30676016 -0.34770122 -0.43374586 -0.06268227 -0.080340765
-0.36467388 -0.18254855 -0.48328817 -0.19045867 -0.3614466 -0.15678036 -0.21279931 0.01436435
-0.2808683 -0.3636479 -0.13527976 -0.25491616 -0.063017465 -0.53519124 -0.36903167 -0.24920416
-0.36940485 -0.3431263 -0.16210599 -0.31377414 -0.20275588 -0.119831674 -0.21876033 -0.23814434
-0.34202498 -0.24646623 -0.2212228 -0.4049782 -0.496277 -0.15178208 -0.19102478 -0.40071973
-0.0023394718 -0.2995209 -0.3218557 -0.2954652 -0.5384474 -0.24667408 -0.3115257 -0.23563103
-0.34007892 -0.13335332 -0.20278282 -0.30399305 -0.28623462 -0.25053373 -0.37889105 -0.20792784
-0.36694568 -0.58045506 -0.18134058 -0.46046516 -0.25727838 -0.27579123 -0.32942262 -0.049410153
-0.24956334 -0.17332628 -0.4609405 -0.40881673 -0.033893988 -0.46064633 -0.31401348 0.017278517
-0.3302018 -0.23131204 -0.2512913 -0.277331 -0.28163847 -0.47489884 -0.30012977 -0.36286604
-0.38951263 -0.28316495 -0.37187472 -0.45082402 -0.4238349 -0.056849718 -0.4223752 -0.3018213
-0.46694937 -0.18577082 -0.3005553 -0.063695125 -0.4431457 0.33890504 -0.19721986 -0.41914612
-0.39618778 -0.36325637 -0.3181235 -0.15286455 -0.12699538 -0.18140584 -0.5162648 -0.24777193
-0.21404707 -0.4607958 -0.47952732 -0.16646333 -0.20768881 -0.4243515 -0.06720366 -0.020154709
-0.016114475 -0.384661 -0.21908152 -0.45296106 -0.4178822 -0.16474646 -0.30857584 -0.45433223

model_sa.0.weight f4 [128, 260]
00000000: fc04 933e d34e 163e abd4 31be 6816 bcbb
00000010: 5ec5 ff3d d7db f2be 519f 0c3e 74a0 e3bd
00000020: f868 2f3d 5074 81be 6dc2 983e 9fff a9bc
00000030: 9b74 033e ed9f 1a3f 94cd d9be d724 c1be
00000040: a513 1f3e 2db1 bdbe 22e2 273e 6731 66be
00000050: 0001 4fbf 2e7b 033e 8320 6bbd f430 34be
00000060: c9ed 133d 640d b0be d335 9bbe d9c2 8fbe
00000070: 90a1 3dbe ff98 e1be 7b55 4ebd 6de9 253e
00000080: 40b1 f1be 8d89 4e3e 2844 aebe 18ee 98be
00000090: f98c bcbe 01d2 dcbe b3b9 cbbe c740 2cbe
000000a0: 0973 513d f342 73bf 4d92 3e3e 6da1 69bf
000000b0: fa36 34be cc6a e7be 1b95 843e b31f 29bf
000000c0: 160b 7bbe 0f19 e1be cd22 123f f4bb 46be
000000d0: 0c04 7e3d e074 a73d ec05 32be b46b a1bd
000000e0: 7374 91be 14da bebe dfdd f9be 4109 12be
000000f0: ca4a 28be a2a0 693d d1b0 bbbe 5703 5f3d
00000100: 8044 8fbe c2ac 69be 2c98 0fbf 08fe 4dbe
00000110: 98b8 5a3e fb3c 1fbf cbab a8bd b864 1b3d
00000120: 9e7b 92be 8ca8 49bf 9797 3cbe ba62 97be
00000130: a304 6cbe 2544 16be b84b 25bf c24d 48be
00000140: 2104 36be 18bf ab3d f832 8dbe 769b d73e
00000150: 84d2 503d 8c79 bdbe 7f15 93bd a761 5c3e
00000160: a3ac ee3e 99a1 503d 5eef 0c3b f267 65be
00000170: 705a f0be 11e6 303d 16f4 593e 016a 03be
00000180: 4b78 11be c251 f2be d078 62bd 153a c4be
00000190: dfdd 00bf baa2 c03b 0a55 3bbc df07 9e3d
000001a0: eb80 8bbe f6b0 37be e829 89bf cfab 023f
000001b0: 31ff 29be 3c2b db3e 3d25 2bbe 09ca 0d3e
000001c0: 9a41 ecbd ef10 a23c 3c8d 9fbe 8bb3 c7be
000001d0: 7e09 79be 6797 3dbf d1d9 00bf fc83 70bd
000001e0: 1545 2f3e 833a 7cbd 6c9f 393e 520d 0fbd
000001f0: b031 71bc c413 a8bc 58d8 c33d 0f3e 8bbe
00000200: 3ab2 99be e23d 163d 8d2f 163f 8e07 2f3e
00000210: 49f2 58bd ff2f aabe ea47 863e 0f99 473c
00000220: 79d4 a6be 1a25 03bf 46da 223e a079 fdbe
00000230: b014 503d fb1a bdbd f1f2 9f3e 3118 babd
00000240: 1adc ca3d ba32 aa3d 3120 e7be 06b5 973e
00000250: c6b3 ed3e 5fe7 ce3c abd9 64bd d3e9 b9bc
00000260: 67e0 7c3e 0f04 0d3e 0d1d 00bf e4e2 a4bc
00000270: 1bd5 5dbf 3c56 e1bd 7cb2 fcbe 0680 ab3e
00000280: 756f b63c 3771 2dbf 8bfe 31bd 5f70 dfbe
00000290: cc1c 0cbe 2089 2b3d 273c 873c 3352 4ebc
000002a0: 4aa8 613e 94db 83bc d9b8 093e 705a 643e
000002b0: 1740 46be 5319 ccbd f269 713e 940a c6bd
000002c0: 96d1 c1bd 9d28 a33d 6724 913e 2d2d 45bd
000002d0: 730a 1bbe a808 22bf f6bc f4be 1aa7 963e
000002e0: f655 d13b 3da2 3b3e 8fdb bbbc ba7a ddbd
000002f0: ecbd 003f 25ab 2d3d 4cab 33bf f670 f83c
00000300: 0110 77bd 38b1 ebbe 6d79 10bf 1503 843d
00000310: 69f9 f6be b31c 03bf f6d8 05bf 464b eb3e
00000320: cd74 3fbe a636 86be 9e92 92be 5cca 37bf
00000330: 21c1 f2be 6409 7bbe 3c50 a83c 4251 4dbe
00000340: 7698 fa3e 31f1 8a3e b36d ce3d bc35 d0bd
00000350: f0c9 6cbf e259 3dbe 9afa a6be 263a ab3d
00000360: 993a 12be d365 f2bd a277 b03e 2409 cebe
00000370: 284f 00bf 83da 8bbc 635c b13e f6e9 043e
00000380: 77ec 04bc c843 02bf 6bf8 22bf 2b9a 48bd
00000390: ab1f ef3d 0938 8abd 71e0 183d b569 81be
000003a0: ac05 773e e1ab 803e 8dab abbc 9a92 e13e
000003b0: 7e94 4bbf 5f40 a3be 3d8c 04be f531 c1be
000003c0: 0733 c63e 53ca dd3c 581d 9fbd 85e7 0f3d
000003d0: 79ee 50be 1253 16be 9ab0 363e dee7 97be
000003e0: ca99 f0ba 13d2 003d 4fbb 2bbf dd53 a4bd
000003f0: 77e6 ec3c 22c1 95be 6b7d 9f3d 15a7 a3be
0.2871474 0.14678507 -0.17366283 -0.0057399757 0.12488817 -0.4743335 0.1373265 -0.111145884
0.042824715 -0.25284052 0.29835835 -0.020751772 0.1283745 0.6040028 -0.42539656 -0.3772342
0.15534838 -0.37049237 0.16394857 -0.22479783 -0.808609 0.12839958 -0.057404052 -0.17596799
0.03611544 -0.34385216 -0.30314502 -0.28078344 -0.18518662 -0.4406204 -0.05037449 0.16202326
-0.47205544 0.20169659 -0.34036374 -0.2986915 -0.36826304 -0.4312897 -0.39790115 -0.16821586
0.051135097 -0.9502403 0.18610497 -0.9126194 -0.17599097 -0.45198667 0.25895008 -0.66063994
-0.24515948 -0.4396443 0.5708435 -0.19407636 0.06201558 0.08176589 -0.17385072 -0.07881871
-0.28409156 -0.37275755 -0.48802087 -0.14261343 -0.1643478 0.057037957 -0.36658338 0.054446544
-0.2798195 -0.22819808 -0.5609157 -0.20116436 0.2135948 -0.62202424 -0.08235892 0.03793785
-0.28609937 -0.7877281 -0.18417202 -0.2956751 -0.23048644 -0.14674433 -0.6456866 -0.19560912
-0.17775013 0.083860576 -0.2757795 0.42110795 0.050982013 -0.37006795 -0.071818344 0.21521626
0.46616086 0.05093536 0.0021504979 -0.22402933 -0.46943998 0.04318816 0.21284518 -0.12833406
-0.14206044 -0.47328 -0.055290997 -0.38325563 -0.5033855 0.0058787735 -0.011433849 0.07716345
-0.27246794 -0.17938599 -1.0715914 0.5104341 -0.16601254 0.42806423 -0.16713424 0.13846602
-0.1153595 0.019783465 -0.3116244 -0.39004168 -0.24320027 -0.74059147 -0.5033236 -0.05871962
0.17116196 -0.06157924 0.18127221 -0.034924813 -0.014721319 -0.020517237 0.09562749 -0.27195784
-0.3001879 0.03668011 0.58666307 0.17092726 -0.052965436 -0.33239743 0.2622674 0.012182488
-0.3258398 -0.5122849 0.15903577 -0.49506855 0.05080098 -0.09233662 0.31240037 -0.090866454
0.09905262 0.083104566 -0.45141748 0.29630297 0.4642622 0.02525681 -0.055871647 -0.022694504
0.24694978 0.1377108 -0.5004433 -0.020127721 -0.866533 -0.11002776 -0.49354923 0.33496112
0.022269944 -0.6775088 -0.04345564 -0.4364042 -0.1368286 0.04187882 0.016508175 -0.01259284
0.22036853 -0.016095914 0.1344942 0.22300124 -0.19360386 -0.09965768 0.23575571 -0.09669986
-0.094638035 0.07966731 0.28348085 -0.048138786 -0.15140705 -0.6329446 -0.47800416 0.29424363
0.006388421 0.18323608 -0.022931842 -0.10814424 0.502898 0.042399544 -0.70183253 0.030327301
-0.060317997 -0.46033645 -0.5643528 0.064459 -0.4823716 -0.51215667 -0.5228418 0.45955867
-0.186969 -0.26213568 -0.28627485 -0.7179315 -0.4741297 -0.24515301 0.020546071 -0.20050529
0.48944443 0.2713714 0.10079517 -0.10166499 -0.9249563 -0.18491319 -0.3261307 0.083607
-0.14280166 -0.11835828 0.34466273 -0.4024135 -0.5012078 -0.017071968 0.34640798 0.12979874
-0.008113018 -0.50884676 -0.63660306 -0.04897515 0.11675962 -0.06748969 0.03732342 -0.2527596
0.24123257 0.25131133 -0.020955825 0.4405716 -0.79523456 -0.3188505 -0.12944122 -0.37733427
0.38710806 0.027074015 -0.07769269 0.035132904 -0.2040347 -0.14680126 0.17840806 -0.29669088
-0.001835638 0.031450342 -0.67082685 -0.08023808 0.028918488 -0.2924891 0.077875935 -0.3196341

model_sa.0.bias f4 [128]
00000000: a28e 44be 44bd 2ebf fda3 76be 85b4 0cbf
00000010: 9dd9 e4be 6e7b 14bf 6234 10bf 4f32 abbe
00000020: 5e91 9ebd 8f3a 20bf 59fa 313f bd01 8c3e
00000030: 1b26 40bf cb55 08bf bda1 573e 4fbc 6bbe
00000040: 7d7d b7be 318c 323f 77d1 a83d fdd6 b1be
00000050: 045f 193c 2068 23bf 39be 27be bcb7 0b3f
00000060: 73b0 03bf 23f5 cbbe bdb9 3bbf 5f8e ee3e
00000070: f376 d8be 92ad 84be ffe0 c6bc 5e3f 22bf
00000080: 8eb5 1ebf d104 6d3e 2123 2e3f cc7f edbe
00000090: 400f e9be 5f5a 27bf fee8 d2be 870a 4fbf
000000a0: a0e2 13bf 3290 033f 0bb9 0bbf 301e a3be
000000b0: c88c 12bf 2aa7 fcbe 40b9 b1be e17a 06bf
000000c0: e992 a3be 4f9e f5be ff92 453f e083 66bd
000000d0: 6ba2 b83b b34e e8be f7fc bbbe ca71 553e
000000e0: b82d f43e a194 a9be e44e 02bf 9ebf aebd
000000f0: 254a 97be ce86 d23e 32c0 0abf b759 a6be
00000100: 7e7f fabe 9276 0b3f 5b2b 0a3f 8901 71bd
00000110: 2cff 1f3f 6f9a 1e3f 2447 d03e 0b87 923e
00000120: fc16 05bf e61c adbe 6aae 89be aa9e a9be
00000130: ef42 e2bd 78a6 a5be cae0 f3be a93b 88bd
00000140: 99d2 b9be 3229 553e 1afc 0abf 55be 4c3f
00000150: 8e61 a33f f17b 2dbf 667e 423f fec1 a9be
00000160: 0f05 f73e 34ca c93e fe85 9bbe 6777 223f
00000170: f9a0 eebe 0084 b3be 0a76 f8bc c836 703e
00000180: af46 20bf ad72 903e 2a33 8dbd 12ac 2dbf
00000190: 4dd6 8b3f 8bb4 fcbe 6700 52be 293c 27bf
000001a0: e83b 2b3f 2234 b0bd 40fb ebbe 0da5 023f
000001b0: 3ee3 633f 5106 8b3e 7036 73be 771b f03c
000001c0: a470 09bd b234 66be 7d6d 9dbe ea46 d0be
000001d0: 9ba0 233e 9ae3 013f 650c b3be f2b6 26bf
000001e0: afd6 0cbf 8b71 9fbd eaf1 d6be 5fe8 603e
000001f0: 38a7 0cbe 33b6 a1be d654 08bf 474f 08bf
-0.19195035 -0.68257546 -0.24085994 -0.5496295 -0.44697276 -0.5800084 -0.5632993 -0.3343682
-0.0774257 -0.62589353 0.69522625 0.27345076 -0.75058144 -0.5325591 0.21057792 -0.23021053
-0.35837927 0.69745165 0.08243077 -0.34734336 0.009361032 -0.6383076 -0.16381158 0.5457723
-0.51441115 -0.39835462 -0.7333029 0.46592996 -0.4227825 -0.25913674 -0.024277208 -0.6337794
-0.6199578 0.23146369 0.6802235 -0.46386564 -0.45519447 -0.6537227 -0.41193384 -0.8087544
-0.5776768 0.513919 -0.5457923 -0.3185897 -0.57246065 -0.49346286 -0.34711647 -0.5253125
-0.3194802 -0.47972342 0.77177423 -0.05627811 0.005634596 -0.45372543 -0.36716434 0.20844188
0.4769113 -0.33121207 -0.5090163 -0.08532642 -0.29548755 0.41118473 -0.54199517 -0.32490322
-0.48925394 0.544778 0.53972405 -0.058839355 0.62498736 0.61954397 0.40679276 0.28618655
-0.51988196 -0.3381111 -0.2689088 -0.33128864 -0.11047923 -0.32353568 -0.47632438 -0.06652004
-0.36293486 0.20816496 -0.54290926 0.79977924 1.2764146 -0.67767245 0.7597412 -0.33155817
0.48246047 0.3941208 -0.30375665 0.63463444 -0.46607187 -0.35061646 -0.030329723 0.23458397
-0.62607855 0.2821249 -0.068945244 -0.67840683 1.0924774 -0.49356493 -0.20507966 -0.6532617
0.66888285 -0.086036935 -0.46090126 0.510331 0.8901862 0.27153257 -0.23751235 0.029309971
-0.033554688 -0.22481039 -0.30747595 -0.40679103 0.15979235 0.5073792 -0.34970394 -0.651229
-0.5501508 -0.077853285 -0.4198144 0.21963643 -0.13735664 -0.3158432 -0.5325445 -0.5324597

model_sa.2.weight f4 [64, 128]
00000000: 1e6c 5cbe 546f 303e bbc5 98be 3c9e 9e3e
00000010: 7424 d2bd a660 34be 6f13 cabd 640c b9bd
00000020: eedb 2b3d 91f6 be3e 0a0d df3c 785e 22be
00000030: 0f09 e4bd 0bb6 323c 2a08 913e 481b 14bf
00000040: e61c d6be c466 943e d96e ce3e 06e4 84be
00000050: 5345 aa3e 09d1 be3e 4518 3dbf 3591 603e
00000060: a709 263e b1da 78be 4fce cbbe f5a4 433e
00000070: a529 efbd a330 5fbe 8901 6d3e 19ce aa3e
00000080: 3a31 b33e ed28 3b3e 0c03 823e e08a 1ebe
00000090: d528 4cbe 1e8a c6be 95fb 4ebe d1d6 03bd
000000a0: bb71 863e 8816 fb3e 1122 d63d ebb8 7abf
000000b0: b3df 21be 7d96 f2bd 06d2 9e3d 0ffc 75bd
000000c0: c712 98be 4b54 76bd 10cb 10bf 62a5 b33e
000000d0: 18f0 933d b57a 753d f520 44be 4edf 8e3e
000000e0: a0ad 233f 6156 61be 647d bc3d 6fc7 48bc
000000f0: ea67 a23d 677c 773e 4c9e 16bd f286 4dbd
00000100: f974 263e 4ace ca3d ab3c 003e 452a dabe
00000110: 7bf7 51be a34d c6bd 0fcb 2a3e 63bf d03e
00000120: fd70 17be ab29 b1be 8887 093e f35f 2a3e
00000130: 90f7 a8be efe0 7fbe fecd 923e 7489 823d
00000140: 5600 cabd 0968 03bf 1423 ee3e 0aec e9bd
00000150: 7e95 813c 61aa 8bbd b935 153e dad4 11bd
00000160: 05f2 ca3d b921 f93e b45c f0be 09a7 49bd
00000170: 802e b1bd 435d 9ebe 40a1 a1bd 471c c63e
00000180: 2d94 b13e e611 19be 4f20 f43d dcda 00bf
00000190: 462f b5be e58e e1bc 1798 d8be abb5 b33b
000001a0: 24fa 30be 9aff 9f3d 1154 423d 73ba d0be
000001b0: fb78 b53d b61e 6ebe d35c adbe 0426 c2be
000001c0: d3f6 a43d 285e 243d 83ba 053e e7d3 04be
000001d0: 4949 12bc 6f5c 17be 9bb8 963d 0b3a 813d
000001e0: 5562 05bf 0c8a 373e e53f 19be e7ab 92be
000001f0: 9c7a cfbe 9e83 8d3e 5d48 e83e c176 a63c
00000200: e0fc fb3b fee3 c9bd 20b5 cabe c5c6 86bd
00000210: 06ab 05be 3209 38bd 654c 66bd 9910 48be
00000220: 7ef1 e43c 2b3b 59bd f8d5 813e 7cc5 1f3e
00000230: 3041 30be 79aa afbd 1d78 5b3e dd80 8bbe
00000240: fe2e f4bc ba72 9d3e 666c ad3e f968 86be
00000250: 9f1a fe3d b236 7d3d 5553 a63e 3e51 533e
00000260: 68eb 61be c3fc 83bd 7ad0 90bc b313 543e
00000270: a699 85bd 2a15 43bd b127 163e c2b5 0fbe
00000280: 3278 9abe db99 8abd c9a8 a13e dda7 61bc
00000290: 893c 3e3d 2e73 8abe e394 babd 4b10 afbd
000002a0: 8dbc 883d bfce 083e a365 26bd 3cb6 983d
000002b0: 4237 dbbd 3cf8 4fbe cf3a 72be 9047 07be
000002c0: fe78 0dbe aed6 7cbe a1fe 9d3e 099d 093e
000002d0: 6510 233e 4077 ea39 033b 103e e08a 8b3e
000002e0: 44d0 22bb 2f81 233e 89e0 62bd f098 ce3e
000002f0: 4fc1 7f3d 4049 313e 7240 c83b 0da3 213e
00000300: 3ee7 c4bd a062 6a3e 591d 0c3e a8e0 ee3d
00000310: f7ae 0a3e 9308 1fbd 65ab 653e 81ea 683c
00000320: 4bcc 1ebe 75fc 44bd b7f8 933d 8e77 e9bc
00000330: 4755 8c3c cd5c aabd 9d9a 593b ef9c 2f3e
00000340: 86bb 363d 26fe 32bd e763 82be 5190 ba3d
00000350: 8a2d 143f 71a3 51be 0a89 b23e 07ce 39be
00000360: 9682 383e 8fb2 123e 0ca4 45bd 02f4 2e3e
00000370: 9553 aa3c 11c3 e9bd 64fc 393b 5306 1d3e
00000380: 18f9 f4bd accf a1b7 9467 d23d a4d0 41be
00000390: 43b2 e63e 1a38 94bd 5f98 a93e eb25 36be
000003a0: 4e16 7e3e fbd1 aebd e7e6 78bd 23b3 bf3d
000003b0: f81b b23e cc75 8b3e e3d2 4fbc 2ec0 293e
000003c0: 1258 ba3c 3873 f4bc 93ff 043e 0c45 a8bd
000003d0: 83f0 943e c9ac f83d a842 f93d 85d8 91bd
000003e0: 6ee0 35be d175 f23d 609d bebd 5a64 c83c
000003f0: 11a0 c7be 5726 543e a237 81be 3526 3a3e
-0.21525618 0.17229968 -0.29838356 0.30980098 -0.10260859 -0.17614993 -0.09866988 -0.090355664
0.04195779 0.3729749 0.027227897 -0.1585635 -0.1113454 0.01090766 0.2832654 -0.5785413
-0.41818923 0.28984654 0.40318945 -0.25955218 0.33256015 0.37268856 -0.7386516 0.21930392
0.1621462 -0.24302174 -0.39805838 0.19105895 -0.11677865 -0.21795897 0.23145117 0.33360365
0.34998494 0.1827733 0.2539295 -0.15482664 -0.19937451 -0.3877725 -0.20213158 -0.032187287
0.26258644 0.49040627 0.104557164 -0.9793841 -0.1580799 -0.118451096 0.077549025 -0.060054835
-0.29701826 -0.06013898 -0.5655985 0.35087115 0.072235286 0.059931476 -0.19153197 0.27904743
0.63936806 -0.22005607 0.09203604 -0.01225458 0.07929976 0.2416855 -0.036772057 -0.050177522
0.16255559 0.09902628 0.12523143 -0.42610374 -0.20504563 -0.09682777 0.16679023 0.40771016
-0.14789195 -0.34602103 0.13430607 0.16638164 -0.33001375 -0.24988149 0.28672785 0.06373873
-0.09863345 -0.5133062 0.46511137 -0.11421974 0.015818354 -0.068196066 0.14571275 -0.03560338
0.09909443 0.4865854 -0.46945727 -0.049231563 -0.08651447 -0.30930528 -0.07892084 0.3869345
0.34683362 -0.14948234 0.11920225 -0.5033395 -0.3538763 -0.027533958 -0.42303535 0.005484303
-0.17282921 0.07812424 0.047443453 -0.4076725 0.08860966 -0.23253903 -0.33859882 -0.3791963
0.080548905 0.040128857 0.1305943 -0.1297146 -0.008928605 -0.14781354 0.073594294 0.06309899
-0.5210317 0.17923754 -0.1496578 -0.28646776 -0.4052323 0.27639478 0.4536771 0.020320298
0.007690057 -0.09857939 -0.39591312 -0.06580881 -0.13053522 -0.044930644 -0.0562252 -0.19537582
0.027947184 -0.053034943 0.25358558 0.15602678 -0.17212367 -0.08577437 0.21432538 -0.27246752
-0.029807564 0.30751592 0.33871764 -0.26251963 0.12407421 0.06181974 0.32485452 0.2063646
-0.22062457 -0.06444695 -0.017677534 0.2071064 -0.06523447 -0.047627605 0.14663579 -0.14034179
-0.30169827 -0.06767627 0.31574085 -0.013772932 0.04644445 -0.27041 -0.09110429 -0.085480295
0.06676588 0.13360117 -0.040624272 0.074566334 -0.10703899 -0.20309538 -0.23655246 -0.13210893
-0.13815686 -0.24691269 0.3085833 0.1343881 0.15924223 0.00044720806 0.14085011 0.2725439
-0.0024843374 0.15967248 -0.055389915 0.40351057 0.062440213 0.17313099 0.006111198 0.15784855
-0.096144184 0.22889185 0.1368307 0.116639435 0.13543306 -0.038826536 0.22428663 0.014216066
-0.15507619 -0.048092324 0.07225173 -0.02849939 0.017130507 -0.083184816 0.003320373 0.17149709
0.04461243 -0.043699406 -0.25466844 0.091095574 0.5788199 -0.20472504 0.34870178 -0.18145
0.18018565 0.14325927 -0.04825215 0.17085269 0.020791808 -0.11414159 0.0028379196 0.15334444
-0.11961573 -1.92894e-05 0.10273662 -0.18927246 0.45057878 -0.07237263 0.33124062 -0.17787902
0.24813196 -0.08536144 -0.06076708 0.093603395 0.34786963 0.2723831 -0.012684557 0.16577217
0.022747073 -0.029840097 0.12988119 -0.08216295 0.29089746 0.12142331 0.12170917 -0.07121376
-0.17761394 0.11838878 -0.09307361 0.024461914 -0.38989308 0.2071775 -0.25237757 0.18178637

model_sa.2.bias f4 [64]
00000000: 3b08 2bbf 9e3a b73f 09a8 a7be f97f 883f
00000010: 1336 eabe 7023 17be 9c16 5e3f 7242 283f
00000020: 3bcb 513f 5f63 1b3e d9e0 4c3f e3aa 4a3f
00000030: ff62 793f 1779 8a3f 49d6 4ebd d25c 86be
00000040: 97e0 0ebf b666 0dbf 5091 a03e 41ff 2dbf
00000050: 78f2 3abe ca71 883f edfb ab3f 6b1e 083f
00000060: f304 1dbf 88f4 bcbe d5e2 853f 730f 0e3f
00000070: fac8 35bf f6ee 2e3f 4260 a03f 2779 d63d
00000080: 0443 2ebf d1db fc3c b9c8 87be 0774 1b3f
00000090: 3763 2c3f d1e4 11bf b704 85be 28ea 20be
000000a0: 5409 2abf 699a 8b3e 24b5 6b3f fcba afbe
000000b0: 54f9 c0be ecf9 543f 5e8a 3b3f b315 0b3e
000000c0: be04 3dbf 74d4 57bf 6300 3abe f2f9 b5bd
000000d0: 2d9e b6be 574c 8e3f d5ef 1abe 0b7b 863e
000000e0: e12d a6be 45ae 0dbf 1780 00bf efd9 a63f
000000f0: 030e 42bf e817 6a3f d328 163f a0d4 9a3f
-0.66809434 1.4314764 -0.32745388 1.0664054 -0.4574438 -0.14759612 0.8675325 0.6572639
0.8195073 0.15174626 0.8003059 0.79167 0.9741668 1.0818204 -0.050497327 -0.2624269
-0.55811447 -0.5523485 0.31360865 -0.6796761 -0.18256557 1.0659726 1.3436257 0.53171414
-0.61335677 -0.36905313 1.0459849 0.55492324 -0.7100979 0.68333375 1.2529376 0.10472327
-0.6807101 0.030866535 -0.26520327 0.6072392 0.6733889 -0.5698977 -0.2598016 -0.15714324
-0.66420484 0.27266243 0.92073274 -0.34322345 -0.37690222 0.8319385 0.73258007 0.13582496
-0.7383536 -0.8430855 -0.1816421 -0.08885564 -0.35667554 1.1117047 -0.15130551 0.2626575
-0.32456878 -0.5534404 -0.5019545 1.3035258 -0.7580263 0.9144273 0.5865604 1.2096138

model_sa.4.weight f4 [32, 64]
00000000: b6f4 7fbe c947 c1bd 28a7 253e 47f9 97be
00000010: 7424 13be c024 8e3d a501 0a3e 96aa 863d
00000020: 013a 9d3e 037a c73d ea2b 2c3e b839 5cbd
00000030: ccd0 2e3e da98 123e 3134 243e 0ef3 bb3e
00000040: 98b0 553d bb3f c83d 778f 0a3d dcd3 8b3e
00000050: baf1 aebe e90b 48be 0435 e93c 2db2 8b3e
00000060: 66f4 2c3d 0ba6 50be cc58 d83d 3fc2 db3e
00000070: a888 783d 9ec5 9dbe 46b5 d73b 79dd 1f3e
00000080: 264d 533c f452 f33d f7cf 8cbd c72a 6a3d
00000090: 3a6a 0abc 99b9 20be 14b7 31be c801 c8bd
000000a0: 67b5 6fbe 9f11 bdbe cd2a a63e 8f17 34be
000000b0: 31fd 14bf 7538 06bb c387 ccbe cb6f cc3e
000000c0: e9b3 a73e d85e ef3d 1759 78be c64e 0f3f
000000d0: b858 2abe 771d 47bd 1f39 873e 1aa8 95be
000000e0: 858b 033e 6676 13bf 56fd c0be 80d5 50be
000000f0: 8bbe 9b3e 5444 383e 073c f53d 3275 9a3c
00000100: d404 48bd 5e86 21be 7b3f c1bd 5a2a dfbd
00000110: a22d d53d 6e85 73bd f3f7 ff3d 30d9 1e3e
00000120: 1c58 3ebd d9f6 f1bc 266e 103e 2833 7cbe
00000130: 678b f6be 283b d9be 3c8a 7d3d 1c6c acbd
00000140: cbfd 94bd 1d0f 93be 4b8c aabd aae3 78be
00000150: d71b 20bb 9a5c dbbd 1e58 233d 093f 74bd
00000160: b99e 94bd 903d afbc 04bb 49be 986d 1bbe
00000170: cc70 bcbe 469c 01bf 41a6 d2be dbfd 013e
00000180: 6531 723e 0257 e9bd a80e 92bd f7cd ad3d
00000190: 0111 033d 470f e9be 65b7 973d 78f5 aa3e
000001a0: 6fe1 453d e07a 4dbe 7bc9 e93d 5a52 123e
000001b0: 60e8 efbd 3e66 4e3e 1019 ddbd b03b 563d
000001c0: 602a 0abe e603 2bbe 1035 2ebe b26d a4be
000001d0: 7539 ecbd d11e 473d ccc9 d9bd d015 b33e
000001e0: 6435 4fbd 8280 03bf e58d 253e 956d bbbe
000001f0: 9de3 2fbe 0248 84bd 6193 123e 267a 13bf
00000200: e9ee ecbd b550 693e f799 c6bd 2841 5f3d
00000210: 29c4 1e3e 0727 463e 5e17 703e c4fd 91bc
00000220: 2661 413e e622 dd3d 12c1 7d3c d777 003e
00000230: cbd2 043e c324 86bd 4790 353e 9b82 d2bc
00000240: 3236 38be 1c62 46bc 835a 283e 9176 b8bd
00000250: 6f7d cf3d cc4e e83d 16cc 583e f169 b7bd
00000260: 61e9 66be 6b54 27be cd93 863e b2e0 693e
00000270: 67eb 3cbe d3d6 533d 6665 9e3e cbbc 9fbc
00000280: f223 56bc 974f 273e 79b8 01bd a51f 413e
00000290: 17fc 343e 7840 163d 90dc 8dbc b646 e03d
000002a0: 4eee c3bd c180 22bc 199b 073d da71 82be
000002b0: 6cc1 46be 681d 2e3e 84b1 65bd 7330 18be
000002c0: a478 02be 4869 0bbe f3a3 dabc c65c ee3d
000002d0: beab 603e 5b0b 2e3d b8c1 c4bd 8413 aa3d
000002e0: 5b94 a2bc 3fee b13d 71b3 d2bd 5187 4e3c
000002f0: 2b53 cd3c d139 aa3d 85c3 3a3d 961b ce3c
00000300: ca5d 823e 6623 13be 4a9d 8bbe d7b1 97be
00000310: 429a 80be 57cc 3cbe 874f 2cbf 5fb4 263e
00000320: 9815 823e fd45 443e 0a66 c33c b8d9 b2bd
00000330: a005 f9bd 016b a2be bde3 ee3d 04f1 b7be
00000340: 818e f7be 161c 25be d229 4b3e 0422 3bbe
00000350: b634 643c 2e71 6fbe 6e80 e3be b90b 64be
00000360: 74b6 9c3e 415c c6be 4bd2 f1be 24d1 483e
00000370: 0ca1 49bf 678a b5bd dae5 b33d ae0c 00be
00000380: 31af 0c3e 72ab d9be 81fd d9be b867 00bc
00000390: 5862 043d 84f9 26be 657f e63d 46e0 883e
000003a0: 27b0 a5be 4713 383d b2ff a53e 15b4 e4bb
000003b0: fec0 41be f2fb fbbd 358a dbbb 7612 d3be
000003c0: ec13 7bbe 6608 90be f6fc eebe 1265 8a3e
000003d0: 0c4b 59bd 87e9 9cbe f307 9abe 588c b3be
000003e0: f53e 29bd 19d2 803e 2f25 aa3e d332 76bd
000003f0: de55 8cbe d72b 99be 8a76 d3bd cc5f 113d
-0.24995694 -0.0943752 0.16177046 -0.2968237 -0.14369375 0.06940603 0.1347719 0.065755054
0.30708316 0.09740069 0.16813627 -0.053765982 0.17071837 0.1431612 0.16035534 0.36708874
0.052170366 0.097777806 0.033828225 0.27310073 -0.34168798 -0.19535793 0.028467663 0.27284375
0.042225264 -0.2037584 0.10563812 0.42921636 0.0606772 -0.30814832 0.006582889 0.15611829
0.012896812 0.118810564 -0.06875604 0.057169702 -0.008448178 -0.156958 -0.17354995 -0.09765965
-0.23409043 -0.36927506 0.3245453 -0.17587112 -0.5819884 -0.0020480428 -0.39947328 0.3992904
0.32754448 0.11688012 -0.24252735 0.55979574 -0.16635406 -0.048612084 0.26410767 -0.29229814
0.12846191 -0.57602537 -0.3769328 -0.20393944 0.3041881 0.17994815 0.1197434 0.018854711
-0.04883273 -0.15773913 -0.09435936 -0.1089675 0.104090944 -0.05945342 0.124984644 0.15512538
-0.046470746 -0.029536651 0.14104518 -0.2462889 -0.4815323 -0.42427945 0.06189941 -0.08419058
-0.0727497 -0.28722468 -0.0832754 -0.24305597 -0.0024430656 -0.10711022 0.039878957 -0.059630428
-0.072568364 -0.02139166 -0.19700247 -0.15178525 -0.36804807 -0.5062908 -0.41142467 0.12694494
0.23651655 -0.113935485 -0.07131702 0.0848655 0.031998638 -0.45519468 0.074080266 0.33390403
0.048310693 -0.20066404 0.114153825 0.14289227 -0.11714244 0.2015619 -0.10795796 0.052303016
-0.13492727 -0.16700706 -0.17012429 -0.3211494 -0.115343966 0.048613373 -0.10634193 0.3497758
-0.050588027 -0.5136796 0.1616741 -0.36607042 -0.17176671 -0.06459047 0.14314033 -0.5760826
-0.11569006 0.22784694 -0.09697335 0.054505497 0.15504517 0.19350825 0.23446414 -0.0178212
0.18884715 0.10797672 0.015487926 0.12545715 0.12971036 -0.065499805 0.17730819 -0.025697043
-0.17989424 -0.012108352 0.16440777 -0.0900699 0.101313464 0.11343154 0.21171603 -0.089557536
-0.22549964 -0.16340797 0.26284638 0.2283962 -0.18449174 0.051718544 0.30936736 -0.019499203
-0.0130700935 0.16338955 -0.031670067 0.18859728 0.1767429 0.036682576 -0.017317086 0.10950987
-0.095669374 -0.009918393 0.033106897 -0.25477487 -0.19409722 0.17003405 -0.056077495 -0.14862232
-0.12741333 -0.1361438 -0.026689505 0.11638789 0.21940514 0.0424913 -0.096072614 0.083045036
-0.019846132 0.0868802 -0.10288132 0.012605504 0.025064072 0.08311809 0.04559662 0.025159638
0.2546218 -0.14368972 -0.2726844 -0.2962787 -0.2511769 -0.18437324 -0.6730885 0.16279744
0.254071 0.19167323 0.023852367 -0.08732933 -0.12159276 -0.31722263 0.116645314 -0.35926068
-0.4835091 -0.16123995 0.19840172 -0.18274695 0.013928583 -0.23383018 -0.44433922 -0.22270097
0.3060795 -0.3874226 -0.47230753 0.19611031 -0.78761363 -0.08864289 0.08784075 -0.12504837
0.13738705 -0.42513615 -0.4257622 -0.0078372285 0.03232035 -0.1630612 0.11254767 0.26733607
-0.32360956 0.04494026 0.32421643 -0.0069794753 -0.18921277 -0.12303914 -0.006699825 -0.41225022
-0.24519318 -0.28131407 -0.4667737 0.27030236 -0.053050086 -0.30646917 -0.3008419 -0.3506801
-0.041319806 0.25160292 0.33231494 -0.060107064 -0.2740926 -0.2991626 -0.10325344 0.03549175

model_sa.4.bias f4 [32]
00000000: 27af 88bf 1b30 a7be 8239 683f 894d 04bf
00000010: 171a 3d3d c66f c5be aa6a 5ebe 16f2 39bf
00000020: 63de 5c3f 6c6d b3be 3172 eabe c636 4fbf
00000030: 3f2e a0bf c502 00bf 70ca 47be 1ece 99bf
00000040: d288 d5be 55e5 3cbf 0c2d 89be 47cf c23e
00000050: 5129 d4be 6011 7ebf be58 74bf d86e 0e3f
00000060: 7a67 8ebe 7bd8 4abd 1e60 4ebf 9864 393f
00000070: ac24 d7be f2a8 02bf fb65 9abe 38fc 0dbf
-1.0678452 -0.3265389 0.9071275 -0.5168081 0.04616746 -0.3856184 -0.21720377 -0.7263502
0.86276835 -0.3504442 -0.45790246 -0.8094295 -1.2514113 -0.50004226 -0.19510818 -1.2016027
-0.41705948 -0.7378743 -0.2679218 0.38048765 -0.41437772 -0.9924526 -0.9544791 0.55637884
-0.2781332 -0.049522858 -0.80615413 0.7241912 -0.42020166 -0.5103904 -0.3015593 -0.5546298

model_sa.6.weight f4 [1, 32]
00000000: 4c9a abbc bb6f cbbd 0a6c 583e d9be 56ba
00000010: 6986 023e 156a e4bc adf7 733d 55bd ee3c
00000020: c1eb 333e da70 eabd 686e 3abc 5289 7a3d
00000030: b41e 1c40 7a0b c9bb 48a2 56bd 88d1 33bd
00000040: bacf a9bd 92f4 273d dbb5 293d 100b abbd
00000050: e546 e03c f2da 46bc 73b1 0ebd 0311 21be
00000060: 4235 0f3c 4c65 32be 2aed 223c bdc9 0b3e
00000070: bc5c 6a3c 644f 983e fd27 3fbd 0479 17bb
-0.020947598 -0.0993342 0.21134964 -0.00081918907 0.12746586 -0.027882615 0.059562374 0.029143015
0.17570402 -0.11447306 -0.011378862 0.061166115 2.439374 -0.0061354013 -0.052400857 -0.043900996
-0.08291574 0.041004725 0.041433197 -0.083517194 0.027377555 -0.012137162 -0.034837198 -0.15729146
0.008740725 -0.17421454 0.00994424 0.13651176 0.014304336 0.2974807 -0.046668995 -0.0023112902
